examples/models/churn.pt (torch_old, 118736 bytes, 20 tensors)

layers.0.weight f4 [200, 10]
000000 72 6a f5 3d a9 6a 00 3e 28 93 55 be f0 d5 5c 3e
       0.119831935 0.12540688 -0.20856917 0.21565986
000010 78 bf 7b 3e 34 ee ad 3e 8a 62 94 be cb 1b 41 3d
       0.24584758 0.33970797 -0.2898143 0.047145646
000020 fe 8f 76 3e 18 ca ab bd 56 2a 9f 3e b5 f4 04 be
       0.24078366 -0.08388156 0.31086987 -0.12983973
000030 1f 62 80 be c4 a4 24 be 98 da 7d bd 31 14 e7 bc
       -0.2507486 -0.16078478 -0.061976045 -0.02820787
000040 44 4b 7e 3e fc 14 f2 3d 19 d8 6b be 3f c6 87 be
       0.24833399 0.11820409 -0.23031653 -0.26518437
000050 dd aa 4a 3e 8e e0 21 bd 09 de 6e be cb dc 7a be
       0.19791742 -0.039520793 -0.23326887 -0.24498288
000060 81 c5 61 3e a6 91 e8 3b 25 ac 2e bd 99 43 7d be
       0.22047998 0.007097441 -0.04264464 -0.24732818
000070 c5 d9 5a be 00 4e 9f 3e 2d 85 f8 3d 6f 63 93 bc
       -0.21372135 0.31114197 0.12134776 -0.01799175
000080 54 c5 97 bd fe 1b 7d bd d8 2f 87 3e 5f bf 78 be
       -0.07410684 -0.061794274 0.2640369 -0.24291752
000090 78 5f 56 3e 4f b5 fe bc 37 76 a8 bd 0c 17 98 3e
       0.20934856 -0.031092314 -0.08225673 0.29705083
0000a0 d3 1c ff 3d 78 13 2b 3e f2 5d 2d be 11 42 27 bd
       0.1245667 0.16706645 -0.16930369 -0.04083449
0000b0 04 f5 a8 be 1d 5d ae 3b 2f 04 70 bc b8 03 65 3e
       -0.32999432 0.0053211586 -0.014649435 0.223647
0000c0 1b b3 ec 3c 09 e8 33 3e ad 69 05 3d 1d 71 74 bd
       0.028893998 0.17568983 0.032571483 -0.059678186
0000d0 6e 6d 35 be 09 04 12 be ce 9e 1b be 38 4c fc bd
       -0.17717525 -0.14259352 -0.15197298 -0.12319225
0000e0 62 42 e4 bc 7a cb 36 be b1 34 c8 3d 46 3f 4e 3e
       -0.027863685 -0.17851058 0.09775675 0.20141324
0000f0 41 80 7b be e9 73 80 be 74 37 c5 3d c6 92 a1 be
       -0.24560644 -0.25088432 0.096297175 -0.31557292
000100 bd f2 4b be 79 34 4f 3e 73 e7 e8 3b 3d 8e cc bb
       -0.19916816 0.2023486 0.007107669 -0.006242542
000110 b4 ca bd bd 81 dc 87 be 38 7b 93 3e 88 4b dc bd
       -0.09267178 -0.2653542 0.28804946 -0.10756594
000120 3a f0 17 3e 49 a2 20 bc f7 4b a0 bc 47 be f3 bd
       0.14837733 -0.009804317 -0.019567473 -0.11901527
000130 00 db 1d be 58 a0 73 3e 0f a8 79 be 7c 11 02 3c
       -0.15415573 0.23791635 -0.24380516 0.007938739
000140 0f ae a2 3d d1 20 66 3e 46 45 ae bd a9 17 8c 3d
       0.07943355 0.22473456 -0.085093066 0.0684045
000150 59 67 59 bc 17 cf 8c 3e f8 b6 2e be 99 fc 9a 3e
       -0.013269269 0.27501747 -0.17061985 0.30270842
000160 f5 51 2c 3e ac 14 67 be 50 07 85 3e 86 a8 28 3d
       0.16828139 -0.2256648 0.25982141 0.04117634
000170 49 1a 0e 3d 6a 9e 84 bd 46 6e 11 be d3 49 75 be
       0.034693036 -0.064755276 -0.14202222 -0.23953943
000180 ae 0f b4 bb 28 90 e5 3d 04 66 76 be f9 7b db bc
       -0.005495033 0.11209136 -0.24062353 -0.026792513
000190 a1 70 80 be 10 7b e7 3d ca e2 87 be 6f fb 75 3d
       -0.2508593 0.11302769 -0.26540214 0.06005424
0001a0 db 58 3e 3e 6a fe 87 bb 64 6d 64 be 34 33 88 3e
       0.18588583 -0.0041502016 -0.22307354 0.26601565
0001b0 45 8d e5 bd 78 4c 6a bc a3 d5 03 3e 9d 8d a2 3d
       -0.11208586 -0.014300458 0.12874465 0.07937167
0001c0 f5 99 78 be 25 a1 95 bd b1 00 8c be c9 a5 6d 3e
       -0.2427748 -0.073061265 -0.27344278 0.23207773
0001d0 96 47 2d be 51 6d be 3d 87 ed cc 3d ec f3 4b 3e
       -0.16921839 0.09298194 0.10006242 0.19917268
0001e0 a2 f9 94 be 16 32 6f 3e 3e 68 95 be 47 82 8e 3e
       -0.29096705 0.2335895 -0.29181093 0.2783377
0001f0 a0 14 de bc ea 9d 47 3e 0a ec 2e 3e 21 83 86 be
       -0.027109444 0.19493833 0.1708223 -0.26271918
000200 30 69 56 be e8 78 4a bd 64 74 fe bd e1 4f a9 be
       -0.20938563 -0.04943171 -0.124245435 -0.33068755
000210 dc 38 6f be fc 56 8a be 3e af 56 bd 4b 46 0a 3e
       -0.23361534 -0.2701949 -0.052413218 0.13503377
000220 ad 4d f0 3d ad d4 c0 3b 7e 98 9b 3e 29 9c be 3d
       0.117335655 0.005884728 0.3038978 0.09307129
000230 2f c8 f3 3c 62 dd ad bd 31 19 95 be 7d af c0 3b
       0.02975854 -0.08489491 -0.29120782 0.005880295
000240 f9 e4 06 be 0c e0 7b 3e 2e 27 27 3d 33 b4 6b 3e
       -0.13173284 0.24597186 0.04080885 0.2301796
000250 65 08 31 be 44 f0 89 3e a5 af 95 3e 43 2f 50 3e
       -0.17288359 0.2694112 0.2923557 0.20330529
000260 10 20 6b 3e 41 b1 74 bd 9f d0 59 3e dd e7 bd 3d
       0.2296145 -0.059739355 0.21270989 0.0927274
000270 c9 e3 a9 bc 25 d8 57 3e 70 ee 3a be 95 08 a0 3e
       -0.0207385 0.21078546 -0.18255019 0.31256548
000280 4f a5 83 bd 98 50 84 be 28 55 87 be 28 38 18 3e
       -0.064280145 -0.25842738 -0.26432157 0.14865172
000290 ad 0c e3 3d 41 e6 00 be 46 81 36 3d 0b 69 4f be
       0.11086402 -0.12587835 0.04455688 -0.20254914
0002a0 bc 73 2e 3c 84 cb eb bc 82 9d 6a be bc 6b a0 3e
       0.01064771 -0.028783567 -0.22911647 0.31332195
0002b0 88 3b 46 be 18 6e 52 bd d9 88 c7 bd 87 49 38 3d
       -0.19358647 -0.051374525 -0.097428985 0.044991996
0002c0 ef bf 2c be 09 48 78 3d e4 d0 bc bd b1 64 39 3e
       -0.16870092 0.060615573 -0.0921953 0.18104817
0002d0 85 a9 98 3e f0 14 67 3d 94 e8 fe 3d f8 91 89 bd
       0.29816833 0.056416452 0.124467045 -0.067172945
0002e0 37 69 84 be 20 d0 bd 3c 94 8e 8d bd 70 d0 9f be
       -0.25861523 0.02317053 -0.0691196 -0.31213713
0002f0 28 57 20 be 22 22 de bd 7d d5 41 be 95 fa 7f be
       -0.15658247 -0.10846354 -0.18929096 -0.24997933
000300 06 4f 15 be 9e 0e e6 bd 5a 95 24 be 62 14 8e be
       -0.14580926 -0.11233257 -0.16072598 -0.27749926
000310 9b a6 7c be 82 e0 fe ba 9a 3c 8e bd 2d 13 96 be
       -0.2467293 -0.0019445571 -0.069451526 -0.29311505
000320 4c 78 30 bd c2 ff f0 3c 0d 51 4b 3e 08 f1 2e 3e
       -0.043083474 0.02941883 0.19855137 0.17084134
000330 c3 a4 a0 bd fc c6 ad 3b c8 97 1a 3e c1 01 a2 3e
       -0.07843926 0.005303262 0.15096962 0.31641963
000340 6c 81 ab bd 7e fe 8d be 30 06 2c be 9e d5 60 be
       -0.08374295 -0.27733225 -0.16799235 -0.21956488
000350 3a 30 88 3e 36 1d 2b 3e 98 e6 c9 3d a7 d5 d6 ba
       0.26599294 0.16710362 0.098584354 -0.0016390578
000360 38 34 47 3e 20 ce 6a 3e 14 6c 3e be 39 55 81 3d
       0.19453514 0.22930193 -0.18595916 0.06315083
000370 67 4c 32 be 2e bb 7f 3e 16 24 6b 3d 2e 76 69 be
       -0.17411958 0.24973747 0.05740746 -0.22798988
000380 c8 e5 71 3e 54 38 ab be 3e 03 01 be 57 36 8e be
       0.23622811 -0.33441412 -0.12598893 -0.27775833
000390 38 4a 35 bc 75 32 58 be 92 35 8a be 93 cf e8 bd
       -0.011065058 -0.21112998 -0.26993996 -0.11367717
0003a0 54 96 23 bd 9e a8 9c bd 48 89 33 be 20 71 86 3e
       -0.039938286 -0.07649349 -0.17532837 0.26258183
0003b0 da a7 19 3d 7a 91 f6 bd 6b ad 7a be d9 34 6f 3e
       0.03751359 -0.12039466 -0.24480216 0.23360004
0003c0 28 68 82 be 09 e0 0c be 91 bc 2f be 5c ce 1b be
       -0.2547009 -0.13757338 -0.17161776 -0.15215439
0003d0 d6 2d a2 bd 13 f0 a0 3e 8f d1 30 bd bd ea 76 3e
       -0.07918899 0.31433162 -0.0431686 0.24112983
0003e0 fb fd 62 3d 8a a5 84 be 77 b3 70 be 56 df 89 3e
       0.055417996 -0.25907546 -0.2350596 0.26928204
0003f0 e5 d9 88 be 9e 21 41 3e 7c 86 12 ba dc 8c 66 be
       -0.2672874 0.1886048 -0.0005589498 -0.22514671

layers.0.bias f4 [200]
000000 d0 7b d0 3d fd 09 1d 3e aa 33 b9 bd 5e 23 02 3e
       0.10179865 0.15335841 -0.09043057 0.12708804
000010 dc 49 a3 bd ca 34 0b bc ba 59 2c be 57 b9 25 be
       -0.07973072 -0.008496473 -0.16831103 -0.16183983
000020 e8 15 77 be 98 46 9e be 3f 01 28 bd 91 16 b0 bd
       -0.2412945 -0.30913234 -0.041016813 -0.08598054
000030 a5 f9 83 be 4f a8 1a be f6 1f 2f bd dc 30 11 3c
       -0.257764 -0.15103267 -0.04275509 0.008861747
000040 81 64 19 be 47 da 61 3e da c7 1a 3e fc b9 33 3e
       -0.14979745 0.22055922 0.151153 0.17551416
000050 44 c9 2b 3e 4f 57 3e be f4 a5 a5 3d 1c 21 82 3d
       0.16775995 -0.18587993 0.08088294 0.06353971
000060 59 dd 39 be 0e 6d 2e 3d 08 83 08 bd 2d 7a 8a 3d
       -0.18150844 0.04258447 -0.033328086 0.067615844
000070 db e9 8a 3e bc de 06 bc 38 e1 0e 3e a7 f6 9b be
       0.27131543 -0.008231815 0.13953102 -0.30461618
000080 3e d4 6a be 52 a0 81 3d 56 64 91 3d 13 d0 6f be
       -0.22932526 0.06329407 0.07099216 -0.23419218
000090 a5 d4 3a 3d 3c b1 9d be 00 7d 05 3d a0 89 1d 3c
       0.04561295 -0.30799282 0.032589912 0.009615332
0000a0 6b 9d 1b be 07 82 14 3d 10 6a 1f be b8 83 78 3e
       -0.15196769 0.036256816 -0.15567803 0.24268997
0000b0 7f 7f 4b 3e df 24 9e be 7c 00 a2 bd 2b c2 98 be
       0.19872855 -0.30887505 -0.07910249 -0.29835638
0000c0 f4 9e 95 be cc ba ae bc 3b 5d d4 3d 38 d2 3b bd
       -0.29222834 -0.021329306 0.10369345 -0.045854777
0000d0 1a f9 87 3d b7 6d 44 be 20 10 b0 bc 63 c9 83 be
       0.06639309 -0.19182478 -0.021492064 -0.25739583
0000e0 00 2e 46 bc 77 79 8b be e5 b8 7f be 76 90 1d be
       -0.012095928 -0.27241108 -0.24972875 -0.15387139
0000f0 63 a4 3c 3b 8a 6b 80 be 52 31 82 3e ba 68 0a be
       0.0028784506 -0.25082046 0.25428253 -0.13516513
000100 f9 79 83 bc 12 2a a2 3d cc 0f 0a 3e d6 63 09 3e
       -0.016049372 0.079181805 0.13482589 0.1341699
000110 38 5a 52 be d1 2c 42 3e 7b ff 8b 3e eb ab 3f be
       -0.20542228 0.18962409 0.27343354 -0.18717925
000120 e8 bb 38 be 34 f8 14 be 45 91 1b be 30 f8 2f 3e
       -0.1804043 -0.14547807 -0.15192135 0.1718452
000130 8e 17 20 be a7 a3 13 bc 39 30 22 3e 10 5d 7c bd
       -0.15633985 -0.009011186 0.15838708 -0.06161219
000140 ae 7e 95 3b bf 3b 08 bb 3e a7 53 be 11 b2 51 be
       0.0045622205 -0.0020787565 -0.20669267 -0.20478083
000150 ea dc b3 3d 05 fd 87 b9 4e 5a 9c 3e f9 8c d2 3d
       0.087823704 -0.0002593772 0.30537647 0.10280795
000160 69 2c 4b be fc c7 9d 3e 39 e5 2c be cf aa 04 bc
       -0.1984116 0.30816638 -0.16884317 -0.008097365
000170 46 e7 28 bd 44 a1 47 3e ee e3 a5 bd 59 54 87 be
       -0.041236185 0.19495112 -0.08100115 -0.2643154
000180 90 b3 10 be e6 4b 9a be b0 2e 9e 3e ad 39 18 be
       -0.14130998 -0.3013603 0.30894995 -0.14865752
000190 e0 12 98 3e c0 8b 12 bd 2a 62 2c 3e 86 d0 4f 3e
       0.297019 -0.035777807 0.16834322 0.20294389
0001a0 b9 dc 23 3e 55 e5 87 3e 08 5c 56 bd 05 ed 95 3e
       0.16002168 0.26542154 -0.05233386 0.29282394
0001b0 8d 66 90 3c e5 a9 2a be d3 a8 7c 3e c7 22 ed bd
       0.017627025 -0.16666372 0.24673776 -0.11578899
0001c0 f8 23 16 be 14 c1 fc 3d a0 3d 8f bc 85 4a a0 3e
       -0.14662158 0.12341514 -0.01748544 0.31306854
0001d0 34 ba 8e be 58 c2 5f bd 5e 62 81 be f2 a6 b4 3d
       -0.27876437 -0.0546287 -0.2527036 0.08820905
0001e0 18 9b fe 3d 4b 29 46 3b 8e 38 86 be 56 f8 d9 bc
       0.124319255 0.0030237015 -0.26215023 -0.026607674
0001f0 e9 a4 82 3e 02 c1 0e 3e a4 aa 3f be 5c d6 81 bd
       0.2551644 0.13940814 -0.18717438 -0.06339714
000200 58 51 ac 3e b2 b8 1c 3e c9 ec 8d 3e 8e 3f 25 3e
       0.3365581 0.1530483 0.27719715 0.16137525
000210 10 bf 54 bd a0 5f 1f 3e 88 c5 1f bd a1 78 91 3e
       -0.051940024 0.15563822 -0.03900674 0.28412345
000220 31 f0 2c be 10 24 5f be 77 4a 7f 3d 60 1c e3 bc
       -0.16888501 -0.217911 0.062326875 -0.027723491
000230 0b ee a2 3d 31 c8 a6 3d 1b 93 a1 3a 21 ae ae be
       0.07955559 0.08143652 0.0012327166 -0.34117225
000240 e4 1c 7a be 68 f2 64 be 57 7a 2f be 12 5f f5 bd
       -0.24425083 -0.22358096 -0.17136513 -0.11981024
000250 b9 3f 82 3e 37 18 94 3e 60 07 17 3d c7 8e de 3d
       0.25439242 0.28924724 0.036872268 0.10867076
000260 8a 10 90 be fe bc 4a 3e bd f3 42 3e d1 c5 a0 bd
       -0.28137618 0.19798657 0.19038291 -0.078502305
000270 b6 3d b9 bd c0 d5 13 3e f6 fa 60 3e 10 38 dd 3b
       -0.090449736 0.14437008 0.21970734 0.006751068
000280 9c 4d 20 3e ff f1 71 3c 40 70 a0 be 7c dd 85 3d
       0.15654606 0.014767169 -0.3133564 0.065363854
000290 71 19 23 3e 53 7c f7 bd 9a 4c 93 be 90 9b 21 3e
       0.15927674 -0.1208426 -0.2876938 0.15781999
0002a0 c1 2b 77 3d cd 97 a3 bd 1b 3d 03 be 0e 55 77 3e
       0.06034446 -0.07987938 -0.12816279 0.2415354
0002b0 8a 09 46 3e 1f 87 14 bd 26 89 4d 3e 50 b1 61 3e
       0.19339576 -0.036261674 0.20071849 0.22040296
0002c0 94 82 90 be a7 b1 82 be 72 0e 94 be b2 b0 36 3e
       -0.28224623 -0.25526163 -0.2891727 0.17840841
0002d0 15 73 08 be f0 72 54 be 74 5a a6 bc ff 39 95 3e
       -0.1332515 -0.2074697 -0.020306803 0.2914581
0002e0 bd 45 9e be 10 99 71 be 91 6d 8f be 68 2e 18 3e
       -0.3091258 -0.23593545 -0.2801328 0.14861453
0002f0 1c f0 69 3e e4 80 da bb f5 5f 0a be 8f f5 12 be
       0.228455 -0.006668197 -0.13513167 -0.14351486
000300 ad 40 d1 bd fb 21 53 3b 42 02 7b 3e 52 a2 64 3e
       -0.10217414 0.00322163 0.2451258 0.22327545
000310 2b b9 ac 3d b4 3a e4 3c 47 7b 47 3e ef eb 63 bd
       0.084337555 0.027860023 0.1948062 -0.055644926

layers.2.weight f4 [200]
000000 8d 60 7a 3f a9 c9 77 3f 96 f8 76 3f 3b 5e 74 3f
       0.97803575 0.96792084 0.9647306 0.95456284
000010 ac ca 76 3f 30 f4 72 3f 7c 0c 80 3f c6 90 73 3f
       0.96403 0.9490385 1.000381 0.9514278
000020 1f ef 75 3f 36 3c 7b 3f ca 92 76 3f 57 7d 76 3f
       0.96067995 0.9813875 0.9631773 0.96285003
000030 00 00 80 3f 65 5d 71 3f 06 e3 77 3f 1b ad 73 3f
       1.0 0.94283134 0.96830785 0.95186013
000040 df 54 70 3f c3 7c 6f 3f 00 00 80 3f a8 ef 88 3f
       0.93879503 0.93549746 1.0 1.0698137
000050 62 3e 75 3f 52 fe 78 3f 47 4c 87 3f 72 99 75 3f
       0.95798314 0.9726306 1.0570153 0.95937264
000060 4d df 7b 3f 6a 74 70 3f 00 00 80 3f 9f e8 79 3f
       0.98387605 0.93927634 1.0 0.97620577
000070 c9 76 71 3f 64 34 86 3f 6d ea 76 3f 14 59 7a 3f
       0.94321877 1.0484738 0.96451455 0.9779217
000080 d6 79 79 3f 04 52 75 3f 1a 18 76 3f a1 a0 72 3f
       0.9745153 0.9582827 0.96130526 0.9477635
000090 ae 69 74 3f 31 16 74 3f 00 00 80 3f 8d 51 77 3f
       0.95473754 0.9534636 1.0 0.9660881
0000a0 52 58 77 3f 3e dc 77 3f 00 00 80 3f fd 2f 85 3f
       0.9661914 0.9682044 1.0 1.040527
0000b0 a7 f2 77 3f e7 90 76 3f 00 00 80 3f 3b d8 71 3f
       0.96854633 0.96314853 1.0 0.94470567
0000c0 0f 79 75 3f 74 07 76 3f 53 04 71 3f 4b 8b 76 3f
       0.95887846 0.9610512 0.94147223 0.96306294
0000d0 2c 68 78 3f 0b c9 76 3f 0b 5e 75 3f 00 00 80 3f
       0.97033954 0.9640052 0.95846623 1.0
0000e0 00 00 80 3f a2 2e 7b 3f 51 44 7a 3f fc 9d 7a 3f
       1.0 0.9811803 0.9776049 0.97897315
0000f0 a7 27 75 3f c3 81 87 3f df 55 86 3f 00 00 80 3f
       0.9576363 1.0586475 1.0494956 1.0
000100 d5 aa 76 3f 0b 61 75 3f c7 a7 73 3f 77 ac 77 3f
       0.9635442 0.958512 0.9517788 0.96747535
000110 f2 d5 75 3f bf cd 77 3f 48 c4 79 3f 20 96 72 3f
       0.9602958 0.9679832 0.97565126 0.9476032
000120 73 84 79 3f 03 c5 77 3f dc 45 8a 3f 5c 4f 76 3f
       0.97467726 0.9678499 1.0802569 0.9621484
000130 00 00 80 3f 91 c2 84 3f dc 93 77 3f 88 07 73 3f
       1.0 1.0371877 0.9670999 0.94933367
000140 9b 01 86 3f bb 09 79 3f 15 50 78 3f ee f3 74 3f
       1.046924 0.9728047 0.96997195 0.9568471
000150 87 f6 6f 3f 5e 9c 78 3f 2d 5e 70 3f b7 9e 77 3f
       0.93735546 0.971136 0.938937 0.96726555
000160 ad 38 78 3f 32 78 78 3f 00 00 80 3f 7e 4f 80 3f
       0.9696148 0.97058403 1.0 1.0024259
000170 39 de 85 3f 1e a5 90 3f 0e 6c 7a 3f d8 bd 75 3f
       1.0458442 1.130039 0.9782113 0.95992804
000180 00 00 80 3f b5 10 73 3f ae f6 76 3f d3 d0 73 3f
       1.0 0.9494737 0.96470153 0.95240515
000190 33 a5 86 3f 00 00 80 3f 00 00 80 3f 88 f2 74 3f
       1.0519165 1.0 1.0 0.95682573
0001a0 20 58 73 3f 29 01 7a 3f 53 e7 76 3f 00 00 80 3f
       0.95056343 0.9765802 0.9644672 1.0
0001b0 21 dc 7c 3f e1 ca 85 3f b0 fb 77 3f 74 cc 76 3f
       0.9877339 1.0452539 0.9686842 0.9640572
0001c0 5d d6 78 3f 00 00 80 3f 00 00 80 3f 5a 5c 72 3f
       0.9720209 1.0 1.0 0.9467217
0001d0 d2 49 88 3f 0f 32 77 3f 00 00 80 3f 8a 07 88 3f
       1.0647528 0.9656076 1.0 1.0627301
0001e0 be 61 78 3f 93 37 76 3f 25 df 76 3f da d5 72 3f
       0.9702414 0.9617855 0.9643424 0.9485756
0001f0 ca 88 74 3f 64 54 75 3f 0f 62 77 3f ff 10 77 3f
       0.95521224 0.95831895 0.96634 0.9651031
000200 d3 9c 86 3f 84 28 75 3f 77 99 74 3f ea d7 8f 3f
       1.0516609 0.95764947 0.9554667 1.1237767
000210 19 95 74 3f ce 45 7b 3f 3d 16 83 3f 33 88 77 3f
       0.95540005 0.9815339 1.0241162 0.966922
000220 8e 89 86 3f a9 ed 78 3f 2e be 71 3f 00 00 80 3f
       1.0510728 0.9723764 0.94430816 1.0
000230 20 6e 70 3f bd bc 74 3f 2d 59 78 3f de c3 86 3f
       0.9391804 0.9560049 0.9701107 1.0528524
000240 e0 7b 8f 3f 22 1c 74 3f 37 bb 79 3f a2 53 75 3f
       1.1209679 0.9535543 0.9755129 0.9583074
000250 ce 03 72 3f 00 00 80 3f 79 41 74 3f 0d 91 77 3f
       0.94537055 1.0 0.95412403 0.96705705
000260 dc df 73 3f 19 fe 79 3f e9 73 75 3f 85 1a 77 3f
       0.9526346 0.9765335 0.9587999 0.9652484
000270 00 00 80 3f e1 28 7a 3f 92 fd 71 3f ca 24 8f 3f
       1.0 0.97718626 0.9452754 1.1183102
000280 1f 43 74 3f 88 d8 78 3f 64 f0 76 3f 50 d7 8b 3f
       0.9541492 0.972054 0.96460557 1.0925083
000290 91 11 79 3f f6 42 75 3f f1 01 78 3f 00 00 80 3f
       0.9729243 0.958053 0.9687796 1.0
0002a0 22 4e 77 3f 3f 41 75 3f fe 35 79 3f 48 cb 8c 3f
       0.96603596 0.9580268 0.9734801 1.0999537
0002b0 00 00 80 3f 79 d7 75 3f 9f 7f 74 3f f6 11 8e 3f
       1.0 0.9603191 0.95507234 1.1099231
0002c0 6d 04 7a 3f ad f9 77 3f 84 d2 75 3f ab 81 7a 3f
       0.97663003 0.9686535 0.96024346 0.9785411
0002d0 9b 29 78 3f 37 ce 77 3f db 8a 71 3f 00 00 80 3f
       0.96938485 0.96799034 0.943525 1.0
0002e0 f8 fb 77 3f 00 00 80 3f 00 83 70 3f 0e 12 78 3f
       0.9686885 1.0 0.9394989 0.9690255
0002f0 65 e0 74 3f cc 94 78 3f 6c 41 72 3f ec da 76 3f
       0.956549 0.97102046 0.94631076 0.964278
000300 37 89 74 3f f4 66 74 3f 10 24 78 3f 05 77 71 3f
       0.95521873 0.95469594 0.96930027 0.94322234
000310 c2 5d 76 3f ed 82 74 3f f6 f9 71 3f dd b6 77 3f
       0.96236813 0.95512277 0.94522035 0.967634

layers.2.bias f4 [200]
000000 ff 7a bb 3b 79 34 a6 39 91 44 76 3c 6d 47 15 3c
       0.0057214494 0.00031701082 0.015030996 0.0091112675
000010 fa 74 15 3a 06 3e 13 3d a8 89 4d bd 2a 06 cd 39
       0.000570133 0.035947822 -0.050180107 0.0003910524
000020 d9 86 fb bc f5 6e 73 bc 3c 87 26 bc a9 73 21 3d
       -0.030703949 -0.014857997 -0.010164078 0.039416943
000030 82 be 1f 3e 90 d3 4d 3d 9d 77 0d bd 24 a6 69 bb
       0.15600017 0.05025059 -0.0345379 -0.0035652006
000040 52 7b 36 3d b6 00 8d 3b b9 80 0b be fa 02 dd bd
       0.0445512 0.0043030633 -0.13623323 -0.10791583
000050 62 5d 6d bd 7f b6 91 3d 7e 79 84 bd 91 f2 1b bd
       -0.057950385 0.071148865 -0.06468485 -0.038073126
000060 b8 24 1b 3d b8 d1 81 bb 19 3a 16 be 9b ed 3f bc
       0.037876815 -0.003961768 -0.146706 -0.011714364
000070 12 a2 2d 3d 3e 21 dd ba 0e 90 2f 3d a1 f1 ac 3c
       0.04239089 -0.0016870869 0.04286199 0.021111311
000080 36 0e b3 3c c2 31 c2 3c 8c 31 bc 3a 93 6c 44 3d
       0.021857362 0.023705367 0.0014358028 0.047955107
000090 0d 22 5a bd 67 aa 2a 3d f6 c3 1a 3e 65 e1 d1 3c
       -0.05325513 0.041666415 0.15113816 0.025620172
0000a0 c9 ad 00 bd f4 9a 31 bd a1 1c 11 3e 62 c6 3c bc
       -0.031415734 -0.043360665 0.14171077 -0.0115219075
0000b0 84 8c 9b 3c d6 39 b1 3a c4 e9 03 3e 34 67 39 3c
       0.018987902 0.0013521265 0.12882143 0.011316109
0000c0 da 78 58 bc 8d 26 b6 bc 50 c4 8a 3d 70 74 10 3d
       -0.013212407 -0.02223518 0.06775725 0.035267293
0000d0 c9 a7 85 bd 87 91 30 3c bf 48 30 bc 1a 5d 25 3e
       -0.06526143 0.010776884 -0.0107595315 0.16148797
0000e0 b2 e4 16 be 73 7e 3e 3d 02 bd 66 bc dd 2c 87 bc
       -0.14735678 0.04650731 -0.014083149 -0.016500885
0000f0 bc bd 40 3c e0 b4 11 bd f1 d3 3b bd 7e 29 0b 3e
       0.011763986 -0.035572886 -0.04585642 0.13590047
000100 7c ae 58 bd c6 d6 ab bc 5d bd e0 bc 23 97 d4 3c
       -0.052900776 -0.020976435 -0.027434045 0.025950974
000110 04 10 61 3b d0 36 99 bb c2 a1 fe 39 7b 50 43 bc
       0.0034341821 -0.0046757236 0.00048567174 -0.0119210435
000120 fd d1 c9 bc 8f 4c d0 ba b3 05 d4 bd 2e 27 e4 bc
       -0.024636263 -0.0015891957 -0.103526495 -0.027850714
000130 b0 40 21 be 74 92 3f bd 37 a6 2e bd ba b5 3e 3d
       -0.15747333 -0.046770528 -0.042638984 0.046560027
000140 1b 0f 2b bc 33 9a 34 bc 99 8a 7d 3c dc d3 af bc
       -0.010440613 -0.011023092 0.015474939 -0.021463327
000150 8e 23 45 bc 90 e0 4f bc b9 77 ca 3b 6e 0b 97 3b
       -0.012032403 -0.012687817 0.006178823 0.004609517
000160 f5 fb 4e bd d4 ef 99 3d f8 a6 19 3e dc b3 a8 bd
       -0.050533254 0.07516447 0.150051 -0.082374305
000170 b6 0f f8 bc 47 79 ff bd c7 14 4a 3d 13 bf 1a bd
       -0.030280929 -0.12474304 0.04933622 -0.03777988
000180 bb 96 17 3e 6b 20 2b bd cf 3f e1 3c 5f ab 43 3d
       0.14803593 -0.041778963 0.027496247 0.047770854
000190 c2 f1 36 bc ee 81 19 be 39 10 05 be 6e 1c 03 bd
       -0.011166038 -0.1499097 -0.1299447 -0.032009535
0001a0 bf 7c e4 bc 72 21 54 bc 6c 25 94 bc 9d f3 11 3e
       -0.027891515 -0.012947427 -0.01808425 0.14253087
0001b0 d9 19 49 bc 4e e1 ad bd 60 5d c5 3c a8 38 2a 3c
       -0.012274229 -0.08490239 0.024092376 0.010389484
0001c0 9a 23 11 bd 57 c0 19 3e b8 13 17 be 9b 3b 1a bd
       -0.035434343 0.15014778 -0.14753616 -0.0376545
0001d0 87 5f 56 bb f9 2f 8f bd f6 09 16 be a5 54 5e bd
       -0.0032710747 -0.06991572 -0.14652237 -0.054279942
0001e0 04 91 d9 bc ab b7 ea 3b 4c 08 08 3c d9 e8 d8 bc
       -0.026558407 0.007163008 0.008302759 -0.026478218
0001f0 14 e2 33 bc 71 92 00 bd c4 fa 3e bd 75 18 e9 3c
       -0.010979194 -0.031389657 -0.046625867 0.028454045
000200 c6 ec 95 bd bc 7f 38 3c 03 e3 b2 3b 1f 81 0c be
       -0.073205516 0.011260923 0.005459191 -0.13721131
000210 46 00 00 bd 68 3d e6 bb d9 fd ca bc 82 90 7b 3d
       -0.03125026 -0.007026363 -0.024779247 0.06141711
000220 09 78 75 bd 79 94 1e bd 2b b4 f7 bc 94 06 10 3e
       -0.059928928 -0.038715813 -0.030237278 0.1406501
000230 5a 14 59 3c c3 ec ce bb 95 67 94 3c d8 ec 7a bd
       0.013249481 -0.0063148453 0.018115798 -0.061261028
000240 0e e6 ff bd 1a d5 dd 3c 09 96 b6 3c 70 5f 5d 3c
       -0.12495051 0.027079154 0.02228834 0.013511524
000250 33 8e 42 3d 28 2d 0d be 91 29 41 3c d5 40 44 bc
       0.047498893 -0.13786757 0.011789695 -0.011978348
000260 35 86 03 bd 93 8a 7a bc c1 ea 8e bc 39 ea f1 bc
       -0.03211041 -0.015291828 -0.017445924 -0.029530631
000270 74 79 18 be 37 4b 5a bd 31 3f 3c bd d8 1d ed bd
       -0.1489008 -0.053294387 -0.0459587 -0.11577958
000280 69 f4 43 bd c2 f8 57 3c b2 b5 c9 bc 4f 1a c8 bd
       -0.04784051 0.013181867 -0.024622772 -0.09770643
000290 04 35 fc 3c d6 e0 3e bd 59 c6 af bc 72 6d 13 be
       0.030786999 -0.04660114 -0.021456884 -0.14397219
0002a0 12 54 c1 3c db 42 26 bc 93 bf 87 bc e3 cf f8 bd
       0.023599658 -0.0101477755 -0.016570842 -0.12149026
0002b0 8b e6 11 3e f1 49 95 3c 7f 9e 9a 3b c5 d6 07 be
       0.14248101 0.018223735 0.0047186012 -0.13265522
0002c0 46 3a a5 3c e4 5c f0 3c 16 51 0f bd 44 5f 30 bd
       0.020169389 0.029341169 -0.03498944 -0.043059602
0002d0 82 8a 87 bc 6c 0f 7a bc 2c 55 a3 3c b6 bc 1a be
       -0.016545538 -0.015262466 0.019938074 -0.1511105
0002e0 ae 6e 1a 3d bf 65 27 be 69 c6 bb bc 43 80 82 3c
       0.03770321 -0.16347407 -0.022921758 0.0159303
0002f0 14 ee 2a bd 10 e4 03 3d 6d e6 e0 bb c5 d8 3c bd
       -0.041730955 0.03219992 -0.0068634064 -0.046105165
000300 d8 d6 90 3c e0 a9 a9 3c 6b 77 3b 3d b2 c6 d1 3b
       0.01768057 0.020710886 0.045768183 0.00640186
000310 2e e8 a1 bc 6f 75 9d bc 83 a4 2f 3d 10 05 17 3d
       -0.019764032 -0.019221036 0.0428815 0.036870062

layers.2.running_mean f4 [200]
000000 a2 b1 2e 44 d0 09 9b 44 eb eb 84 46 04 3b d7 46
       698.7755 1240.3066 17013.959 27549.508
000010 c0 10 07 47 98 81 1e 46 cb b4 09 33 63 df 94 46
       34576.75 10144.398 3.206223e-08 19055.693
000020 d8 9c 17 46 37 cf d7 45 cc 61 98 46 f6 8b d2 46
       9703.211 6905.902 19504.898 26949.98
000030 00 00 00 00 e4 84 18 46 b1 51 2e 47 0e 4b 3a 47
       0.0 9761.223 44625.69 47691.055
000040 0c 8e 46 3e a9 a0 b1 46 00 00 00 00 c5 03 5e 32
       0.19390124 22736.33 0.0 1.2922958e-08
000050 83 2d 08 46 8b 89 bb 46 3e 72 d5 3d 9f 60 73 46
       8715.378 24004.771 0.104221806 15576.155
000060 4f a8 a8 45 f1 24 04 46 00 00 00 00 38 c6 21 46
       5397.0386 8457.235 0.0 10353.555
000070 42 a9 d4 46 8e 83 fb 3c 18 6f 3b 45 c2 2b 01 46
       27220.629 0.030702379 2998.9434 8266.939
000080 bf 66 4d 46 d0 3c 46 46 98 cf 21 45 fc 57 83 45
       13145.687 12687.203 2588.9746 4202.998
000090 78 5d 0d 46 8a 03 f6 46 00 00 00 00 06 7e 2a 47
       9047.367 31489.77 0.0 43646.023
0000a0 3b 3a 75 46 f3 ef 1c 43 00 00 00 00 bb 18 77 3c
       15694.558 156.9373 0.0 0.01508158
0000b0 f7 1f aa 44 c6 68 a2 46 00 00 00 00 de c2 96 46
       1360.9989 20788.387 0.0 19297.434
0000c0 cd 83 1f 47 63 f3 a2 46 30 99 1f 43 db eb 32 45
       40835.8 20857.693 159.59839 2862.741
0000d0 59 35 17 46 43 79 85 45 d6 56 5a 46 00 00 00 00
       9677.337 4271.1577 13973.709 0.0
0000e0 00 00 00 00 41 a3 55 46 19 b8 dc 45 dd 57 02 47
       0.0 13672.813 7063.012 33367.863
0000f0 c1 3f c3 46 e5 d0 89 3d f0 c1 f8 3d 00 00 00 00
       24991.877 0.067292966 0.12146366 0.0
000100 cb bc c5 44 19 0b c8 45 04 8d ac 46 70 86 38 45
       1581.8998 6401.387 22086.508 2952.4023
000110 5e a3 62 46 a5 40 80 46 76 db 90 45 6a 50 1f 46
       14504.842 16416.322 4635.4326 10196.104
000120 4c 72 08 45 7e e6 aa 46 9d 96 a4 3d a6 1d fb 44
       2183.1436 21875.246 0.0803654 2008.9265
000130 00 00 00 00 bc 45 50 3d 6c af 02 47 82 1e 0c 47
       0.0 0.050847754 33455.42 35870.508
000140 3c 38 1e 3c 2a 1a 20 44 53 11 0b 46 6b af 2a 47
       0.009656962 640.4088 8900.331 43695.418
000150 13 01 22 46 24 32 b0 46 1b 56 9c 46 bc 17 41 46
       10368.269 22553.07 20011.053 12357.934
000160 94 ee 69 45 17 02 4a 46 00 00 00 00 ac ab d2 21
       3742.9111 12928.522 0.0 1.4275595e-18
000170 cc 50 60 3c 9a 70 a7 35 b0 f4 f8 46 d9 df 02 46
       0.0136911385 1.2475241e-06 31866.344 8375.962
000180 00 00 00 00 5a d2 ba 46 39 ed 89 46 31 bb d5 46
       0.0 23913.176 17654.611 27357.596
000190 77 eb 48 3c 00 00 00 00 00 00 00 00 76 e1 3d 47
       0.01226317 0.0 0.0 48609.46
0001a0 f4 1c a5 46 84 08 57 45 ca f0 7f 46 00 00 00 00
       21134.477 3440.5322 16380.197 0.0
0001b0 45 df 88 46 06 a0 9b 3d 0d dd 9a 43 1c 23 54 46
       17519.635 0.075988814 309.72696 13576.777
0001c0 c1 4e 53 46 00 00 00 00 00 00 00 00 ba d4 9e 45
       13523.688 0.0 0.0 5082.591
0001d0 bd 3f d6 3c cc b7 b1 45 00 00 00 00 46 da b3 3d
       0.02615344 5686.9746 0.0 0.08781867
0001e0 62 3e 0f 47 c4 b6 b8 46 34 7a 04 46 7f d9 19 46
       36670.383 23643.383 8478.551 9846.374
0001f0 a2 aa 94 45 ec 3a 08 47 d4 82 9a 46 86 97 a2 45
       4757.329 34874.92 19777.414 5202.9404
000200 e0 b6 d8 3d e3 bb a1 45 53 a1 09 45 7e 7c 0c 3e
       0.10581756 5175.486 2202.0828 0.13719365
000210 9c 7d f2 46 88 a6 b0 46 97 86 1c 3b df 4d 08 47
       31038.805 22611.266 0.0023883933 34893.87
000220 1b b3 0b 3d 7c 90 08 44 e0 f6 9e 3f 00 00 00 00
       0.034106355 546.25757 1.241909 0.0
000230 a0 29 4e 46 3f 53 71 44 17 73 8d 46 1d 6b 83 3d
       13194.406 965.3007 18105.545 0.064169146
000240 8c a8 cf 3d ec 4b a3 46 85 90 ba 45 e1 d8 35 47
       0.1013957 20901.96 5970.065 46552.88
000250 3f 82 0b 46 00 00 00 00 77 9b 39 47 2a c2 33 47
       8928.562 0.0 47515.465 46018.164
000260 1c 6e 8f 45 55 8e b9 45 90 41 a9 44 73 ca 32 46
       4589.7637 5937.7915 1354.0488 11442.612
000270 00 00 00 00 58 5c 12 47 51 07 2e 46 06 16 7c 33
       0.0 37468.344 11137.829 5.8693352e-08
000280 81 21 e8 43 6a 42 fa 44 cf b0 e4 45 58 6b e5 32
       464.26175 2002.0754 7318.101 2.6707923e-08
000290 6a 99 23 46 d5 9d 94 45 c2 72 38 44 00 00 00 00
       10470.354 4755.729 737.7931 0.0
0002a0 19 62 6a 45 9e a0 f0 45 b7 87 49 46 02 2b d4 31
       3750.131 7700.077 12897.929 6.1749015e-09
0002b0 00 00 00 00 31 f7 94 44 8a 5d 2b 47 7e c8 5b 33
       0.0 1191.7247 43869.54 5.1172258e-08
0002c0 17 0d 67 46 ca b4 ad 45 a4 35 3f 46 ef be 4b 46
       14787.272 5558.5986 12237.41 13039.733
0002d0 6b b7 70 45 5e 51 44 45 d1 1e e7 46 00 00 00 00
       3851.4636 3141.0854 29583.408 0.0
0002e0 19 6d 19 47 00 00 00 00 93 4e bc 46 19 fd 11 46
       39277.098 0.0 24103.287 9343.274
0002f0 d2 e9 4b 46 a2 c3 24 46 61 3a b9 45 a3 76 49 47
       13050.455 10544.908 5927.2974 51574.637
000300 28 4d 96 46 86 ee d3 46 73 3a 11 47 ca 29 06 47
       19238.578 27127.262 37178.45 34345.79
000310 4b 79 90 45 ca 86 2b 47 c5 bf 72 46 06 77 16 46
       4623.1616 43910.79 15535.942 9629.756

layers.2.running_var f4 [200]
000000 2f ba 1a 4a e2 b2 2d 4b ae 6b 95 4d ea eb 8a 4d
       2.5350518e+06 1.1383522e+07 3.1335776e+08 2.913396e+08
000010 b4 58 8e 4d aa e1 f7 4c 93 9c 07 38 12 01 51 4d
       2.9852224e+08 1.299613e+08 3.233233e-05 2.1915677e+08
000020 31 1d 1f 4d b5 d1 06 4c 72 7d 71 4d 24 81 1e 4d
       1.6684315e+08 3.5342036e+07 2.5322064e+08 1.6620397e+08
000030 d8 c9 a8 28 0b f3 dc 4b bc 5b d6 4d d2 86 ee 4d
       1.8739283e-14 2.8960278e+07 4.49542e+08 5.0022662e+08
000040 8a 27 15 41 6c 3e eb 4c d8 c9 a8 28 d6 c1 42 37
       9.322153 1.2333552e+08 1.8739283e-14 1.1608432e-05
000050 0d fa 20 4d 08 bb 4f 4d 5f 30 35 41 a1 27 27 4d
       1.6879637e+08 2.1782131e+08 11.324309 1.7527451e+08
000060 14 00 a4 4c 80 ef f4 4b d8 c9 a8 28 00 cb 14 4d
       8.598339e+07 3.2104192e+07 1.8739283e-14 1.5602074e+08
000070 83 71 47 4d ec 34 b4 3f 9b d3 b2 4b 32 42 3b 4c
       2.0913157e+08 1.407865 2.3439158e+07 4.908871e+07
000080 cc 60 2c 4d ea 45 52 4d cd a5 95 4b d6 38 84 4a
       1.8075155e+08 2.2048733e+08 1.9614618e+07 4.332651e+06
000090 4e cd 9e 4c 20 11 52 4d d8 c9 a8 28 3b b5 e9 4d
       8.325797e+07 2.202711e+08 1.8739283e-14 4.9012106e+08
0000a0 93 89 20 4d 8d b5 b3 48 d8 c9 a8 28 a1 11 8b 3e
       1.6833566e+08 368044.4 1.8739283e-14 0.27161887
0000b0 3c 5e 9a 4a 17 0f 61 4d d8 c9 a8 28 ed 14 35 4d
       5.058334e+06 2.3599141e+08 1.8739283e-14 1.8987797e+08
0000c0 0f 33 c5 4d cb 1a ec 4c ed 10 7f 47 59 76 75 4b
       4.1355722e+08 1.2378684e+08 65296.926 1.6086617e+07
0000d0 a7 c3 a9 4c 16 23 36 4c 89 a7 91 4c d8 c9 a8 28
       8.900537e+07 4.7746136e+07 7.636487e+07 1.8739283e-14
0000e0 d8 c9 a8 28 c6 8c 25 4d b1 4b 49 4c c8 b3 a8 4d
       1.8739283e-14 1.7359165e+08 5.2768452e+07 3.537943e+08
0000f0 98 0f 05 4d d8 e9 96 40 e7 d3 60 41 d8 c9 a8 28
       1.3952448e+08 4.7160454 14.051734 1.8739283e-14
000100 de 52 48 4b 65 74 63 4c dd e5 d6 4c 4a 02 b6 4b
       1.3128414e+07 5.9625876e+07 1.1266839e+08 2.3856276e+07
000110 ea 45 76 4d 09 78 8d 4d cd f5 98 4b 88 bd b3 4b
       2.5823606e+08 2.9668176e+08 2.0048794e+07 2.3558928e+07
000120 70 ae c9 4b cd db 82 4d 02 b7 04 41 5a 1e 69 4b
       2.6434784e+07 2.7443037e+08 8.29468 1.5277658e+07
000130 d8 c9 a8 28 a1 51 30 40 73 e5 73 4d 46 b8 88 4d
       1.8739283e-14 2.7549822 2.5574379e+08 2.8672224e+08
000140 2d 38 1f 3e 4f e3 35 4a 9d 18 47 4c 5a a8 ee 4d
       0.15548773 2.9800518e+06 5.219186e+07 5.005013e+08
000150 e0 b2 07 4d a8 9b 48 4d d4 ab c1 4c 5c 4c 33 4c
       1.4229043e+08 2.1035277e+08 1.0153949e+08 4.700197e+07
000160 e1 0a fd 4b 95 48 3e 4d d8 c9 a8 28 69 cc a8 28
       3.3166786e+07 1.9952674e+08 1.8739283e-14 1.8740396e-14
000170 14 5e 9b 3e 32 87 c2 39 7d 82 75 4d 0e a8 73 4b
       0.30345213 0.00037103292 2.574356e+08 1.596827e+07
000180 d8 c9 a8 28 09 c1 46 4d 61 3c 45 4d 8d 65 25 4d
       1.8739283e-14 2.0840872e+08 2.0681678e+08 1.7343099e+08
000190 93 44 77 3e d8 c9 a8 28 d8 c9 a8 28 88 f1 05 4e
       0.24147253 1.8739283e-14 1.8739283e-14 5.617997e+08
0001a0 59 33 6e 4d bb 6f f5 4b e8 bb 68 4d d8 c9 a8 28
       2.4977141e+08 3.2169846e+07 2.440393e+08 1.8739283e-14
0001b0 d6 18 7d 4d 17 76 ef 40 68 d0 8e 48 18 c8 a0 4c
       2.6539146e+08 7.4831653 292483.25 8.429587e+07
0001c0 e8 84 3f 4d d8 c9 a8 28 d8 c9 a8 28 d5 b8 93 4c
       2.008224e+08 1.8739283e-14 1.8739283e-14 7.744887e+07
0001d0 c6 82 8d 3f 38 be ad 4c d8 c9 a8 28 f7 bf fd 40
       1.1055534 9.109139e+07 1.8739283e-14 7.929683
0001e0 15 eb 8e 4d 63 72 ae 4d 7a 19 10 4d 70 5c c4 4c
       2.9972138e+08 3.658415e+08 1.510993e+08 1.0294976e+08
0001f0 fa 6d d3 4a 0a 70 85 4d 2c 56 53 4d 5d d8 88 4c
       6.928125e+06 2.7983904e+08 2.216025e+08 7.174628e+07
000200 b8 f9 3f 41 ea 38 ae 4c 97 9b 9c 49 0d e4 9e 41
       11.9984665 9.134267e+07 1.2829309e+06 19.861353
000210 4d 7d 73 4d d2 dd 24 4d 6f 29 1f 3c bf 5d 8e 4d
       2.553172e+08 1.7287504e+08 0.009714468 2.9856355e+08
000220 df 07 a4 3f 19 2f 36 49 57 23 18 43 d8 c9 a8 28
       1.2814902 746225.56 152.13805 1.8739283e-14
000230 28 52 b5 4c c2 bc 9c 4a 3b d9 8a 4d f9 7d 8b 40
       9.506438e+07 5.135969e+06 2.9118653e+08 4.3591275
000240 2a 5f 2a 41 82 fc c1 4c 5c 35 64 4c 58 76 e7 4d
       10.648233 1.0170472e+08 5.982347e+07 4.854116e+08
000250 9d 20 a1 4b d8 c9 a8 28 7d 29 f0 4d 61 49 f1 4d
       2.111929e+07 1.8739283e-14 5.0365635e+08 5.0601475e+08
000260 fe 4f 4e 4c a6 c1 a8 4c bb f8 14 4b 54 d8 5b 4d
       5.4083576e+07 8.847698e+07 9.763003e+06 2.3052422e+08
000270 d8 c9 a8 28 eb ff a6 4d a8 f5 cf 4b c0 1c 85 37
       1.8739283e-14 3.502237e+08 2.725768e+07 1.5868223e-05
000280 f9 f2 41 4a 3a 49 27 4b 14 7c d9 4c ee 93 46 37
       3.1776622e+06 1.0963258e+07 1.1402461e+08 1.1836162e-05
000290 62 cb fe 4c 2e b2 8f 4c 0d 5c 75 4a d8 c9 a8 28
       1.3358568e+08 7.53381e+07 4.0199712e+06 1.8739283e-14
0002a0 91 7b 0d 4b 5e 7d bc 4c 53 11 92 4c e0 24 0c 36
       9.272209e+06 9.88229e+07 7.658153e+07 2.088309e-06
0002b0 d8 c9 a8 28 c4 b1 21 4b 43 aa d1 4d e7 08 da 37
       1.8739283e-14 1.0596804e+07 4.3969955e+08 2.599177e-05
0002c0 a4 b2 2d 4d 8d 83 93 4c fb 6d bb 4c 05 ff 95 4c
       1.8213536e+08 7.733975e+07 9.8267096e+07 7.864119e+07
0002d0 66 9a 55 4b 1b 0a b2 4b ed 0f 95 4d d8 c9 a8 28
       1.3998694e+07 2.333599e+07 3.126061e+08 1.8739283e-14
0002e0 1e 32 aa 4d d8 c9 a8 28 78 14 f5 4c 5a fc 85 4c
       3.569264e+08 1.8739283e-14 1.2849248e+08 7.024712e+07
0002f0 26 53 49 4d ba 58 4c 4c 0e ab 50 4b 87 11 0f 4e
       2.1110435e+08 5.356823e+07 1.3675278e+07 6.0007264e+08
000300 e4 4a dd 4c cd b7 20 4d f4 92 a2 4d 49 31 93 4d
       1.1602102e+08 1.6852501e+08 3.4094246e+08 3.086851e+08
000310 d9 73 70 4c 36 04 cd 4d 46 fe 05 4d 1c d6 e4 4c
       6.3033188e+07 4.2995066e+08 1.4050211e+08 1.1997616e+08

layers.4.weight f4 [100, 200]
000000 a7 c7 60 3d 2a 2d 31 bd 41 71 6a bd 4f 6d 16 3d
       0.054877903 -0.043255962 -0.057236914 0.03672534
000010 4c 2e c2 bc fa 32 63 bd eb f7 c0 3c 24 c8 2a bd
       -0.023703717 -0.055468537 0.023555716 -0.041694775
000020 bf d7 d6 bc bd 8c a6 bc f7 2f 79 3c 62 db e4 bc
       -0.026225923 -0.020330781 0.01520919 -0.027936641
000030 af 17 cc bd b2 ca 91 bb 71 3c af 3c dc 12 d7 bc
       -0.09965455 -0.004449212 0.021391125 -0.02625411
000040 5e a3 7d bc 8c 0f 9c 3c d4 f2 02 3e 55 47 b6 3d
       -0.015480844 0.019050382 0.12787944 0.08900324
000050 00 5f c2 3b fd 95 b7 3c fd 30 a5 3d 4e 2f 2e 3c
       0.005931735 0.022410387 0.080659844 0.0106313955
000060 9e 3f 56 3c b6 8a 97 bc 6c a4 0e 3e a8 64 a7 3b
       0.013076691 -0.01849876 0.1392991 0.0051084347
000070 2d 08 90 3d 3d 0f 10 3d 4a 56 60 bd b0 a9 90 3b
       0.070328094 0.035170782 -0.05476979 0.0044147596
000080 55 27 83 bb 60 96 f6 3c 74 fd 53 bd 63 2c c3 bc
       -0.0040024915 0.030101001 -0.051755384 -0.023824876
000090 23 7e 3e 3d 23 15 1c 3d 8c 07 40 be 4e e9 80 3c
       0.046507012 0.038106095 -0.18752879 0.015736248
0000a0 75 6d 52 bd 72 f5 24 bc 27 c1 b1 bd 96 76 bc bc
       -0.051373918 -0.010068284 -0.08679419 -0.023005765
0000b0 3d 85 b9 ba 37 5f 23 3d 3e 0f 0b be 52 8c b6 3c
       -0.0014154088 0.039885726 -0.13580033 0.022283707
0000c0 58 29 90 bc 5c 6c c1 bb ec e8 df 3b 7f 1c 0a 3d
       -0.01759784 -0.00590281 0.0068331864 0.033718582
0000d0 8b 41 d5 3c a9 36 6f 3d 22 4a 00 3d 83 a5 bf bd
       0.02603223 0.058401737 0.0313207 -0.09357741
0000e0 9c 13 00 3e 7a 37 d2 bc 25 f2 03 bc fa 64 a2 3c
       0.1250748 -0.025661219 -0.008053337 0.01982354
0000f0 1e 87 05 bd 87 b6 42 3d 8c 12 06 3d a7 06 ff bd
       -0.03259956 0.047537353 0.03273253 -0.12452441
000100 4b 86 cf 3c 3e ea 50 bd 01 fe 22 bc 2f 8c 4f bd
       0.02533259 -0.05100464 -0.009948255 -0.0506708
000110 89 3b 4a 3c 84 f2 68 bc 1d 58 0d 3c 87 1b 46 3d
       0.012343296 -0.0142179765 0.008626965 0.048366096
000120 e0 dc 95 ba 2a 23 e5 3c 8f a4 02 3c 68 4b cc 3c
       -0.0011433624 0.02797087 0.007973804 0.0249383
000130 65 19 5b 3d 8e 22 8c 3d 12 3c 1e 3d 5e e9 90 bc
       0.053491015 0.06842528 0.038631506 -0.017689403
000140 ce 6a f7 3c f9 06 5c bd 0c b6 22 3c 89 16 2e 3d
       0.030202296 -0.053717587 0.009931099 0.04250196
000150 1b 90 06 bd 03 4c 25 bd 46 3f 34 bd cb cf 88 bc
       -0.032852273 -0.040355694 -0.044005655 -0.016700646
000160 e9 a1 9d bc 48 e4 4b 3d 51 79 69 bd cd c1 40 3d
       -0.019242244 0.049778253 -0.057000462 0.047059823
000170 91 5b e8 bc 55 d4 0b 3e 28 6d 7c bc f1 a3 fe 3c
       -0.028363975 0.13655217 -0.015406884 0.031084033
000180 6d c2 95 bd be 7c 95 b9 8a f6 36 bd 6c 1d 39 bd
       -0.073124744 -0.00028512435 -0.04466871 -0.045194075
000190 d5 d4 4d 3d 02 60 0c 3e a5 35 13 3e c9 84 94 bc
       0.0502518 0.13708499 0.14375933 -0.018129723
0001a0 e1 ab b0 bc 31 15 54 3d 88 e3 ae bc 1a c2 33 be
       -0.021566333 0.051778022 -0.02134873 -0.17554513
0001b0 b1 40 cf 3c fd 85 93 3d ea 65 53 bc e8 ce f9 3a
       0.025299402 0.072032906 -0.012902716 0.0019058855
0001c0 66 cd e1 3c e8 39 48 bd 21 c5 2d 3e 69 dc a8 3c
       0.027563762 -0.04888335 0.1696973 0.020612912
0001d0 c2 7a 91 b9 de 86 1d 3d df 78 04 3e 75 09 1c bd
       -0.00027748017 0.038458697 0.12936734 -0.038094956
0001e0 28 7e 59 bb ec 39 38 bc c3 83 39 bd c7 69 10 3b
       -0.0033186767 -0.011244278 -0.045291673 0.0022035704
0001f0 53 d2 30 bd e2 c4 8c 3d ae 5b fd bc dd 2f 68 3c
       -0.04316933 0.0687349 -0.030927505 0.014171568
000200 89 07 1d bd 1e 88 87 bc e7 18 a3 bb 9c af d6 3d
       -0.038337264 -0.016544398 -0.004977334 0.104827136
000210 cc a3 51 bc 47 38 07 bd 2f 66 8d bc 48 1b de 3c
       -0.0127954 -0.033012655 -0.017260639 0.027112618
000220 98 13 98 bc 9a 76 db bc 10 8c 28 bb 8e a4 2f be
       -0.01856403 -0.026789952 -0.002571825 -0.17152616
000230 90 69 17 bd f6 98 4e 3d aa 15 5c 3c 91 2f 55 bd
       -0.036965907 0.050438844 0.0134328995 -0.052047316
000240 da 2b e2 3d 59 22 21 bd 56 ba a7 3c 3b 8a ff 39
       0.1104352 -0.039339397 0.020474594 0.0004874038
000250 e5 bc e1 3c 57 7a fe 3d cc f0 01 bb 47 29 2c 3d
       0.027555892 0.12425678 -0.0019827364 0.042031553
000260 55 8e bb 3c 92 af 16 3d 73 af 0d 3d 00 97 da 3c
       0.022895018 0.03678853 0.03459115 0.02668333
000270 a5 ad ed 3d 7e 50 de 3c 41 d3 97 3b 8f 76 d9 3d
       0.11605386 0.027137991 0.0046333377 0.106183164
000280 c0 d9 41 bd 68 be 18 bd 1d 51 07 3d 93 f9 a8 3b
       -0.047326803 -0.03729096 0.03303634 0.0051567047
000290 ae a5 f7 3c 67 97 03 3d f3 e9 d6 3c 42 78 13 3e
       0.03023037 0.03212681 0.026234603 0.14401343
0002a0 e5 81 96 3b 3b 60 b1 bc 77 2b 1d 3d 32 1c 0e 3d
       0.0045931214 -0.021652332 0.03837153 0.034694858
0002b0 90 85 80 bd 49 36 e4 bc 5c 31 cc 3c 9f 99 ac 3d
       -0.06275475 -0.027857916 0.02492588 0.084277384
0002c0 b0 52 2b 3c 82 35 d4 bc 65 52 26 3d b3 4b 58 bd
       0.010456726 -0.02590442 0.04060592 -0.052806567
0002d0 20 95 45 3d 57 6b b8 bc 36 ea 2f 3d f8 17 e8 3d
       0.04823792 -0.022512121 0.04294797 0.11332697
0002e0 fa c5 f7 3c ea e6 c6 3d 2f 8d 6a 3c b0 f7 1f 3d
       0.03024577 0.09712012 0.014315887 0.039054573
0002f0 25 a3 b8 bc a1 8f 81 3d e1 bb 25 3d 52 e8 ce 3c
       -0.02253873 0.06326223 0.04046238 0.025257263
000300 f8 ce 11 3d 52 8f 55 3c 0e 5d 29 bd 46 26 23 bd
       0.03559777 0.0130346585 -0.04134851 -0.039831422
000310 e2 f4 b9 bc 6b df 6a 3c 59 80 3d bd cf c1 88 3b
       -0.022699777 0.014335494 -0.04626498 0.0041734944
000320 6a d6 25 3d b4 2b eb 3b bd 02 19 3d 26 8c 79 3c
       0.040487684 0.0071768407 0.037356127 0.015231168
000330 39 f9 fa 3c db 56 64 bd 1b eb 3e bd 63 8e 05 3c
       0.030636417 -0.055746894 -0.046610933 0.008151623
000340 ec 42 ed 3c 39 26 11 3d ee da e4 3c d0 16 6a bc
       0.028962575 0.035436843 0.027936425 -0.0142876655
000350 d3 3b c4 bc 39 61 53 bd 26 9c 68 bc ce 6c 4b 3d
       -0.023954308 -0.05160639 -0.014197385 0.04966431
000360 db 53 36 bd d3 bc 86 3d 0a c8 a5 3c 9f fb d9 3d
       -0.044513565 0.06578984 0.020236988 0.10643696
000370 90 2e e8 3b 65 9b 5d bb 08 94 2e 3d 35 b0 c9 bc
       0.007085629 -0.0033814546 0.042621642 -0.024620155
000380 38 5c 34 3c d2 3c 4c 3d 10 6b b8 3d 88 49 b9 3c
       0.011008315 0.04986269 0.090047956 0.02261807
000390 99 d0 77 bd 4f 68 54 3d ae a4 33 3d 18 35 5d 3c
       -0.06050167 0.05185729 0.043858223 0.013501428
0003a0 2a 35 8e b8 3c 9d cd bb f3 3e 86 3d 1f ae 30 3d
       -6.78099e-05 -0.0062748473 0.06554975 0.043134805
0003b0 ff 1a a5 bc 4f d5 66 bc 31 b8 fe 3b 69 93 10 3d
       -0.020154474 -0.014088943 0.007773422 0.03529683
0003c0 e1 4e 4b bd a8 d5 50 bd 9d 41 79 3c c3 00 b9 3d
       -0.04963577 -0.05098501 0.015213397 0.090333484
0003d0 68 e5 72 3d 0d b8 15 3c 0c f0 c9 bd 02 fb a1 3d
       0.05930081 0.009138119 -0.098602384 0.07909204
0003e0 36 e6 62 bd ee 0f 64 bd 08 2d 31 bd e6 09 0d 3b
       -0.055395328 -0.055679254 -0.043255836 0.0021520793
0003f0 8f cb 2a 3d 58 e1 13 bd e8 7d 85 bd c7 b4 ec bd
       0.041698035 -0.036103576 -0.06518155 -0.11557918

layers.4.bias f4 [100]
000000 6e 4e 05 bd 41 72 a7 bc 7d 33 90 3a 8a 60 53 3d
       -0.0325455 -0.020440223 0.0011001673 0.05160574
000010 4c bd af bc 45 65 e8 bc c7 18 b5 3c b7 c9 74 bd
       -0.021452568 -0.028368602 0.022106541 -0.059762683
000020 8d 5c c4 bd 1a 0c 0c be d4 63 c6 bd 36 57 c6 bd
       -0.09587965 -0.13676491 -0.096870095 -0.09684603
000030 f6 52 8c bd a0 e2 1d be 96 9f 02 3d fe 1e 4f bd
       -0.06851761 -0.15418482 0.031890474 -0.050566666
000040 05 45 9f bc cf 8d c6 bd 35 8f 24 bd ed 56 9b bd
       -0.01944209 -0.096950166 -0.040175635 -0.07584939
000050 af 3c 23 be 78 7b 47 bd 7c eb e6 bd 20 2b 12 bb
       -0.15941118 -0.048701733 -0.11275384 -0.0022303537
000060 31 50 b5 bb a1 30 ba 3b 0d 26 ca 3c 81 b5 1c bd
       -0.005533241 0.0056820665 0.024676347 -0.038259033
000070 62 00 de bb d9 d1 57 bc ea 58 17 be 31 f8 c2 bc
       -0.006774948 -0.01317259 -0.14780012 -0.023799988
000080 ab 8d 61 bc f1 f5 3c 3d 45 7b 9c bd 78 81 91 bd
       -0.013766686 0.046132986 -0.07640699 -0.07104772
000090 f0 47 06 be 1c 95 80 bc c9 95 e4 3b ed 5f 81 3b
       -0.1311338 -0.0156961 0.0069758636 0.003948203
0000a0 c1 2f f2 bb a1 20 97 bd bf 06 0a bc 78 09 a5 3d
       -0.0073909466 -0.0737927 -0.00842446 0.08058447
0000b0 fb db 84 3c 4b 95 c9 3c 75 08 fc bc 85 a3 e5 bd
       0.016218176 0.024607321 -0.030765751 -0.112128295
0000c0 3c 8b fa bd ce 38 0a 3d 62 94 e5 bd ef 85 88 3c
       -0.12233588 0.03374558 -0.112099424 0.016665427
0000d0 eb 02 20 3d dd 38 82 3d d4 86 21 bd a0 e4 c3 bd
       0.039065283 0.06358502 -0.039435223 -0.09565091
0000e0 80 d1 4b 3d 83 20 3e 3c 61 fa 1b bd 3d 37 c9 bc
       0.04976034 0.011604431 -0.038080577 -0.024562472
0000f0 d4 e6 6b bd 99 79 1a bb 74 4a 94 3c 65 bf c5 bb
       -0.05759318 -0.0023571013 0.018101908 -0.006034779
000100 95 8f 9d 3c 01 f5 9c bd d4 35 30 bd 47 8d c1 bc
       0.019233504 -0.07663918 -0.043020085 -0.023626937
000110 18 99 2b 3d c7 1e 80 bd fe 41 67 3d e7 b1 61 3d
       0.04189405 -0.0625587 0.05645942 0.0551013
000120 de 36 09 3c 41 9b f7 bc 85 89 02 be cd d8 b6 3c
       0.008374898 -0.030225398 -0.12747772 0.022320176
000130 77 ba ec bd 0f 06 45 bd 15 29 4c bd 03 fb 0c 3d
       -0.11559003 -0.04810148 -0.049843866 0.03441907
000140 3b aa 79 bd 6d 24 63 3d a3 14 57 3d 98 f8 63 bd
       -0.06095336 0.05545466 0.052509915 -0.055657
000150 ae 23 24 bc 61 06 0c bd 39 ed a3 bd 2c bf 62 bd
       -0.010018272 -0.03418577 -0.08004231 -0.055358097
000160 a8 b4 5b bd ea 1c 40 3b ad 24 d1 bc 14 e4 61 bd
       -0.053639084 0.002931411 -0.025530184 -0.055149153
000170 c1 3b 0b 3d 83 ef b4 bd a2 67 01 be b4 45 40 bd
       0.033992533 -0.08834746 -0.12637189 -0.046941474
000180 cc 5e 0d 3b 8a e8 47 3d 80 c4 32 bd 80 60 84 bd
       0.0021571396 0.04880575 -0.04364443 -0.064637184

layers.6.weight f4 [100]
000000 43 fd 80 3f a1 46 80 3f f4 f3 7c 3f 9e 39 7b 3f
       1.0077289 1.0021554 0.9880974 0.9813479
000010 60 76 7b 3f 67 b3 7d 3f b4 47 7e 3f 7f a4 76 3f
       0.982275 0.9910187 0.9932816 0.9634475
000020 14 6d 72 3f 24 57 7c 3f 4d 54 87 3f 4a 45 88 3f
       0.9469769 0.98570466 1.0572602 1.0646145
000030 d0 0f 7a 3f 57 96 88 3f cb 5d 7c 3f 2a 42 7b 3f
       0.9768038 1.067088 0.98580617 0.98147833
000040 ec 26 80 3f 7d 24 86 3f 98 9e 80 3f 80 35 83 3f
       1.0011878 1.0479885 1.0048399 1.0250702
000050 70 4d 8a 3f 86 3b 78 3f f1 19 85 3f 54 79 71 3f
       1.0804882 0.96965826 1.0398542 0.9432576
000060 a5 96 6e 3f 2f 06 7e 3f a9 ab 74 3f 8c db 85 3f
       0.93198615 0.99228185 0.9557443 1.0457625
000070 82 32 70 3f 9a bc 82 3f 03 7d 87 3f 98 1a 78 3f
       0.9382707 1.0213807 1.0585026 0.9691558
000080 03 6e 73 3f b3 d7 7c 3f de 49 83 3f bc 2d 7b 3f
       0.9508974 0.9876663 1.0256917 0.9811666
000090 d3 67 88 3f 11 c2 7d 3f 5e 29 74 3f aa 76 7a 3f
       1.0656685 0.99124247 0.9537562 0.97837317
0000a0 fb 63 75 3f c2 31 7b 3f 37 16 71 3f 0c eb 71 3f
       0.95855683 0.981228 0.9417452 0.9449928
0000b0 cf 6b 78 3f c6 2e 72 3f 6e c8 85 3f 38 1b 88 3f
       0.970395 0.9460262 1.0451791 1.0633307
0000c0 d3 0d 86 3f 28 65 6e 3f fe a6 81 3f f6 5b 7c 3f
       1.0472969 0.931231 1.0129087 0.9857782
0000d0 c3 42 6f 3f ba ac 79 3f d7 95 89 3f 6b 9d 80 3f
       0.93461245 0.97529185 1.0748852 1.004804
0000e0 62 75 73 3f b2 d4 7d 3f 34 38 6d 3f 8a a5 74 3f
       0.95100987 0.9915267 0.92663884 0.9556509
0000f0 cc 20 89 3f 34 12 84 3f eb 7d 75 3f 00 7c 76 3f
       1.0713134 1.0318055 0.9589526 0.9628296
000100 28 95 72 3f 20 f2 83 3f 45 5e 78 3f 95 14 80 3f
       0.94758844 1.0308266 0.97018844 1.0006281
000110 83 13 77 3f 18 cb 79 3f f1 6d 74 3f f7 10 71 3f
       0.9651415 0.9757552 0.9548026 0.9416651
000120 24 42 74 3f 3b f7 6e 3f 5a 3e 7f 3f fa 6d 71 3f
       0.9541342 0.93345994 0.99704516 0.94308436
000130 dd 42 83 3f b4 8c 82 3f cb 7e 71 3f 4a c7 76 3f
       1.025478 1.0199189 0.94334096 0.9639784
000140 18 60 70 3f c0 de 73 3f be e2 77 3f b8 6d 75 3f
       0.9389663 0.95261765 0.96830356 0.9587054
000150 ce 34 74 3f 64 8f 88 3f a3 0d 85 3f 70 d1 73 3f
       0.95393074 1.0668759 1.0394787 0.9524145
000160 92 bc 6f 3f 11 c7 70 3f 1f f8 7b 3f 97 86 74 3f
       0.9364711 0.9405375 0.9842548 0.9551787
000170 58 09 6f 3f 98 81 80 3f c5 63 81 3f 4c a4 7f 3f
       0.9337363 1.0039549 1.0108572 0.9986007
000180 87 d9 76 3f b0 cf 73 3f 16 fa 6f 3f 7d 1f 70 3f
       0.9642567 0.9523878 0.93740976 0.9379805

layers.6.bias f4 [100]
000000 5a 52 04 be e6 ab 83 bd 40 5c 03 be 6b d8 e8 bc
       -0.1292204 -0.064292714 -0.1282816 -0.028423509
000010 42 98 fc bd 92 17 55 bc f1 a3 a5 bd 9f 0b 03 3d
       -0.123337284 -0.013006108 -0.0808791 0.031993505
000020 c4 1d a1 3d 21 84 bf bd e1 34 03 be c2 ae 13 be
       0.078670055 -0.093513735 -0.1281314 -0.14422134
000030 a3 f0 92 3d b9 35 20 be 97 a9 22 3d 6f 90 a3 bd
       0.07174804 -0.15645494 0.039712515 -0.07986533
000040 b5 b9 cf bd ab 4d fa bd 5f 75 04 be 88 a2 0d be
       -0.10142843 -0.12221845 -0.12935399 -0.13831532
000050 62 e2 11 be 8a 88 c7 bd 96 90 ee bd b6 ea 72 3c
       -0.14246514 -0.0974284 -0.11648671 0.014826467
000060 ac 45 df 3d a6 1f a1 3b ce d5 c6 3d 9a 5a 1b be
       0.10901961 0.004917103 0.09708749 -0.1517128
000070 e8 64 9f 3d 22 b6 f6 bd e4 01 1c be 57 0b 89 3d
       0.07782918 -0.12046458 -0.15235096 0.06691616
000080 2d f5 bb bc e6 b3 a2 bd 56 6a e6 bd 86 b4 a2 bd
       -0.022944057 -0.07944469 -0.11250751 -0.07944588
000090 7b ca 14 be 00 1a ff bd e8 31 b8 3d 8f b4 04 be
       -0.14530365 -0.12456131 0.08993894 -0.12959503
0000a0 a3 85 8c bd 0b 88 be bd 2b 29 6a 3d 96 e4 01 3e
       -0.06861427 -0.09303292 0.057168167 0.12684855
0000b0 01 33 c5 bd e9 ff c1 3d 24 80 23 be 87 56 1c be
       -0.09628869 0.09472639 -0.1596685 -0.15267383
0000c0 18 1f 03 be cc 66 dd 3d 5b a0 0e be fc ca ec bd
       -0.1280483 0.108106226 -0.13928358 -0.11562154
0000d0 80 c0 41 3d d4 55 31 3d 10 21 12 be a1 ae bf bd
       0.047302723 0.043294743 -0.14270425 -0.0935948
0000e0 fe 6d 6d bd a7 2f 85 bd f1 ec c3 3d 2b 13 0b bd
       -0.057966225 -0.065032296 0.09566677 -0.033953827
0000f0 65 d2 22 be 64 94 d9 bd 73 ee e0 bc 3c 98 97 bc
       -0.15900572 -0.106240064 -0.027457451 -0.018505208
000100 35 7d fc 3b a0 67 13 be df ef f5 3d 8d 3d f8 bd
       0.0077053555 -0.14394999 0.120086424 -0.12121115
000110 d6 09 26 bd 3b 3b b4 bd ff 26 3f 3c 9e 87 dc 3d
       -0.040536724 -0.0880036 0.011667012 0.107680544
000120 f4 d6 32 bc 58 17 e1 3d 71 70 ec bd df 0a ed bd
       -0.010915507 0.109907806 -0.11544884 -0.11574339
000130 cf b1 0c be c7 f9 08 be cd c3 bb 3d 59 4a 33 3d
       -0.13739704 -0.13376532 0.091682054 0.043772075
000140 7b 75 24 3d c2 31 02 bd 73 00 86 3d ec a7 a7 bd
       0.0401511 -0.031785734 0.065430544 -0.081863254
000150 9a c8 a8 bd dd 0e 2d be 40 f6 17 be f6 b2 cd 3d
       -0.08241387 -0.16900201 -0.1484003 0.100439
000160 ee 98 68 3d f4 36 55 bc 5b d9 dd bd 87 0f cb 3d
       0.05678647 -0.01301359 -0.10832473 0.09915071
000170 fd e4 6b bb 45 b8 92 bd 33 de f0 bd 51 c6 11 be
       -0.0035994642 -0.07164053 -0.11761131 -0.14235808
000180 e7 30 83 bd f6 50 a0 3d ce b9 da 3c 2a 95 c8 3d
       -0.06405812 0.07827942 0.026699927 0.09794076
