examples/models/churn_categorical.pt (torch_old, 121215 bytes, 28 tensors)

all_embeddings.0.weight f4 [3, 2]
0	0xbf98a36a	-1.192487
1	0x3e19a351	0.15003707
2	0x3ceba848	0.028766766
3	0x3fcc4c7f	1.5960845
4	0xbf4b6909	-0.79457146
5	0x3e0183cf	0.12647937

all_embeddings.1.weight f4 [2, 1]
0	0xbed17017	-0.4090583
1	0xbf7fce5b	-0.9992425

all_embeddings.2.weight f4 [2, 1]
0	0x3fae1074	1.3598771
1	0x3e9e44b4	0.3091179

all_embeddings.3.weight f4 [2, 1]
0	0x3fa33ff5	1.2753893
1	0x3e401bdd	0.18760629

batch_norm_num.weight f4 [6]
0	0x3f61c5b2	0.88192284
1	0x3f8226b2	1.0168059
2	0x3f55643a	0.8335606
3	0x3f5f9468	0.87335825
4	0x3f8f6fc7	1.1205987
5	0x3f5785f9	0.841888

batch_norm_num.bias f4 [6]
0	0x3e177253	0.14789705
1	0xbe5255b7	-0.2054051
2	0x3e05e62d	0.13076086
3	0xbe0cc871	-0.13748337
4	0x3dda4c71	0.10659111
5	0xbde46b5f	-0.11153292

batch_norm_num.running_mean f4 [6]
0	0x4422b083	650.758
1	0x421c159e	39.02111
2	0x40a023d2	5.0043726
3	0x47956fba	76511.45
4	0x3fc43122	1.5327494
5	0x47c336ca	99949.58

batch_norm_num.running_var f4 [6]
0	0x4612ab22	9386.783
1	0x42db62be	109.692856
2	0x41057e8b	8.343394
3	0x4f689a83	3.9024402e+09
4	0x3eaed530	0.34147024
5	0x4f43a25d	3.2821978e+09

layers.0.weight f4 [200, 11]
0	0x3e614bdb	0.22001593
1	0x3e1019c2	0.14072326
2	0x3e78673e	0.24258134
3	0x3e41da1d	0.1893086
4	0x3da7401a	0.08166523
5	0xbe140bd4	-0.14457637
6	0xbe6c46dc	-0.23073906
7	0x3d326751	0.04355556
8	0xbe695e88	-0.22789967
9	0x3e61a4d6	0.22035536
10	0x3caadc49	0.020856993
11	0xbde8668f	-0.113476865
12	0x3e857ad1	0.26070264
13	0xbe86519c	-0.26234138
14	0x3e1078a2	0.14108518
15	0x3d051869	0.032493982
16	0x3e140a87	0.14457141
17	0x3ebcf001	0.36901858
18	0x3e7f8cce	0.24956056
19	0xbe00680e	-0.12539694
20	0x3d5f6903	0.054543506
21	0xbccf3f82	-0.025298838
22	0x3e489f34	0.19591981
23	0x3e523f30	0.20531917
24	0x3d86e71f	0.065870516
25	0x3df88251	0.12134231
26	0xbd274cde	-0.04084479
27	0xbe39b675	-0.18136008
28	0xbdb97dd8	-0.09057206
29	0x3e1a886d	0.15091105
30	0xbe2ac4ef	-0.16676687
31	0x3e96e573	0.2947193
32	0xbe40355e	-0.18770358
33	0xbe87bbfb	-0.26510605
34	0xbe388a09	-0.18021406
35	0xbda46c6c	-0.08028492
36	0xbdb65946	-0.08903746
37	0x3e632714	0.22182876
38	0xbe02f95f	-0.1279044
39	0xbd25c403	-0.040470134
40	0x3d286887	0.04111531
41	0x3dffa6c9	0.124829836
42	0xbe594ac2	-0.21219924
43	0xbe0eb8cb	-0.1393768
44	0xbe1bb5f8	-0.15206134
45	0xbe2ac41d	-0.16676374
46	0x3e8bb2f6	0.27284974
47	0x3e259704	0.16170889
48	0xbd27f9c9	-0.041009698
49	0x3d6be342	0.057589777
50	0xbec11059	-0.37707785
51	0xbd410262	-0.047121413
52	0x3e6063d8	0.21913087
53	0xbe28af68	-0.16473162
54	0xbd9aad14	-0.07552543
55	0x3dc6efdb	0.097137176
56	0x3d24b3a4	0.04021038
57	0x3e5f043a	0.21778956
58	0xbd02ae95	-0.031904776
59	0xbdfa8815	-0.12232987
60	0xbe37d265	-0.17951353
61	0xbe19ef54	-0.15032703
62	0xbb38dfcb	-0.0028209563
63	0xbe0d67ba	-0.138091
64	0xbea058cf	-0.31317756
65	0x3e89a6f3	0.26885185
66	0x3d664fe9	0.056228552
67	0xbd23e531	-0.040013496
68	0x3dc97f21	0.09838701
69	0xbe095bf5	-0.13413985
70	0xbdc99595	-0.09842984
71	0x3b55ba36	0.003261221
72	0xbda57d82	-0.08080579
73	0x3c01282a	0.007883111
74	0x3d8e503b	0.069488965
75	0x3ea550b6	0.3228814
76	0x3d84ab52	0.06477989
77	0x3e0d2d6a	0.13786855
78	0xbddeb293	-0.10873904
79	0xbe3ebaef	-0.18625997
80	0x3d85f8ac	0.06541571
81	0x3e3574f8	0.17720401
82	0x3e168061	0.1469741
83	0x3ec21bfb	0.37911972
84	0x3e035e9e	0.12829062
85	0x3df98ff0	0.12185657
86	0xbe0146ff	-0.12624739
87	0xbd1443c9	-0.036197457
88	0x3e33798e	0.17526838
89	0x3df8d1b2	0.12149371
90	0x3e3d0a13	0.18460874
91	0x3c0d7cbf	0.008635699
92	0xbdca55b0	-0.09879625
93	0xbcc45d91	-0.023970397
94	0x3e84639e	0.25857252
95	0x3e636000	0.2220459
96	0x3dad45b1	0.08460558
97	0xbe28f9b1	-0.165015
98	0xbd9d76cf	-0.076886766
99	0xbd8212d8	-0.063512504
100	0x3dee1490	0.11625016
101	0xbe7a7457	-0.24458443
102	0x3de6b8a9	0.1126569
103	0x3e5b96ef	0.21444295
104	0xbd574c2e	-0.052562885
105	0xbe8a4635	-0.2700669
106	0xbe59f1e1	-0.21283676
107	0xbdaf008f	-0.085450284
108	0x3e079e7f	0.13244055
109	0xbd6b3992	-0.05742795
110	0xbd1f6eec	-0.038924143
111	0xbcc8bc16	-0.024503749
112	0xbe173186	-0.14764985
113	0xbd84d7d8	-0.064864814
114	0x3e2ead21	0.17058231
115	0xbe2dbf13	-0.1696742
116	0x3e97da3a	0.2965868
117	0xbd916734	-0.070997626
118	0xbe7bf565	-0.2460533
119	0xbde04201	-0.10950089
120	0xbe521188	-0.205145
121	0xbe5ae2e4	-0.21375614
122	0x3e946591	0.2898374
123	0xbe22ca33	-0.15897445
124	0xbc38bf6b	-0.011276106
125	0xbdd36374	-0.103217036
126	0x3e5cb9f5	0.21555312
127	0x3e9bcf64	0.30431664
128	0x3d4e9cbc	0.050442442
129	0xbe663655	-0.22481664
130	0x3cfb98a5	0.030712435
131	0x3c776cc2	0.0151016135
132	0xbd604c21	-0.054760102
133	0xbe6099e2	-0.21933702
134	0xbe93552a	-0.28775913
135	0x3e5f3568	0.21797717
136	0xbe5e2ebe	-0.21697518
137	0x3dfb1d67	0.122614674
138	0xbe623f50	-0.22094464
139	0x3e886964	0.26642907
140	0xbdb72cb2	-0.08944072
141	0x3be2c298	0.00692017
142	0xbe9aa3d1	-0.30203107
143	0x3db04913	0.08607688
144	0x3d949644	0.072552234
145	0x3c984cad	0.01859125
146	0x3dcd8d56	0.10036723
147	0xbdddb375	-0.10825244
148	0xbe296559	-0.16542567
149	0x3e3ccf47	0.18438445
150	0xbe708b8f	-0.23490737
151	0x3e7560df	0.23962735
152	0xbdb4de01	-0.088314064
153	0x3d85132b	0.064977966
154	0x3d77255c	0.060338363
155	0xbe4bf53e	-0.19917771
156	0x3d587781	0.052848343
157	0x3e5620d3	0.20910959
158	0x3c9d2df1	0.019186946
159	0xbd910cb0	-0.07082498
160	0xbdd68f0c	-0.10476503
161	0xbe892caa	-0.26791888
162	0x3d85a7e3	0.065261625
163	0x3e8aed9c	0.27134407
164	0x3e34e648	0.1766597
165	0xbe157d72	-0.14598635
166	0x3e2db900	0.16965103
167	0xbca4a124	-0.02009637
168	0xbe523839	-0.2052926
169	0x3ea0eac2	0.31429106
170	0x3e8eb6b4	0.27873766
171	0x3e0e70c3	0.13910203
172	0x3e237687	0.15963183
173	0xbe85774a	-0.26067573
174	0xbe550c24	-0.20805413
175	0x3dd88212	0.10571684
176	0xbe638041	-0.22216894
177	0x3e30d29a	0.17267838
178	0xbca9b40d	-0.020715738
179	0x3e65c748	0.22439301
180	0xbe9d50d6	-0.30725735
181	0xbe535ed2	-0.2064164
182	0x3e51fe81	0.20507242
183	0xbd2068b9	-0.03916237
184	0x3d906608	0.07050711
185	0x3d402db1	0.046918575
186	0xbe05e123	-0.13074164
187	0x3d21d8b6	0.039513312
188	0x3d909cb1	0.070611365
189	0xbb9a04e3	-0.0047002896
190	0xbe3c8640	-0.18410587
191	0xbe84245d	-0.25808993
192	0xbe8b6d4a	-0.27231818
193	0x3e3d49d7	0.18485199
194	0xbe886762	-0.26641375
195	0xbd114c99	-0.03547344
196	0xbe9a9618	-0.30192637
197	0x3e39f1d9	0.18158664
198	0xbe5fa461	-0.2184005
199	0x3e668180	0.22510338
200	0x3da31a84	0.07964042
201	0x3e6830e4	0.226749
202	0xbe533d15	-0.2062877
203	0x3e27eac7	0.16398154
204	0x3def2bef	0.116783015
205	0x3d65b77d	0.05608319
206	0x3e2916d6	0.16512617
207	0xbe716e6b	-0.23577277
208	0x3ac94b66	0.0015357553
209	0xbe0b45a8	-0.1360079
210	0xbe848a65	-0.25886837
211	0x3d0b8563	0.034062754
212	0x3d8d47f2	0.06898488
213	0xbeb0cc68	-0.3453095
214	0xbd18a90e	-0.037270598
215	0xbd2246dd	-0.03961836
216	0xbdc88756	-0.09791438
217	0xbe894ed5	-0.26817957
218	0xbda89dfa	-0.08233257
219	0xbc905076	-0.017616492
220	0x3db448df	0.088029616
221	0x3e76d103	0.24103169
222	0xbe54fedf	-0.2080035
223	0xbdecaa6a	-0.115559414
224	0xbe5dec8c	-0.21672267
225	0xbe062354	-0.13099414
226	0xbe809866	-0.2511627
227	0xbd6aeac3	-0.057352792
228	0x3d97da71	0.07414711
229	0x3e479161	0.19489051
230	0xbe22c528	-0.15895522
231	0x3dbf1c87	0.09331613
232	0xbdb339bd	-0.08751247
233	0xbe4b6eb4	-0.19866449
234	0xbe20395b	-0.1564688
235	0xbe43972e	-0.19100639
236	0xbe580975	-0.21097358
237	0x3e831f5a	0.25609857
238	0x3e6a68c2	0.22891524
239	0x3e11aaf7	0.14225374
240	0xbeb96245	-0.36207786
241	0x3d34c827	0.044136193
242	0x3e736218	0.23767889
243	0xbe7719b5	-0.241309
244	0x3e14e8a4	0.1454187
245	0x3e84dd48	0.25950074
246	0x3d4b1dcc	0.049588963
247	0x3e1873d6	0.14887938
248	0x3e78bd26	0.24290904
249	0xbcea0d39	-0.028570758
250	0x3da7331a	0.08164044
251	0xbc126873	-0.008936035
252	0x3cb94565	0.022616098
253	0x3e3ccbd2	0.18437126
254	0xbec94e2a	-0.39317447
255	0x3db52300	0.08844566

layers.0.bias f4 [200]
0	0xbe20aa50	-0.15689969
1	0x3e6cd021	0.2312627
2	0xbe0e8f2e	-0.13921806
3	0x3d7c8dbc	0.061658606
4	0x3de17256	0.11008136
5	0x3e67efe4	0.22650105
6	0xbeacacac	-0.33725488
7	0xbe6703dd	-0.22560067
8	0xbe43cc40	-0.19120884
9	0xbe258fd5	-0.16168149
10	0x3e1d2fd6	0.15350279
11	0x3e47416e	0.19458553
12	0x3e8ff53e	0.28116792
13	0x3e7013a8	0.23444998
14	0x3e26fedd	0.1630816
15	0xbe2867d3	-0.16445856
16	0x3d9e4266	0.07727508
17	0xbeab7048	-0.334841
18	0xbe5a5f9e	-0.21325538
19	0xbe75cdd0	-0.24004292
20	0xbdd5b524	-0.104349405
21	0x3e93a0eb	0.28833708
22	0x3cda1632	0.026621912
23	0xbe89c95a	-0.26911432
24	0xbd8680dc	-0.06567547
25	0xbd866d3d	-0.06563804
26	0x3dfdb852	0.12388672
27	0xbec471af	-0.38367984
28	0xbe11aa3c	-0.14225096
29	0xbe161438	-0.1465615
30	0x3e9ffc6d	0.31247273
31	0xbe189300	-0.14899826
32	0x3dd7e4a4	0.105416566
33	0x3e54abe3	0.20768695
34	0xbdc099e3	-0.094043516
35	0xbe073f56	-0.13207754
36	0xbe9e8e12	-0.30967766
37	0x3e835149	0.25647953
38	0xbe0435c5	-0.12911136
39	0xbe6bc87c	-0.23025697
40	0x3e90fc66	0.28317565
41	0x3d69354a	0.056935586
42	0xbe9a8daf	-0.3018622
43	0x3d9b0468	0.075692
44	0x3e3d2d48	0.18474305
45	0x3cb02135	0.02150021
46	0x3e86638c	0.26247823
47	0x3e8bfed6	0.27342862
48	0x3e464646	0.19362745
49	0xbe6942bc	-0.22779363
50	0xbeb86349	-0.3601325
51	0xbd43c786	-0.047797702
52	0x3d0a943d	0.033832777
53	0x3e93cd68	0.2886765
54	0x3e136ce9	0.14397015
55	0xbed0f6ec	-0.40813386
56	0x3df2e098	0.11859244
57	0x3cac6322	0.021043364
58	0x3cf808ee	0.030277696
59	0xbd036fd5	-0.032089073
60	0xbc92e639	-0.017932044
61	0xbeb627e1	-0.355773
62	0xbe85a1b0	-0.2609992
63	0x3ddb758b	0.10715779
64	0xbed26f3f	-0.411005
65	0x3c90e6f0	0.017688245
66	0x3d36456d	0.044499803
67	0xbe27c5aa	-0.16383997
68	0xbd474d62	-0.048657782
69	0x3e666920	0.2250104
70	0x3ded353b	0.115824185
71	0xbeb8d0d6	-0.3609683
72	0xbe66a1be	-0.22522637
73	0x3e950665	0.2910644
74	0x3e47c0c5	0.1950713
75	0xbddaf4ac	-0.10691199
76	0xbe6274df	-0.22114895
77	0x3dc97a93	0.09837832
78	0x3de05cba	0.10955186
79	0x3dbadca6	0.091241166
80	0xbe99f556	-0.3006999
81	0x3e6e6a2e	0.23282692
82	0xbe196e66	-0.1498352
83	0x3ea00818	0.31256175
84	0xbe25edf5	-0.16204055
85	0x3e974f8f	0.29552886
86	0x3d753622	0.05986608
87	0x3da550da	0.08072062
88	0xbe74c372	-0.23902681
89	0x3e1b42d8	0.15162218
90	0xbeb25d9c	-0.34837043
91	0xbea8df45	-0.3298284
92	0xbda6510a	-0.08120926
93	0x3c9e5c3c	0.01933109
94	0x3e6cb4de	0.2311587
95	0x3d53a8bc	0.05167459
96	0xbe963f77	-0.29345295
97	0xbdb31c75	-0.08745662
98	0xbe6c6ac3	-0.23087601
99	0xbe80c525	-0.2515041
100	0xbe632188	-0.2218076
101	0xbeca9c92	-0.3957258
102	0xbb1baa00	-0.002375245
103	0xbed448ec	-0.41461885
104	0xbbdb4d6e	-0.00669258
105	0xbeaa7165	-0.33289638
106	0x3e7b49f6	0.24539933
107	0x3e040cf6	0.12895569
108	0x3e530a6e	0.20609447
109	0x3dda261b	0.10651799
110	0xbd95e29d	-0.07318614
111	0x3e115ac2	0.14194778
112	0xbdfc1219	-0.12308139
113	0xbe795dc0	-0.24352169
114	0x3da2bf66	0.079466626
115	0x3dbe53f3	0.09293356
116	0xbe145e58	-0.14489114
117	0x3db3ed4a	0.08785494
118	0xbc99c945	-0.01877273
119	0x3baf85ae	0.005356512
120	0x3e2f1af1	0.17100121
121	0x3d9dd478	0.07706541
122	0xbe1e2d6b	-0.15447013
123	0xbe9f0e9f	-0.31065843
124	0xbeb5c98d	-0.35505334
125	0xbe0a91a9	-0.13532127
126	0xbe7e404e	-0.24829218
127	0x3d5294cc	0.051411435
128	0x3e9c25ce	0.30497593
129	0x3dbb33ae	0.091407165
130	0x3c3067eb	0.0107669635
131	0x3e4cb4b6	0.19990811
132	0xbe40b4d6	-0.18818983
133	0x3ea33ab8	0.31880736
134	0xbdc49077	-0.09597867
135	0xbe3c5295	-0.18390878
136	0x3e4fccbd	0.20292945
137	0x3e1bebef	0.1522672
138	0x3d87d3bd	0.06632183
139	0xbe871b5c	-0.2638806
140	0xbe9e1b61	-0.30880263
141	0xbe7418da	-0.23837605
142	0xbd735940	-0.059411287
143	0x3d803c53	0.06261506
144	0x3e64267f	0.2228031
145	0xbd0e2035	-0.034698684
146	0xbdbb8273	-0.091557406
147	0xbdff734f	-0.12473165
148	0xbea4187e	-0.32049936
149	0xbc350ca9	-0.011050382
150	0xbe4b1238	-0.19831169
151	0xbe5da88c	-0.21646327
152	0xbe38ed61	-0.18059303
153	0xbe8bae7e	-0.27281564
154	0xbe89b38c	-0.26894796
155	0x3d5e1a6d	0.05422442
156	0x3b6f8114	0.0036545442
157	0x3e611b0a	0.21982971
158	0x3d5a922c	0.053362057
159	0xbd8c1d49	-0.06841523
160	0xbe9f6d8c	-0.31138265
161	0xbda5ab13	-0.080892704
162	0xbdc17ac2	-0.09447242
163	0xbe5a15ab	-0.21297328
164	0xbe99b804	-0.30023205
165	0xbda9ccf7	-0.08291047
166	0xbd9ab8bd	-0.07554767
167	0xbeaed1a8	-0.3414433
168	0x3e902749	0.28154972
169	0x3d369073	0.04457135
170	0xbd2dbb23	-0.042414796
171	0x3d80e3f4	0.062934786
172	0xbd617f60	-0.055053115
173	0x3e8ea4a5	0.2785999
174	0xbea23f07	-0.3168871
175	0x3c2cb551	0.010541276
176	0xbd8ffb17	-0.070303135
177	0xbcf51781	-0.029918434
178	0xbc0eafe1	-0.008708925
179	0x3e2c5278	0.16828334
180	0x3e88ba1a	0.26704484
181	0x3e73cd68	0.23808825
182	0x3d234b60	0.039866805
183	0x3da7993a	0.081835225
184	0xbe5ab9f2	-0.21359995
185	0xbdf509bd	-0.11964748
186	0xbb8b8b07	-0.0042585167
187	0xbdfa9920	-0.122362375
188	0xbc9ac118	-0.018890902
189	0xbe558fc2	-0.2085562
190	0x3da7f408	0.08200842
191	0x3e063070	0.13104415
192	0xbeb7f87b	-0.35931763
193	0xbdbcf067	-0.092255406
194	0x3c91b619	0.017787026
195	0xbde97716	-0.11399667
196	0x3c04ceb7	0.008105925
197	0xbec84c6a	-0.391208
198	0xbe46e741	-0.19424154
199	0x3e44791f	0.19186829

layers.2.weight f4 [200]
0	0x3f7942e3	0.97367686
1	0x3f7a830a	0.978562
2	0x3f7cfcf2	0.98823464
3	0x3f75e185	0.9604724
4	0x3f801486	1.0006263
5	0x3f802ab9	1.0013038
6	0x3f95746e	1.1676157
7	0x3f8053f5	1.0025622
8	0x3f7d88c5	0.9903682
9	0x3f7a12ea	0.9768511
10	0x3f7cddd7	0.98776
11	0x3f807a28	1.0037279
12	0x3f7313cd	0.9495209
13	0x3f7c6f88	0.98607683
14	0x3f7af9fe	0.9803771
15	0x3f7afc1b	0.9804093
16	0x3f7de5a3	0.9917852
17	0x3f7d7720	0.99009895
18	0x3f758c64	0.95917344
19	0x3f8399d8	1.0281324
20	0x3f760d75	0.96114284
21	0x3f798fea	0.9748522
22	0x3f7b57bf	0.98180765
23	0x3f800133	1.0000366
24	0x3f7f174b	0.9964492
25	0x3f8a34b5	1.0797335
26	0x3f818328	1.0118151
27	0x3f82f037	1.0229558
28	0x3f780c99	0.9689422
29	0x3f71c2bd	0.9443777
30	0x3f7791d6	0.96706903
31	0x3f7de29d	0.9917391
32	0x3f8345a5	1.0255629
33	0x3f7376dd	0.95103246
34	0x3f7c65fc	0.98593116
35	0x3f7a0367	0.9766144
36	0x3f7bd80e	0.9837655
37	0x3f7dfe89	0.99216515
38	0x3f78cf2e	0.9719113
39	0x3f7eb381	0.9949265
40	0x3f7d9046	0.9904827
41	0x3f76c12d	0.9638851
42	0x3f7afbf4	0.980407
43	0x3f82c171	1.0215284
44	0x3f7c110d	0.9846352
45	0x3f82593d	1.0183483
46	0x3f754e6b	0.9582278
47	0x3f744791	0.954217
48	0x3f79cd96	0.97579324
49	0x3f7c63d3	0.9858982
50	0x3f89a758	1.0754194
51	0x3f831ad0	1.0242558
52	0x3f85a8f4	1.0442185
53	0x3f7e0ec7	0.992413
54	0x3f80e468	1.0069704
55	0x3f8621e2	1.047909
56	0x3f7ad872	0.9798652
57	0x3f7d22ac	0.9888103
58	0x3f7ae7a1	0.9800969
59	0x3f7d624e	0.98978126
60	0x3f79e9ae	0.9762219
61	0x3f8b4ec9	1.0883418
62	0x3f78ccb5	0.9718736
63	0x3f724ef1	0.94651705
64	0x3f8df206	1.1089485
65	0x3f779f0b	0.96727055
66	0x3f817e7a	1.0116723
67	0x3f825836	1.018317
68	0x3f79f750	0.97642994
69	0x3f73df1e	0.95262325
70	0x3f753a1b	0.95791787
71	0x3f7fadbe	0.99874485
72	0x3f7ba587	0.9829945
73	0x3f715702	0.9427339
74	0x3f77d91e	0.9681567
75	0x3f7a6291	0.9780665
76	0x3f77bfdd	0.96777135
77	0x3f7a6bda	0.9782082
78	0x3f76327d	0.9617079
79	0x3f7978a8	0.9744973
80	0x3f7f5a8f	0.99747556
81	0x3f7024ba	0.9380604
82	0x3f74095b	0.95326775
83	0x3f70faac	0.94132495
84	0x3f7ec0b4	0.9951279
85	0x3f7aa7cf	0.97912306
86	0x3f75649d	0.9585665
87	0x3f772f8a	0.96556914
88	0x3f6da4cb	0.9282958
89	0x3f7b289e	0.9810885
90	0x3f89aae5	1.0755278
91	0x3f785d25	0.9701713
92	0x3f76b030	0.9636259
93	0x3f7a7752	0.9783832
94	0x3f704139	0.9384952
95	0x3f82689a	1.0188172
96	0x3f6fb597	0.9363646
97	0x3f77ee92	0.96848404
98	0x3f79118a	0.9729239
99	0x3f795b21	0.97404677
100	0x3f783286	0.9695209
101	0x3f7eaffb	0.99487275
102	0x3f76817b	0.9629132
103	0x3f9738fb	1.1814264
104	0x3f80dc53	1.0067238
105	0x3f82659f	1.0187262
106	0x3f78401d	0.9697283
107	0x3f85fd2c	1.0467887
108	0x3f7cc234	0.9873383
109	0x3f73fdb3	0.9530899
110	0x3f7febdf	0.99969286
111	0x3f80c59a	1.0060303
112	0x3f78425c	0.96976256
113	0x3f740f20	0.9533558
114	0x3f7c6b24	0.98600984
115	0x3f762686	0.9615253
116	0x3f80136c	1.0005927
117	0x3f779645	0.9671367
118	0x3f8103d4	1.0079293
119	0x3f783fe9	0.9697252
120	0x3f763499	0.9617401
121	0x3f85c097	1.0449399
122	0x3f79b743	0.9754526
123	0x3f800b1c	1.000339
124	0x3f86f554	1.0543618
125	0x3f7d4329	0.98930603
126	0x3f7dfd7a	0.992149
127	0x3f8187c3	1.0119556
128	0x3f808510	1.0040607
129	0x3f7978a3	0.974497
130	0x3f79049f	0.97272676
131	0x3f7e856b	0.9942233
132	0x3f7bfd63	0.9843351
133	0x3f7281ee	0.94729507
134	0x3f797a0d	0.9745186
135	0x3f7b8b9e	0.98259914
136	0x3f7ce8e9	0.9879289
137	0x3f8096a4	1.0045972
138	0x3f7956c8	0.9739804
139	0x3f723f3a	0.94627726
140	0x3f869e8c	1.0517135
141	0x3f7ce5b3	0.98787993
142	0x3f7cea68	0.98795176
143	0x3f824caa	1.0179646
144	0x3f7b129e	0.9807528
145	0x3f7b9f7f	0.98290247
146	0x3f786b6a	0.970389
147	0x3f7863cd	0.97027284
148	0x3f79de72	0.9760505
149	0x3f782f56	0.9694723
150	0x3f7abd4a	0.9794508
151	0x3f767b36	0.96281755
152	0x3f7d7001	0.9899903
153	0x3f88f84b	1.0700773
154	0x3f7c6ee5	0.9860671
155	0x3f7a0462	0.9766294
156	0x3f72fe0a	0.9491888
157	0x3f7d6b53	0.9899189
158	0x3f8361e9	1.0264255
159	0x3f83fa22	1.031071
160	0x3f806813	1.0031761
161	0x3f763ec7	0.9618954
162	0x3f780669	0.9688478
163	0x3f73a811	0.95178324
164	0x3f8f553b	1.1197885
165	0x3f7e9d4f	0.99458784
166	0x3f7caa56	0.9869741
167	0x3f90d56b	1.131513
168	0x3f7e1b4f	0.9926042
169	0x3f78d74a	0.97203505
170	0x3f7a2a26	0.97720563
171	0x3f7c16a4	0.98472047
172	0x3f86f77a	1.0544274
173	0x3f73984d	0.9515427
174	0x3f78d14f	0.9719438
175	0x3f7d74aa	0.9900614
176	0x3f750a84	0.9571917
177	0x3f7aa30b	0.97905034
178	0x3f81dc56	1.0145366
179	0x3f72a3c0	0.9478111
180	0x3f7dd484	0.991524
181	0x3f839678	1.0280294
182	0x3f79783e	0.974491
183	0x3f7ed4e7	0.99543613
184	0x3f7d3fcf	0.9892549
185	0x3f7ab659	0.9793449
186	0x3f721d8e	0.94576347
187	0x3f85798a	1.0427716
188	0x3f810765	1.0080382
189	0x3f7b38e1	0.98133665
190	0x3f81d691	1.0143605
191	0x3f7c13b5	0.9846757
192	0x3f8ccf6b	1.1000799
193	0x3f7bfbba	0.9843098
194	0x3f7863ac	0.9702709
195	0x3f83745d	1.0269886
196	0x3f8bbf47	1.0917748
197	0x3f814a54	1.0100808
198	0x3f77e237	0.9682955
199	0x3f790a6e	0.9728154

layers.2.bias f4 [200]
0	0xbd19a3f2	-0.037509866
1	0xbdd96210	-0.10614407
2	0xbc887703	-0.016658312
3	0x3caed95f	0.021343885
4	0x3dfd1b05	0.12358669
5	0xbdc79eae	-0.097470626
6	0xbdf7dc04	-0.121025115
7	0xbe08cd90	-0.13359666
8	0xbe081abc	-0.13291448
9	0xbbec2fa9	-0.00720783
10	0xbd9d19f7	-0.07670968
11	0xbd93632a	-0.071966484
12	0x3d831846	0.06401114
13	0xbdb33f4c	-0.08752307
14	0xbd8b297c	-0.06795022
15	0xbdd4e1cc	-0.1039463
16	0xbdb9f2f1	-0.090795405
17	0xbe0f7549	-0.14009584
18	0xbd32a043	-0.04360987
19	0x3dc8a2b5	0.09796659
20	0x3c741b11	0.014899031
21	0xbd775d46	-0.060391687
22	0xbdc4387e	-0.095810875
23	0xbdecd78e	-0.11564551
24	0x3cd69d25	0.02619798
25	0xbdecf49a	-0.115700915
26	0xbe08435f	-0.1330695
27	0xbdfaae91	-0.12240327
28	0xbd208fe6	-0.039199732
29	0x3d60d852	0.0548938
30	0x3d16f43d	0.036854018
31	0xbde6d5d8	-0.11271256
32	0x3d9a9ec2	0.07549812
33	0x3d90685e	0.070511565
34	0xbe09da77	-0.13462244
35	0x3d3949d0	0.04523641
36	0xbd8a8fdb	-0.067657195
37	0xbd547663	-0.051870715
38	0xbd6162d7	-0.0550259
39	0xbe30f1a6	-0.17279682
40	0xbccc265e	-0.024920639
41	0xbdaca5ce	-0.08430062
42	0x3cabd30e	0.020974662
43	0xbdf7fed7	-0.12109154
44	0xbce2ba67	-0.027676774
45	0xbe1aebec	-0.1512906
46	0xbd5eece4	-0.054425135
47	0x3db5729d	0.088597514
48	0xbdff63f2	-0.12470235
49	0x3ccf0dc6	0.025275122
50	0xbe13c856	-0.14431891
51	0xbdaf6ce6	-0.085656926
52	0x3d72839a	0.059207536
53	0x3d872b52	0.066000596
54	0xbdadde58	-0.08489674
55	0xbe0266c3	-0.12734513
56	0xbe04076d	-0.12893458
57	0xbe20a3d6	-0.15687498
58	0xbdfec809	-0.124404974
59	0xbe1a2f38	-0.15057075
60	0xbd6a090e	-0.05713754
61	0xbe0dcc36	-0.13847432
62	0xbd0d18f8	-0.03444764
63	0xbd339b29	-0.043849144
64	0xbdf09136	-0.11746447
65	0x3d936eaf	0.071988456
66	0xbe18bad0	-0.14915013
67	0xbdb4d169	-0.08829004
68	0x3cf19cea	0.029493768
69	0x3d0b64c3	0.03403164
70	0x3db66d39	0.08907551
71	0xbe15107a	-0.14557067
72	0x3d1034f5	0.035206754
73	0x3e051458	0.12996042
74	0x3d8f88c6	0.07008509
75	0xbe13a13e	-0.14416978
76	0x3d0e6049	0.034759793
77	0xbde2d333	-0.11075439
78	0xbda138e0	-0.07872176
79	0xbe1d525d	-0.1536345
80	0xbe04bedd	-0.12963434
81	0x3c391e97	0.011298797
82	0xbd804b65	-0.0626438
83	0x3dc22426	0.09479551
84	0xbdbc18d7	-0.09184425
85	0x3d0964bf	0.033543345
86	0xbe1281ab	-0.14307277
87	0xbe18bae3	-0.14915042
88	0x3d98b80a	0.07456978
89	0xbd7375c8	-0.059438497
90	0xbde7d59b	-0.11320039
91	0xbe2c7307	-0.16840754
92	0xbe06ce43	-0.1316462
93	0xbe10f569	-0.14156117
94	0xbdb670a9	-0.08908207
95	0xbe1a5ebf	-0.15075205
96	0xbd4d970c	-0.050192878
97	0xbdd0cc57	-0.10195225
98	0xbd88e8ce	-0.06685029
99	0xbde3b115	-0.1111776
100	0xbc10cd73	-0.008838045
101	0xbe1cddae	-0.15318939
102	0xbd740f44	-0.05958487
103	0xbddee0f2	-0.10882749
104	0xbd54f46a	-0.051990904
105	0xbe18eb72	-0.14933565
106	0xbd64e8a6	-0.055885933
107	0xbe26adc2	-0.16277221
108	0xbdeae415	-0.114692844
109	0xbd871d52	-0.06597389
110	0x3d999696	0.07499425
111	0x3dea08d2	0.114274636
112	0x3dbb90ce	0.09158479
113	0xbd83b38b	-0.064307295
114	0x3da2d171	0.07950104
115	0xbda0a7f1	-0.07844532
116	0xbe0a2d60	-0.13493872
117	0xbd4829ff	-0.048868176
118	0x3d8f0a68	0.06984407
119	0x3e067383	0.13130002
120	0xbdb634a0	-0.08896756
121	0x3c412f71	0.011791096
122	0x3dc8b377	0.09799855
123	0xbe0bf570	-0.13667846
124	0xbdc92a7d	-0.09822557
125	0xbd332959	-0.043740604
126	0x3c225ff1	0.0099105695
127	0xbb7f5d46	-0.0038965507
128	0x3d9456b8	0.07243103
129	0x3d376485	0.044773597
130	0xbd983ff2	-0.074340716
131	0xbdc62451	-0.096748956
132	0xbdbf996f	-0.09355437
133	0xbde659d9	-0.11247606
134	0x3d9f7851	0.077866204
135	0xbdad1406	-0.08451085
136	0xbdf0d377	-0.11759084
137	0xbd7fcccc	-0.06245117
138	0xbda61ff8	-0.08111566
139	0x3d925643	0.07145359
140	0xbdad6124	-0.08465794
141	0x3df0ca07	0.11757284
142	0x3c60b6fb	0.013715501
143	0xbde07e61	-0.10961605
144	0xbde74248	-0.11291939
145	0xbd430447	-0.0476115
146	0xbc9a6c64	-0.018850513
147	0x3d418cfb	0.04725359
148	0xbe0762a0	-0.13221216
149	0xbd0f6f0b	-0.03501801
150	0xb9e169bd	-0.00042994125
151	0x3bbd93c8	0.005785439
152	0xbe0a573b	-0.13509838
153	0xbdb31761	-0.087446935
154	0xbd8985cc	-0.06714973
155	0xbdbfd3ba	-0.093665555
156	0x3dab53e4	0.0836561
157	0x3debc496	0.11512105
158	0xbd8f352c	-0.069925636
159	0xbe1a898a	-0.1509153
160	0xbe1b1419	-0.15144385
161	0xbc795ff8	-0.015220635
162	0xbdaadffb	-0.08343502
163	0xbe11f654	-0.14254123
164	0xbdcb264c	-0.09919414
165	0x3dc3eca3	0.09566619
166	0x3ddb01ba	0.10693689
167	0xbb3bcd85	-0.0028656435
168	0xbd83aa49	-0.06428964
169	0xbe104e30	-0.14092326
170	0x3d0336b7	0.032034602
171	0xbdb48432	-0.08814277
172	0xbe0af373	-0.13569431
173	0x3c648719	0.013948225
174	0xbde08aed	-0.10963998
175	0xbe050986	-0.12991914
176	0xbd929b8b	-0.07158574
177	0xbc504b4b	-0.012713264
178	0xbe02a4e3	-0.12758212
179	0x3df209a5	0.11818246
180	0x3dbfd1a5	0.093661584
181	0x3dd70ee3	0.10500886
182	0x3d2fb384	0.04289581
183	0xbbf8e5ce	-0.007595754
184	0xbcf1b3bb	-0.029504647
185	0x3d59cfe9	0.053176794
186	0xbd8c7a5d	-0.068592764
187	0xbdfa99be	-0.12236355
188	0xbe144d75	-0.14482673
189	0xbe003f18	-0.12524068
190	0x3cdd4ea8	0.027015045
191	0x3d92d53e	0.07169579
192	0x3c49462c	0.012284797
193	0x3c844bf3	0.016149497
194	0xbd55a9ae	-0.052163772
195	0xbe13e859	-0.14444102
196	0xbe0a2f99	-0.1349472
197	0xbe2af446	-0.16694745
198	0xbe0243b1	-0.12721135
199	0xbe104df4	-0.14092237

layers.2.running_mean f4 [200]
0	0x3e128751	0.14309432
1	0x3f4741d2	0.7783481
2	0x3e34c8bb	0.17654698
3	0x3ecba938	0.3977754
4	0x3e83018f	0.25587127
5	0x3e07c52e	0.13258812
6	0x3c7794df	0.015111177
7	0x3e14a43f	0.1451578
8	0x3d3383de	0.04382693
9	0x3eea3ac6	0.45747966
10	0x3ec610fe	0.3868484
11	0x3f16d6a9	0.58921295
12	0x3f1b67ce	0.6070527
13	0x3e540bba	0.20707598
14	0x3e775462	0.24153283
15	0x3ea622de	0.32448477
16	0x3ea6f41a	0.3260811
17	0x3ccc169a	0.024913121
18	0x3e4e0bbd	0.20121665
19	0x3d2d577d	0.042319763
20	0x3e31e8b2	0.17373922
21	0x3e815636	0.25261086
22	0x3db785da	0.08961077
23	0x3c2ab9db	0.010420288
24	0x3e482d06	0.19548425
25	0x3e10e148	0.14148438
26	0x3ed211ed	0.410293
27	0x37c19a12	2.3079137e-05
28	0x3d9b0430	0.07569158
29	0x3d452fa2	0.04814113
30	0x3f0253e9	0.50909287
31	0x3e8d15b8	0.27555633
32	0x3dd90fea	0.105987385
33	0x3eafcb24	0.34334671
34	0x3e018005	0.12646492
35	0x3e1c6e6a	0.15276495
36	0x3e23e286	0.1600438
37	0x3ef6a6dc	0.4817418
38	0x3e0f7adb	0.1401171
39	0x3e3539c1	0.17697813
40	0x3eea33ce	0.4574265
41	0x3e0b09e9	0.13577999
42	0x3e6f322a	0.2335898
43	0x3e3a6a80	0.18204689
44	0x3f07945f	0.5296077
45	0x3dfea569	0.12433893
46	0x3e615016	0.22003207
47	0x3e64dbbc	0.22349447
48	0x3f05c6d8	0.52256536
49	0x3e68cf5a	0.22735348
50	0x3d6688cc	0.056282803
51	0x3d64731c	0.05577384
52	0x3d979ae7	0.07402592
53	0x3f697f11	0.9120951
54	0x3db76fb2	0.08956851
55	0x3af9e3c7	0.0019065075
56	0x3e894fc5	0.26818672
57	0x3e9c7013	0.30554256
58	0x3dc344dd	0.09534619
59	0x3e30e52d	0.17274924
60	0x3e899e0e	0.268784
61	0x3db778be	0.089585766
62	0x3e980ded	0.29698125
63	0x3e6a9162	0.22907022
64	0x3d037feb	0.032104414
65	0x3ed9526f	0.42445704
66	0x3dec6303	0.115423225
67	0x3e5a8dd9	0.21343173
68	0x3d4b3e39	0.049619887
69	0x3e47f608	0.19527447
70	0x3e84c851	0.2593408
71	0x3d89e938	0.06733936
72	0x3eadd804	0.3395387
73	0x3f37be1d	0.71774465
74	0x3f0cf87e	0.5506667
75	0x3eeb6898	0.45978236
76	0x3edbaf63	0.42907247
77	0x3ec4ae8f	0.38414428
78	0x3df93ba1	0.121695764
79	0x3f23a813	0.63928336
80	0x3d5d12b7	0.053972926
81	0x3dd5ddb7	0.104426794
82	0x3d6458b7	0.055748668
83	0x3eb978be	0.3622493
84	0x3d39d21c	0.04536639
85	0x3f33ceea	0.702376
86	0x3d22a700	0.039710045
87	0x3ea176a3	0.31535825
88	0x3d4f4ec4	0.050612226
89	0x3e681cef	0.22667287
90	0x38988d61	7.274259e-05
91	0x3e5b4c07	0.21415721
92	0x3d5504d0	0.052006543
93	0x3ea5de68	0.32396245
94	0x3ea3362e	0.31877273
95	0x3e4519ee	0.19248173
96	0x3c2ee8e1	0.01067564
97	0x3d9df54e	0.07712804
98	0x3ccae12a	0.02476557
99	0x3d738645	0.05945422
100	0x3d5c937f	0.0538516
101	0x3e1701bf	0.1474676
102	0x3de0c17a	0.10974403
103	0x3d262faf	0.04057282
104	0x3e4a5efc	0.19762796
105	0x3d88deda	0.066831306
106	0x3ed06c36	0.40707558
107	0x3dec9e7a	0.115536645
108	0x3eae8121	0.34082893
109	0x3e93aaa5	0.2884113
110	0x3e096f6d	0.13421412
111	0x3e3e0885	0.18557937
112	0x3ed6e0da	0.41968423
113	0x3da500bb	0.0805678
114	0x3e6a9429	0.22908081
115	0x3d521a74	0.05129476
116	0x3dcf4b79	0.10121817
117	0x3e765e44	0.24059397
118	0x3dbb169d	0.091351725
119	0x3ed49bd5	0.4152514
120	0x3e978f62	0.2960158
121	0x3e99edda	0.3006428
122	0x3e6088c9	0.2192718
123	0x3de54193	0.11194148
124	0x3c60b029	0.013713875
125	0x3e02b472	0.12764147
126	0x3de452ce	0.11148606
127	0x3e4c711a	0.1996502
128	0x3e3ee22c	0.18640965
129	0x3f25169f	0.6448764
130	0x3e4e01a1	0.20117809
131	0x3e68f5af	0.22749971
132	0x3d8d7e90	0.069089055
133	0x3f1e9fdc	0.61962676
134	0x3e2188d3	0.1577485
135	0x3dcd4b30	0.100241065
136	0x3ec1b80b	0.37835726
137	0x3e181b18	0.14854085
138	0x3e0b6fb4	0.1361683
139	0x3dd6dedb	0.10491725
140	0x3c63b633	0.01389842
141	0x3e65469b	0.22390215
142	0x3db2242f	0.08698308
143	0x3dd04827	0.10170012
144	0x3ec0a694	0.3762709
145	0x3e97bc71	0.29635957
146	0x3e56ac56	0.20964178
147	0x3ddde6ed	0.10835061
148	0x3d23c1db	0.039979797
149	0x3dc9baf6	0.09850113
150	0x3e94c4dd	0.29056445
151	0x3d5d1c31	0.053981964
152	0x3d0a333f	0.03374028
153	0x3d9d0641	0.076672085
154	0x3e9093f7	0.28237888
155	0x3ed2aa55	0.41145578
156	0x3e908ef4	0.28234065
157	0x3eddb8fe	0.433052
158	0x3e9239db	0.28559765
159	0x3dfd2e56	0.123623535
160	0x3d3a77b2	0.045524307
161	0x3e75126a	0.23932806
162	0x3e7c05e9	0.2461163
163	0x3def1974	0.11674777
164	0x3cebd26a	0.028786857
165	0x3e5af989	0.21384253
166	0x3d2de8ae	0.04245823
167	0x3cd91be4	0.026502557
168	0x3e471646	0.1944209
169	0x3e76aef0	0.24090171
170	0x3e11a79f	0.14224099
171	0x3e33ab54	0.17545825
172	0x3e096411	0.13417079
173	0x3f448b40	0.7677498
174	0x3dc0ace4	0.09407976
175	0x3e6f0656	0.2334226
176	0x3e44807a	0.19189635
177	0x3edb1364	0.4278823
178	0x3e8c0e2b	0.2735456
179	0x3e713862	0.23556665
180	0x3f2dbbe0	0.678648
181	0x3dcbfc20	0.099601984
182	0x3ee7bad9	0.4525974
183	0x3dea7c87	0.11449533
184	0x3d710ce4	0.058850184
185	0x3e102a78	0.140787
186	0x3e695ebd	0.22790046
187	0x3dde2248	0.108463824
188	0x3e118c51	0.14213683
189	0x3d825744	0.06364301
190	0x3e33211c	0.17493099
191	0x3ec15602	0.3776093
192	0x3ba53bba	0.0050425204
193	0x3e233f9b	0.15942232
194	0x3e41f87f	0.1894245
195	0x3edb051b	0.42777333
196	0x3ddefd2b	0.10888132
197	0x3d6e644a	0.05820111
198	0x3e11aee0	0.14226866
199	0x3ef432fd	0.4769515

layers.2.running_var f4 [200]
0	0x3d806f3d	0.06271217
1	0x3e8d1011	0.2755132
2	0x3dad1547	0.08451324
3	0x3e1e45e0	0.15456343
4	0x3de6f6f5	0.11277572
5	0x3d524c21	0.051342133
6	0x3c0efe9b	0.008727695
7	0x3d9e2314	0.07721534
8	0x3c9f421c	0.019440703
9	0x3e1d2f16	0.15349993
10	0x3e1b8e95	0.1519111
11	0x3e55866a	0.20852056
12	0x3e7de1fd	0.24793239
13	0x3da7a3e8	0.081855595
14	0x3dcb574d	0.09928761
15	0x3e17a773	0.1480997
16	0x3e05ca5c	0.13065475
17	0x3c25bded	0.010116083
18	0x3db49859	0.088181205
19	0x3c2b2988	0.010446914
20	0x3daefc24	0.08544186
21	0x3e08bfa1	0.1335435
22	0x3d21fb7c	0.039546475
23	0x3b385c11	0.0028131048
24	0x3d877bad	0.06615386
25	0x3d89f84a	0.067368105
26	0x3e521277	0.20514856
27	0x360bbe51	2.0823393e-06
28	0x3ce07451	0.027399214
29	0x3c41e47c	0.01183426
30	0x3e67f8af	0.22653459
31	0x3e0e626b	0.13904731
32	0x3cf17b34	0.029477693
33	0x3de1ce2d	0.11025653
34	0x3d5c188e	0.053734355
35	0x3d5a7ec7	0.05334356
36	0x3d729d61	0.05923212
37	0x3e1d8230	0.15381694
38	0x3d974d75	0.07387821
39	0x3db7ffc9	0.08984334
40	0x3e140277	0.14454065
41	0x3d8e6f8f	0.06954872
42	0x3ddf3455	0.108986534
43	0x3dbd3d17	0.092401676
44	0x3e1dbee3	0.15404849
45	0x3d77d676	0.06050726
46	0x3e02c058	0.12768686
47	0x3d7e81e0	0.062135577
48	0x3e712b3e	0.23551652
49	0x3de70879	0.11280913
50	0x3d0305f3	0.031988095
51	0x3ce23645	0.027613768
52	0x3d1beede	0.0380696
53	0x3ea94ffb	0.33068833
54	0x3d59a885	0.05313923
55	0x3a004d57	0.0004894337
56	0x3e02d21d	0.12775464
57	0x3e337707	0.17525874
58	0x3d2afdb9	0.041745875
59	0x3db9bf01	0.09069634
60	0x3df797e8	0.12089521
61	0x3d70a822	0.058754094
62	0x3e020b93	0.12699728
63	0x3e028af7	0.12748323
64	0x3cbb9cb9	0.02290188
65	0x3e0e4c52	0.13896301
66	0x3d2b8d9f	0.041883107
67	0x3dc3b96e	0.09556852
68	0x3c92d81b	0.017925313
69	0x3d9a5458	0.075356185
70	0x3e0ba9fc	0.13639063
71	0x3d2c2104	0.042023674
72	0x3e1ab701	0.15108873
73	0x3e80ebe1	0.2517996
74	0x3e5cf9ae	0.2157962
75	0x3e67234e	0.22572061
76	0x3e2efdac	0.17088956
77	0x3e41e89f	0.18936394
78	0x3d2eb0e1	0.042649154
79	0x3e87f24f	0.26552054
80	0x3d1d1868	0.038353354
81	0x3d23000b	0.039794963
82	0x3cedd2cc	0.02903118
83	0x3dd3fd92	0.10351099
84	0x3c976f13	0.018485582
85	0x3e498564	0.1967979
86	0x3ca1763a	0.019709695
87	0x3e27dfa1	0.16393901
88	0x3ca69693	0.020335471
89	0x3dac7cab	0.08422216
90	0x370947f4	8.182589e-06
91	0x3dc5a16a	0.09649928
92	0x3c8e2fed	0.017356837
93	0x3e08d639	0.1336297
94	0x3deb076c	0.11476025
95	0x3dd88c5b	0.10573646
96	0x3b4dd57d	0.0031407767
97	0x3cac9cba	0.021070827
98	0x3c2170ed	0.009853584
99	0x3cac2d67	0.021017743
100	0x3ca64e70	0.020301074
101	0x3d6f3028	0.058395535
102	0x3d46e676	0.04855963
103	0x3cced2d9	0.025247024
104	0x3d1271bf	0.035753008
105	0x3cc90522	0.02453858
106	0x3e036f14	0.12835342
107	0x3d4b007b	0.049561005
108	0x3e2a19a1	0.16611339
109	0x3ddfb577	0.109232835
110	0x3d8c3cc0	0.06847525
111	0x3dc3f06f	0.095673434
112	0x3e540582	0.20705226
113	0x3d0cd99d	0.03438722
114	0x3dad33e2	0.084571615
115	0x3ca42f13	0.020041978
116	0x3d57a6f3	0.05264945
117	0x3dde6d29	0.108606644
118	0x3d27368f	0.040823516
119	0x3e4fc168	0.20288622
120	0x3e15cf2e	0.14629814
121	0x3d97d50a	0.07413681
122	0x3def121b	0.11673375
123	0x3d2f7e1d	0.04284488
124	0x3bac2bab	0.005254229
125	0x3d4fbb85	0.050715942
126	0x3d6a48a5	0.057198185
127	0x3dc1f4ab	0.09470495
128	0x3d9f018a	0.077639654
129	0x3e69206b	0.22766273
130	0x3de79f4a	0.11309679
131	0x3dfa2fc7	0.12216144
132	0x3cc53671	0.024073811
133	0x3e30244b	0.17201345
134	0x3d81f860	0.06346202
135	0x3d1b1a4a	0.037866868
136	0x3e3d6e1f	0.18499039
137	0x3d993892	0.07481493
138	0x3d9edb18	0.077566326
139	0x3d2ddd49	0.042447362
140	0x3bcf2612	0.006321677
141	0x3dc6db08	0.09709746
142	0x3d153afd	0.03643321
143	0x3d635254	0.055498436
144	0x3e328c55	0.17436345
145	0x3dfda7d6	0.12385528
146	0x3e1681cb	0.1469795
147	0x3d2ced61	0.04221857
148	0x3c49abc1	0.012309016
149	0x3d33406b	0.043762606
150	0x3ddf9664	0.109173566
151	0x3cbb7df2	0.022887204
152	0x3c7bd670	0.01537095
153	0x3d4d0ef3	0.050063085
154	0x3e0cefb3	0.13763313
155	0x3e875fda	0.26440316
156	0x3dbdc2a3	0.0926564
157	0x3e0e91c6	0.13922796
158	0x3e12d10c	0.14337558
159	0x3d6cd1fc	0.057817444
160	0x3c8b65f1	0.017016383
161	0x3da60b1d	0.081075884
162	0x3e07be8a	0.13256279
163	0x3d6c0cc4	0.05762936
164	0x3c78e70b	0.015191804
165	0x3dae4167	0.08508568
166	0x3c33e834	0.0109806545
167	0x3c6b6318	0.0143668875
168	0x3d995a58	0.07487935
169	0x3e05dea1	0.13073207
170	0x3d5b1466	0.05348625
171	0x3d97e19a	0.07416077
172	0x3d8506db	0.06495448
173	0x3e64109a	0.22271958
174	0x3d474cda	0.048657276
175	0x3de40d39	0.111353345
176	0x3d89ddb4	0.0673174
177	0x3e527172	0.20551088
178	0x3e17c493	0.14821081
179	0x3dcf5994	0.101245075
180	0x3e906c2e	0.28207535
181	0x3d2f8047	0.042846944
182	0x3e450849	0.19241442
183	0x3d090e24	0.03346075
184	0x3cd57d88	0.026060835
185	0x3d809c79	0.06279845
186	0x3dd622e8	0.104558766
187	0x3d405199	0.046952818
188	0x3d8716e4	0.06596163
189	0x3ce82e24	0.028342314
190	0x3d917043	0.0710149
191	0x3e2dc1e0	0.16968489
192	0x3a3128fe	0.00067581225
193	0x3d765802	0.060142525
194	0x3da8fc16	0.082512066
195	0x3e2424d2	0.16029671
196	0x3d65df6a	0.056121267
197	0x3caf01dd	0.021363193
198	0x3d5852ef	0.052813467
199	0x3e0e9f79	0.13928021

layers.4.weight f4 [100, 200]
0	0xbc7b7af6	-0.01534914
1	0x39739b53	0.00023232149
2	0xbc482b03	-0.012217286
3	0x3ab76082	0.0013990554
4	0xbd276eca	-0.04087714
5	0x3cbb73c4	0.02288235
6	0xbd9ed2e0	-0.07755065
7	0xbd791412	-0.060810156
8	0x3b3e4f97	0.0029039138
9	0x3c90c5a2	0.017672364
10	0xbdb53a35	-0.08848993
11	0xbdaac360	-0.08338046
12	0xbbae811d	-0.00532545
13	0xbdad1cfe	-0.084527954
14	0xbd4f69dc	-0.050638065
15	0xbd11aa23	-0.035562646
16	0xbd157403	-0.03648759
17	0xbd9082b0	-0.07056177
18	0xbd554b78	-0.052073926
19	0x3d8f4da8	0.06997234
20	0xbd271f37	-0.040801253
21	0xbda2289d	-0.079179026
22	0xbc9219e3	-0.01783461
23	0xbdb79cc5	-0.08965448
24	0x3ce39475	0.02778075
25	0x3d082a31	0.03324336
26	0xbc0e6d98	-0.008693121
27	0xbd2c0633	-0.0419981
28	0xbce38145	-0.027771601
29	0x3bf5436b	0.0074848435
30	0x3cc8ee76	0.02452777
31	0xba2504b5	-0.0006294952
32	0x3cf284cd	0.02960434
33	0x3d47d505	0.048787136
34	0xba6dddfe	-0.0009073912
35	0x3d969f55	0.07354609
36	0xbd2ced12	-0.042218275
37	0x3d443e0a	0.047910728
38	0xbccec8df	-0.025242267
39	0xbd9f28d9	-0.07771463
40	0x3b2c9ebb	0.0026339728
41	0xbcf9f263	-0.030511087
42	0xbbf50699	-0.007477593
43	0x3d11ed84	0.035626903
44	0x3d7d7909	0.061883006
45	0xbd9a9b1f	-0.07549118
46	0x3d4a58b4	0.049401
47	0xbcc9b4ff	-0.024622438
48	0xbb3fec33	-0.0029285073
49	0xbcb79cbd	-0.022413606
50	0xbc9d10cb	-0.019173047
51	0xbdc8b8a0	-0.098008394
52	0x3c23927b	0.009983654
53	0x3d87046d	0.06592641
54	0xbd8e25c9	-0.06940801
55	0xbc94a351	-0.018144282
56	0xbd8075d7	-0.06272476
57	0xbdb67771	-0.089095004
58	0x3c494d36	0.012286475
59	0x3c464e99	0.0121037
60	0xbcf5fa6d	-0.030026639
61	0x3ca00a5f	0.019536195
62	0xbd8c1973	-0.068407916
63	0xbcdec64e	-0.027194168
64	0x3d0c2882	0.03421832
65	0x3d886542	0.066599384
66	0x3d20eb76	0.039287053
67	0xbd5a53a0	-0.053302407
68	0x3d594538	0.053044528
69	0x3ba50dd3	0.0050370484
70	0xbc4f1f64	-0.012641761
71	0x3cec66b4	0.028857566
72	0x3ca0779f	0.01958829
73	0xbd30c05b	-0.043152194
74	0x3c835169	0.01603003
75	0x3c81a0db	0.015823772
76	0x3d15b0a1	0.0365454
77	0xbd354784	-0.044257656
78	0x3b7803d3	0.0037844076
79	0x3c517ccd	0.0127861025
80	0x3d0fc381	0.035098556
81	0x3d64011a	0.055665113
82	0xbd6fbc2d	-0.058529068
83	0xbd089fee	-0.033355646
84	0xbcfe6e6c	-0.031058513
85	0x3cf154df	0.029459415
86	0xbd240b11	-0.040049616
87	0x3c1b8d49	0.009494134
88	0xbd1f0ede	-0.038832538
89	0xbd50bafa	-0.050959565
90	0x3bb5615b	0.0055352873
91	0xbd880987	-0.06642442
92	0x3b8a5bbc	0.0042223614
93	0xbd1a9ed8	-0.03774914
94	0xbcb7e5ca	-0.02244844
95	0x3cdbb381	0.026818993
96	0xbd27c61a	-0.04096041
97	0x3cc2c584	0.023775823
98	0xbd66c3cd	-0.056339074
99	0xbd487870	-0.048942983
100	0x3d8c8138	0.06860584
101	0x3cb482f7	0.022035105
102	0xbd939d5e	-0.0720775
103	0x3d00db4d	0.03145914
104	0x3b53b541	0.003230408
105	0x3c6defb4	0.014522482
106	0xbc911081	-0.017708065
107	0xbc9a2e56	-0.018820923
108	0xbd1c8557	-0.0382131
109	0x3c836600	0.016039848
110	0x3d5672d7	0.052355614
111	0xbceca7d0	-0.028888613
112	0xbd1313c5	-0.035907526
113	0x3d4a55aa	0.049398102
114	0x3c40ae38	0.011760287
115	0xbca54f5a	-0.02017944
116	0xbda62cf9	-0.081140466
117	0x3d6488ea	0.055794634
118	0xbb5bfee0	-0.0033568665
119	0xbc882537	-0.016619308
120	0xbd7b6e68	-0.06138459
121	0x3c9c6784	0.019092329
122	0x3d6849f0	0.056711137
123	0xbca5115f	-0.020149885
124	0xbcaff5fc	-0.0214796
125	0xbd43fab2	-0.047846504
126	0xbb75402e	-0.0037422287
127	0xbd4974d2	-0.049183674
128	0x3c25e843	0.010126176
129	0x3cfdc4f2	0.0309777
130	0xbd6e3a92	-0.058161326
131	0xbd98b426	-0.074562356
132	0x3d03026c	0.03198473
133	0x3bb3d54d	0.005488074
134	0x3cf73eac	0.030181251
135	0xbce76380	-0.028245687
136	0xbcad5d95	-0.021162787
137	0x3a629484	0.00086433464
138	0xbd650992	-0.05591733
139	0x3cb1910f	0.021675615
140	0xbd956367	-0.0729435
141	0x3cae4ba5	0.021276304
142	0x3d7b221a	0.06131182
143	0x3cbb4747	0.022861136
144	0xbcdd256a	-0.02699538
145	0x3d7768f2	0.060402818
146	0x3c9a505d	0.018837148
147	0x3d3b5a4d	0.045740414
148	0xbd6d1fc5	-0.057891626
149	0x3d93c7e0	0.072158575
150	0xbccdb6d0	-0.025111586
151	0xbaba67a6	-0.0014221563
152	0xbd379eff	-0.044829365
153	0x3acc77d4	0.0015599676
154	0x3c6a6edf	0.01430866
155	0xbd6a8b35	-0.057261664
156	0xbc11645d	-0.008874026
157	0x3c743d7c	0.014907237
158	0xbd40d8b4	-0.047081664
159	0x3912c083	0.00013995361
160	0xbd5c9d21	-0.053860787
161	0x3d3abe2f	0.04559153
162	0x3d6db11e	0.05803024
163	0xbdb247d3	-0.08705106
164	0xbc3099a5	-0.010778819
165	0xbd1635b3	-0.036672305
166	0xbca05947	-0.01957382
167	0xbd8b9954	-0.068163544
168	0xbd40e599	-0.04709396
169	0xbcb77a4e	-0.022397187
170	0xbc39895e	-0.011324255
171	0xbd8dce13	-0.06924071
172	0x3d290c9d	0.041271795
173	0x3d0d1ac0	0.03444934
174	0xbdbc95bc	-0.09208247
175	0xbbb55e13	-0.005534896
176	0xbd0fcde3	-0.03510846
177	0x3db6df41	0.08929301
178	0x3c531fa2	0.01288596
179	0xbc410dff	-0.011783122
180	0x3d243726	0.040091656
181	0x3c75a717	0.014993451
182	0xbbd8d430	-0.0066170916
183	0xbc566275	-0.013084997
184	0xbd289305	-0.041155834
185	0xbca84b0f	-0.020543603
186	0x3d0f4f32	0.034987636
187	0x3cc283af	0.023744432
188	0xbdb6ccfc	-0.089258164
189	0x3d129913	0.035790514
190	0xba62164d	-0.0008624539
191	0x3d5e9348	0.054339677
192	0xbdb82f90	-0.08993447
193	0x3d958286	0.07300286
194	0x3c812b2c	0.015767656
195	0x3c649dbe	0.013953624
196	0xbce3c7aa	-0.027805168
197	0xbd7e40a8	-0.06207338
198	0xbccf7ead	-0.025328958
199	0xbc2f83e1	-0.010712595
200	0xbcdcd03c	-0.026954763
201	0xbd843532	-0.06455459
202	0xbd6a222f	-0.057161506
203	0x3cc35207	0.023842825
204	0x3da03afc	0.078237504
205	0xbcc8bc5a	-0.024503876
206	0x3dca450c	0.09876451
207	0xbccf9cf5	-0.025343398
208	0xbcd84e4b	-0.02640452
209	0xbd4fd172	-0.050736852
210	0xbc93c0d6	-0.018036287
211	0x3bb1b7ba	0.0054235132
212	0x3d722b6a	0.059123434
213	0xbd3ef8c2	-0.046623953
214	0x3c945db9	0.018111097
215	0xbd07fb82	-0.03319884
216	0x3cb013af	0.02149376
217	0xbc8f245a	-0.017473388
218	0xbc685bce	-0.014182044
219	0x3c5cc892	0.013475554
220	0xbca26d2f	-0.019827453
221	0xbd6e3c72	-0.058163114
222	0x3cedae61	0.029013814
223	0xbd5e16e7	-0.05422106
224	0xbca9e704	-0.02074004
225	0x3c95adcb	0.018271348
226	0xbdb1e5bf	-0.08686399
227	0xbd3823b7	-0.044955935
228	0x3cb8de96	0.022567075
229	0xbc4749cd	-0.012163592
230	0xbd6d72f2	-0.05797095
231	0xbd2a0c94	-0.0415159
232	0x3c6a37dd	0.014295545
233	0x3c4b004b	0.012390207
234	0xbc1e381e	-0.009656934
235	0x3c6749bc	0.014116701
236	0xbd63b553	-0.055592846
237	0x3d8e69bc	0.06953761
238	0xbdae0928	-0.0849784
239	0x3d82e85d	0.06391976
240	0x3d11d8a9	0.035607014
241	0x3d993125	0.07480077
242	0x3d556871	0.052101556
243	0xbcbd6924	-0.023121424
244	0xbc412dca	-0.011790702
245	0x3dc13212	0.09433378
246	0xbd237ae8	-0.039912134
247	0xbb8ff2c8	-0.0043929555
248	0x3d4311d2	0.047624417
249	0x3d6be36f	0.057589944
250	0x3d240c3a	0.040050723
251	0xbd6bf7f8	-0.05760953
252	0xbcfd12de	-0.030892786
253	0x3ce6edf8	0.028189644
254	0xbc017980	-0.007902503
255	0xbc104f36	-0.008807948

layers.4.bias f4 [100]
0	0x3e097877	0.1342486
1	0xbd90276f	-0.07038771
2	0xbd060bfd	-0.032726277
3	0xbda0cdd1	-0.07851756
4	0xbdffcc31	-0.12490118
5	0xbd8c636d	-0.068549015
6	0xbb5bcc6e	-0.0033538598
7	0x3c642ffd	0.013927457
8	0xbdae19c5	-0.08501009
9	0x3caad5a9	0.020853834
10	0x3ddc2cc2	0.107507244
11	0xbd928c07	-0.07155614
12	0xbd6d1717	-0.05788335
13	0x3c87a96d	0.01656028
14	0xbd1eeb94	-0.038798884
15	0xbe0642b2	-0.1311138
16	0xbdb0e0b0	-0.08636606
17	0x3cae9cc0	0.021314979
18	0x3d3b37f2	0.04570765
19	0xbddf9932	-0.109178916
20	0xbe0c7f2a	-0.13720384
21	0xbe04e6ca	-0.12978664
22	0xbe1c651a	-0.15272942
23	0xbdbdd43d	-0.09268997
24	0x3cd79a1a	0.026318599
25	0x3ca03210	0.019555122
26	0xbd6d1eee	-0.057890825
27	0xbdc5bdf7	-0.096553735
28	0xbdcba069	-0.09942705
29	0xbc6a0a12	-0.0142846275
30	0x3d3ec7a9	0.04657713
31	0x3d38b46e	0.045093946
32	0xbca2e606	-0.019885074
33	0xbdbdfbfe	-0.09276579
34	0xbcd56fb8	-0.026054248
35	0xbd89f26e	-0.06735693
36	0xbdc60f8f	-0.09670936
37	0x3b040f33	0.002015066
38	0xbdd93ee7	-0.10607701
39	0x3d08fe83	0.033445846
40	0xbd70b2b8	-0.05876419
41	0xbd8d11fe	-0.06888197
42	0x3df0347e	0.11728762
43	0xbdb0d14a	-0.08633669
44	0x3c9c76d1	0.019099625
45	0x3dcb77c2	0.09934951
46	0xbd9b4925	-0.075823106
47	0xbba6df18	-0.005092513
48	0xbdf68914	-0.12037864
49	0x3dc9635b	0.09833404
50	0xbdba0729	-0.09083397
51	0xbab5883a	-0.0013849803
52	0xbddc89cb	-0.107684694
53	0xbe57097a	-0.20999709
54	0xbda1ac06	-0.07894139
55	0x3c081be2	0.008307429
56	0xbe464295	-0.19361337
57	0xbdc2a8b2	-0.09504832
58	0xbcf894bf	-0.030344365
59	0xbe304246	-0.17212781
60	0xbe1bd118	-0.15216482
61	0xbe08ced5	-0.1336015
62	0xbda598a7	-0.08085757
63	0xbd28acf5	-0.04118057
64	0xbc8c6175	-0.017136315
65	0xbd72647b	-0.059177857
66	0xbe177729	-0.1479155
67	0x3c248195	0.01004066
68	0x3d8b0e40	0.06789827
69	0x3df24908	0.11830336
70	0x3d6f58a1	0.058434132
71	0xbdd67692	-0.10471834
72	0xbd1c8338	-0.038211077
73	0x3d94f9ba	0.07274194
74	0xbc9a8713	-0.018863237
75	0xbe1486d3	-0.14504556
76	0x3d410811	0.047126833
77	0xbd0df52e	-0.03465765
78	0x3b87273f	0.0041245515
79	0x3d7645d6	0.060125194
80	0xbdc08697	-0.09400671
81	0xbd2ea423	-0.042637
82	0xbe6abff6	-0.2292479
83	0x3c9ad594	0.01890067
84	0x3db96974	0.09053317
85	0xbcbd10ed	-0.02307936
86	0xbe050c29	-0.1299292
87	0x3daab690	0.08335602
88	0xbb90a275	-0.0044138976
89	0xbdd6addd	-0.104823805
90	0x3d8c7cbe	0.0685973
91	0xbdc0ebd4	-0.09419981
92	0xbdba4e4f	-0.090969674
93	0xbd97f8b7	-0.074204855
94	0x3cd1ad56	0.025595348
95	0xbd0dd812	-0.03462989
96	0xbc8f05d5	-0.017458836
97	0xbb2509f3	-0.0025182932
98	0xbe0e2b01	-0.13883592
99	0x3e14b1b5	0.14520915

layers.6.weight f4 [100]
0	0x3f74fc99	0.95697933
1	0x3f79eebc	0.97629905
2	0x3f70085d	0.9376276
3	0x3f838921	1.0276223
4	0x3f7741cc	0.96584773
5	0x3f7268e1	0.9469128
6	0x3f7daf1a	0.9909531
7	0x3f753296	0.95780313
8	0x3f6edd2a	0.9330622
9	0x3f72d1b9	0.9485126
10	0x3f7b35b6	0.9812883
11	0x3f71350d	0.94221574
12	0x3f71c351	0.94438654
13	0x3f7db751	0.99107844
14	0x3f78fdc1	0.972622
15	0x3f773142	0.96559536
16	0x3f802501	1.0011293
17	0x3f7ebb64	0.99504685
18	0x3f7ab419	0.9793106
19	0x3f801397	1.0005978
20	0x3f84378b	1.032945
21	0x3f80e9b8	1.0071325
22	0x3f7cb20d	0.98709184
23	0x3f731126	0.9494804
24	0x3f7c0419	0.9844375
25	0x3f80ca8c	1.0061812
26	0x3f814fac	1.0102439
27	0x3f834622	1.0255778
28	0x3f77bedf	0.9677562
29	0x3f781585	0.96907836
30	0x3f709300	0.93974304
31	0x3f780fa4	0.96898866
32	0x3f823742	1.0173113
33	0x3f7e38e4	0.9930556
34	0x3f724d70	0.9464941
35	0x3f7f97de	0.99841106
36	0x3f850877	1.0393208
37	0x3f6eae60	0.93234825
38	0x3f82e1a3	1.0225109
39	0x3f790570	0.9727392
40	0x3f780053	0.96875495
41	0x3f86f50d	1.0543534
42	0x3f78b6fa	0.971542
43	0x3f80bcaa	1.0057576
44	0x3f77e178	0.96828413
45	0x3f7b775f	0.9822902
46	0x3f81e7a1	1.0148813
47	0x3f7196f6	0.94370973
48	0x3f7e6e21	0.99386793
49	0x3f724b38	0.94646025
50	0x3f86d722	1.0534403
51	0x3f71be6d	0.9443119
52	0x3f7b8ed0	0.9826479
53	0x3f874af5	1.056975
54	0x3f88f040	1.0698318
55	0x3f798aaa	0.9747721
56	0x3f83bf3f	1.0292739
57	0x3f80ae6f	1.0053233
58	0x3f74d17c	0.9563215
59	0x3f8ae9fe	1.0852659
60	0x3f86c1a7	1.0527848
61	0x3f800351	1.0001012
62	0x3f6e7a52	0.93155396
63	0x3f84f23a	1.0386422
64	0x3f6f5425	0.9348777
65	0x3f7203cc	0.94537044
66	0x3f7ce250	0.98782825
67	0x3f79db78	0.9760051
68	0x3f77924b	0.967076
69	0x3f82f4a7	1.0230912
70	0x3f77cf0c	0.96800303
71	0x3f80dfbd	1.006828
72	0x3f73000c	0.94921947
73	0x3f7960d7	0.9741339
74	0x3f781556	0.96907556
75	0x3f7ec7bc	0.9952352
76	0x3f6f04d2	0.9336673
77	0x3f756a9d	0.95865804
78	0x3f79256c	0.97322726
79	0x3f8164dc	1.0108905
80	0x3f801dc9	1.000909
81	0x3f739f37	0.9516482
82	0x3f896977	1.073531
83	0x3f7e248e	0.9927453
84	0x3f7b0166	0.9804901
85	0x3f7d121e	0.9885577
86	0x3f70b040	0.94018936
87	0x3f74d39b	0.95635384
88	0x3f821208	1.0161753
89	0x3f835868	1.0261354
90	0x3f729766	0.94762266
91	0x3f90329d	1.1265446
92	0x3f769d43	0.9633371
93	0x3f81a30a	1.012788
94	0x3f6f8f44	0.9357798
95	0x3f7c27aa	0.9849802
96	0x3f784d9c	0.9699342
97	0x3f815cb1	1.0106412
98	0x3f800b63	1.0003475
99	0x3f760de0	0.9611492

layers.6.bias f4 [100]
0	0x3ccdde91	0.025130542
1	0xbddeed6e	-0.1088513
2	0x3ca731e2	0.020409528
3	0xbe36f942	-0.17868522
4	0xbe280c07	-0.16410838
5	0xbe18b8ef	-0.14914297
6	0xbda7d883	-0.08195593
7	0xbe1bac7f	-0.15202521
8	0x3dbda9cf	0.09260904
9	0x3dbe2519	0.092844196
10	0xbdae02de	-0.084966406
11	0xbe2bf4a4	-0.16792542
12	0xbdad7b8f	-0.084708326
13	0xbcee5132	-0.029091451
14	0xbe225d55	-0.15855916
15	0xbdf17b90	-0.11791146
16	0xbe091a61	-0.13388969
17	0xbe239a72	-0.15976885
18	0x3e1b1c75	0.15147574
19	0xbe1af303	-0.15131764
20	0xbe149db5	-0.14513285
21	0xbe16ae11	-0.14714839
22	0xbe37f7c4	-0.17965609
23	0xbe08fe9f	-0.1337838
24	0xbe1056fd	-0.14095683
25	0xbd2ae582	-0.041722782
26	0xbe0c556f	-0.13704465
27	0xbe08bc4f	-0.13353084
28	0xbe03166b	-0.1280152
29	0xbc569cc7	-0.013098902
30	0x3d802f83	0.06259062
31	0x3cb4ad3d	0.022055263
32	0xbdf656a4	-0.12028244
33	0xbe142768	-0.14468157
34	0xbe2d6589	-0.16933264
35	0xbe04e5b0	-0.12978244
36	0xbe150b81	-0.1455517
37	0x3dc47624	0.09592846
38	0xbe392001	-0.18078615
39	0x3dce8502	0.10083963
40	0x3e212807	0.15737925
41	0x3dc4057a	0.09571357
42	0x3c79f1a8	0.015255369
43	0xbe33ac02	-0.17546085
44	0xbd95535c	-0.0729129
45	0x3d6cb176	0.057786427
46	0xbe2ac61d	-0.16677137
47	0xbde57ae3	-0.112050794
48	0xbe124e09	-0.1428758
49	0xbd0324b9	-0.032017443
50	0xbe3e71f9	-0.18598165
51	0x3db3e6ff	0.087842934
52	0xbe2c35bc	-0.16817373
53	0xbe19e7fc	-0.15029901
54	0x3e10cee4	0.14141423
55	0xbddbd223	-0.1073344
56	0xbe23c149	-0.15991701
57	0xbe255eb7	-0.16149412
58	0xbd8be172	-0.0683011
59	0xbd18734a	-0.037219323
60	0xbe1c76e7	-0.15279733
61	0xbe2293f9	-0.1587676
62	0xbe0726f9	-0.1319846
63	0xbe1a3a15	-0.15061219
64	0xbdb8f684	-0.09031394
65	0x3ce893dc	0.028390817
66	0xbe1f0e66	-0.15532836
67	0x3d1f5d8b	0.03890757
68	0xbdce6578	-0.100779474
69	0xbe0ed3a3	-0.1394792
70	0xbdc46953	-0.095904015
71	0x3b9a238a	0.0047039436
72	0x3d08a837	0.033363547
73	0x3d595d85	0.053067703
74	0xbdfa86f0	-0.122327685
75	0xbe162e1f	-0.14666031
76	0xbc960ea8	-0.018317536
77	0xbdfce611	-0.12348569
78	0xbe16bed4	-0.14721233
79	0xbb05a55b	-0.002039275
80	0xbe090c12	-0.1338351
81	0x3e0454c9	0.12922968
82	0xbe055951	-0.13022353
83	0xbe24963e	-0.16072938
84	0x3de0c089	0.10974223
85	0xbd90144e	-0.07035123
86	0xbe3384c8	-0.17531121
87	0xbd2619e0	-0.04055202
88	0xbe1dfc28	-0.15428221
89	0xbe1ebd6d	-0.15501948
90	0x3d3aa7e7	0.04557028
91	0x3e1f7ac8	0.15574181
92	0xbe0e8987	-0.1391965
93	0xbe29c364	-0.16578442
94	0xbe0fec98	-0.14055097
95	0x3ce69d8b	0.028151294
96	0x3d9d3f10	0.07678044
97	0x3e1e650a	0.15468231
98	0xbe4020a9	-0.18762459
99	0xbdf3a255	-0.11896197
