tests/test_models/churn_cat_test.onnx (onnx, 119532 bytes, 28 tensors)

all_embeddings.0.weight f4 [3, 2]
00000000: 3859 7ebf 7f9f e23e e980 d13f 713b 0d3f
00000010: 36ff 803f 5ec1 84be
-0.99354887 0.4426231 1.6367465 0.55168825 1.0077884 -0.25928777

all_embeddings.1.weight f4 [2, 1]
00000000: f4a4 dcbd 1e7d b0bf
-0.1077365 -1.3788183

all_embeddings.2.weight f4 [2, 1]
00000000: 1091 7e3f e71c 903e
0.994401 0.2814705

all_embeddings.3.weight f4 [2, 1]
00000000: 4eaa e83e 09d2 4abf
0.45442432 -0.7922674

batch_norm_num.bias f4 [6]
00000000: 7c0d 033d 9b46 35be 5022 8c3c 4303 bdbd
00000010: ec00 89bd 3c11 11be
0.03199528 -0.17702715 0.017106205 -0.09229138 -0.06689629 -0.1416673

batch_norm_num.running_mean f4 [6]
00000000: f697 2244 b6e9 1b42 b0c8 9f40 cc31 9347
00000010: 3a35 c43f 5a17 c347
650.3744 38.978233 4.993248 75363.59 1.5328743 99886.7

batch_norm_num.running_var f4 [6]
00000000: 7707 1346 6acb dc42 ec28 0541 f13d 694f
00000010: 0a80 ab3e 66b3 454f
9409.866 110.39729 8.322491 3.9131507e+09 0.33496124 3.3168686e+09

batch_norm_num.weight f4 [6]
00000000: 67cb 5d3f 3041 8e3f 57bd 593f bcda 6b3f
00000010: 9354 8e3f c2d3 593f
0.8663849 1.1113644 0.85054535 0.9213064 1.111956 0.8508874

layers.0.bias f4 [200]
00000000: 832c 92be 49e4 9abb 979b 8abe 222b b03d
00000010: 2100 abbd e97a 003c 17e1 1f3e 6ea3 dcbe
00000020: 030e 9b3e 4418 0fbe f9fb 61be 9d21 cbbd
00000030: 7d08 5c3e d76e 433e 49b3 f43b a53b 85be
00000040: 8b74 253e c6fc 98be 9bf6 553c ee50 aebe
00000050: 1653 3f3e 8d53 483e daeb b4be 47d9 20be
00000060: f27e 86be 7a30 1cbd 03b7 66be ee71 4abe
00000070: 8921 6ebe 8eee 953e 1adb c1be 195c 31be
00000080: ecbb 123e 7808 d2bd 4bbc 25be 2e62 39be
00000090: 1259 82bc c70a 403e 71e3 803b e446 823d
000000a0: 2c40 64be 8683 923d c43f 5b3d 9c4f 45be
000000b0: 0c81 52be 65b2 8bbd a219 343e 32ea 5abe
000000c0: f96a 9dbe f932 733e ad3d 253d 590f 43be
000000d0: ea69 4d3e 6cca 1e3e 979e fdbc f0de 773e
000000e0: f452 473d 7192 9abe f902 8cbc 9391 3ebd
000000f0: 3fd8 ecbd de68 0abe cce9 82bc 8f95 89bd
00000100: bc58 2bbe 8bb6 76be 45fd fabd ee77 fbbc
00000110: 47c5 7d3d c214 a83e c45f a33e a9bd 143e
00000120: 4803 7a3e 3da0 a63e 693f 5b3e 7bb2 b2be
00000130: 449f ab3e c112 a83d 3a4f 75be 8de3 283e
00000140: 4e31 a8be 0079 b3be c0c3 adbd 068c afbd
00000150: 2484 b2bc b0bf 87bd f0f4 d9bd d35c 453e
00000160: 26da 10be 1d3a 123e 8140 143e 414c c53c
00000170: ba0b 50be c9b4 8e3e 7ab9 5abd eb11 efbe
00000180: 39c9 1e3e b560 733d 6116 93be 8ad2 81be
00000190: a5fa a63e f176 4cbe e35a df3d 0baf 85be
000001a0: 964f 003c c7de bdbd cffa 21bc 1160 443e
000001b0: 238e 2f3d 4f4e 0dbe 7584 4fbe 0fe2 b2be
000001c0: af88 c3be 226b 85bd 940e 12be 3ee0 febd
000001d0: ccaf 9cbe 3b3b 9bbd 5d78 5e3e 3acc b8bd
000001e0: c3ce bc3d efb1 cabe f645 3bbe 388e 5e3e
000001f0: 318f 1cbe b18e 4b3e 845f aebe 5cb6 4b3d
00000200: 721c 813e b174 b2bd 54cf 4d3e ddc0 a6be
00000210: b980 4abe f5a4 37bd 364a f0bd b3f6 34be
00000220: e940 85be 2f51 e63c cea0 463e f0b4 5c3e
00000230: edea dd3d 6d74 f3bd ddc4 4e3e 54bf 833e
00000240: 9fd9 7bbc 63fe 7cbd fb93 4dbd 5b6c 353d
00000250: 7d58 813d 3d94 8c3e 8de3 75be 8c57 8d3e
00000260: 1101 0ebe d564 e63d cec0 e8bd efde 99be
00000270: 5ba8 02be abd2 933e 958d 393e e8ff 0abe
00000280: 0677 c73d 77be b3bd 8c6f 9ebc cded 583d
00000290: 3ac3 713e db86 68be 9115 9e3e 0e99 3cbd
000002a0: b00f ecbd 5a23 293e 870d 51be 7c60 063d
000002b0: 9eb4 0e3e 6408 833e f6db 4b3e 119e 0ebd
000002c0: 231f 803e 0f27 a13d b71f 6a3e 20e9 a03d
000002d0: 237c 7a3e 9b94 703e df64 43be c20d a8bd
000002e0: 9db0 753e 8cb5 a9bd 0823 8e3e c155 83be
000002f0: afc9 a4be df54 173d 4cf7 a6be 302b 893e
00000300: eec5 25be 0d73 843e 70f1 60be 9292 85be
00000310: 1042 fa3d d516 453d 0124 55bd 407b 96bd
-0.28549585 -0.0047269207 -0.2707183 0.08601977 -0.08349634 0.007841804 0.15613209 -0.43093437
0.30284128 -0.139741 -0.22068776 -0.099185206 0.21487613 0.19085251 0.0074676615 -0.26022068
0.16157739 -0.2988035 0.013059284 -0.3404612 0.18684039 0.19563122 -0.3533619 -0.15707885
-0.26268727 -0.03813217 -0.22530751 -0.19770023 -0.2325498 0.29283565 -0.37862474 -0.17320289
0.14329499 -0.102555215 -0.1618511 -0.18103859 -0.015911613 0.18754111 0.003933363 0.063611776
-0.22290105 0.07153992 0.05352761 -0.1926865 -0.2055704 -0.068211354 0.17587903 -0.21378401
-0.30745676 0.23749913 0.04034202 -0.19048823 0.20059934 0.15506905 -0.03095941 0.24206138
0.048663095 -0.3018985 -0.017091261 -0.04652555 -0.11564683 -0.13516566 -0.015980624 -0.06717979
-0.16733068 -0.24093072 -0.122553386 -0.030696835 0.061955716 0.32828337 0.31909 0.14525475
0.24415314 0.32544127 0.21410908 -0.34901795 0.33519948 0.08206702 -0.23956004 0.16493054
-0.32850116 -0.35053253 -0.08484602 -0.08571629 -0.021791525 -0.06628358 -0.10642421 0.19273691
-0.14145717 0.14279981 0.14477731 0.024084212 -0.20316973 0.27872303 -0.05339954 -0.46693358
0.15506448 0.0594184 -0.2872801 -0.2535594 0.32613102 -0.19967248 0.10906007 -0.2611011
0.007831475 -0.09271007 -0.009886458 0.19177271 0.04286016 -0.13799404 -0.20265372 -0.34938094
-0.3819022 -0.065145746 -0.14263374 -0.124451146 -0.30602872 -0.07579657 0.21725602 -0.09023328
0.09219124 -0.39588878 -0.18288407 0.2173394 -0.15288998 0.19878651 -0.34057248 0.04973446
0.25217015 -0.08713663 0.2009862 -0.32569018 -0.19775666 -0.04483505 -0.117329046 -0.17672233
-0.26026085 0.028114883 0.1939728 0.21553397 0.10835824 -0.11887441 0.20192285 0.2573191
-0.015371709 -0.06176604 -0.050189953 0.04429279 0.06315706 0.27456847 -0.24012585 0.27605855
-0.13867594 0.11249701 -0.113648996 -0.30052897 -0.12759535 0.28871664 0.18120416 -0.13574183
0.09739499 -0.08776563 -0.0193403 0.05296116 0.2360963 -0.22707693 0.3087583 -0.0460444
-0.1152643 0.16517392 -0.20415317 0.03280686 0.13936087 0.2559234 0.19908127 -0.034818713
0.25023755 0.07868778 0.22863661 0.07856965 0.24461417 0.23494188 -0.19081448 -0.08205749
0.23993154 -0.082865804 0.27761102 -0.25651363 -0.32185122 0.036946174 -0.32610548 0.26790762
-0.16188785 0.25869027 -0.21967101 -0.26088387 0.12219632 0.048117477 -0.05203629 -0.07347727

layers.0.weight f4 [200, 11]
00000000: adec a4bc 8c39 50bd 0f56 953d 39d2 3abe
00000010: c01e d23d c68a 523b 60a0 8b3d f0cc 6dbc
00000020: 8d68 4c3d 98f0 b43e 293c 1d3d 9faa 803d
00000030: 2ef9 b5be a73c 1dbd 866f 423c 749c 623d
00000040: 8f7e 093e 379d 9abe 96b0 ddbd 71a1 933e
00000050: bb74 f5bd 3caa 053e 70ce ef3c 9cd1 bfbc
00000060: 4f8b 0dbd f7c0 1fbe 44d2 b9bd 13fc 17bd
00000070: 1647 1abe 3435 e438 c18a 0fbd 0666 dc3e
00000080: 6f55 a3bd 3a15 833d 04c3 f5bc fb13 2f3d
00000090: 1ec0 4c3e be5d 72be 89c4 13bd 7f31 38be
000000a0: 4787 753e d024 b2bd fdab cfbd 1cf2 8abe
000000b0: a75e 233e 9a93 97be a9d0 5fbe 1db3 efbc
000000c0: f138 523e 4f83 26bd 8398 a3be 398d 8f3e
000000d0: 3567 5b3e 9b6c 25be 35c5 ad3d d2f5 9a3c
000000e0: cdab 363e 10b4 2e3d 4641 95bd c3e6 07be
000000f0: ebf1 6abe 8b5a b93e 4898 43be cfbb 55bd
00000100: b02f 483d f43d 3e3e 7702 973e b21e 88be
00000110: a303 ad3d 5ba4 153d c7b6 453e 10d1 49be
00000120: 79f1 9cbe efdf 643e f49e 09be 55c0 89be
00000130: 289b babc 2166 f7bb 60b6 5e3d fbab 9a3d
00000140: b960 edbd 9cc8 17be ff2b 1cbd aa33 973e
00000150: 55c5 a0bd 9182 153d 504c 753d 5650 d43c
00000160: cba9 eabd 5d22 ed3c 5947 22be 30ae 6cbe
00000170: 470f 973e 8002 c6bd a602 b03d 1037 76be
00000180: aab1 1f3e ed77 05be 550c 1fbe 422a ef3d
00000190: 9244 3abe 4e92 e03d 06c3 33be 3ffc eabd
000001a0: bf05 aa3d 7d9d 083c b7a5 893e bec1 873e
000001b0: 3909 9abe 4e7e ccbd 6e7f 1d3d 5047 223d
000001c0: 94be 793d ffd4 c53d fe35 193d 6fa9 113d
000001d0: 7fc0 b33c b719 8f3d f239 5ebe 3fbf 83be
000001e0: bd35 a33d cbf0 80be a508 8c3e cd4b b23d
000001f0: 9413 12be f670 e8bd 2cfa 3fbe de43 443e
00000200: 0702 593e 6dbb 6ebd bdeb 38be 9707 103e
00000210: 5151 44be 61ba 7f3e 90e2 6d3e c1aa 123e
00000220: 53cb 523e fb85 2e3d 7d9f 343e e811 793e
00000230: 1c05 b0bb 796b 15bd d0dc 613e 5aa9 4a3e
00000240: a690 563e fcd8 e8bd ba48 e5bc 6898 28be
00000250: b3f6 e83c d78a 22be 9ad7 be3c 24ae bfbd
00000260: 75dc 88be f48c 933d 5777 033e d9a2 8b3e
00000270: bb22 063e 2087 e33d b285 833e 1b59 f7bd
00000280: c98a 2d3e a641 40bd 1d0d 6cbd a66b 84be
00000290: a951 833c adfc 90bc cd4d a4bc b3e6 8f3d
000002a0: cfad 2c3b 3030 05be 9826 30bd 96d2 a33e
000002b0: c3ab 40bc 18e5 5e3d 6fcf 5c3e a5b2 9cbd
000002c0: 37af 1abd b17b 2cbe 27fd b33e 6ba4 0a3d
000002d0: 51d8 b53d 9b9d 963d 23d1 b0be df30 0abd
000002e0: 2f77 653e 8ba3 93bd 647b 523d e1bd 83be
000002f0: f33e 9ebd fbce 8e3e cd57 843e 065d 7f3e
00000300: bec7 043e 5d96 26be 19d6 b6bc e3c3 8fbe
00000310: 620e 6abe 1cef 78bd 147e 57be 8e6f 77bd
00000320: 65a5 b8bd 1ef4 3ebd 2578 bbbd 4713 5cbe
00000330: 9a2f 3fbe 0ef5 22be c0cb 833e 77aa 91be
00000340: a87c 05be e2c9 bd3d c800 5cbe da09 f23d
00000350: 8f25 933d f6dd 2b3e 06cd 1b3d 4269 6c3d
00000360: f2f1 28be 5d4d 153e 42b2 a73e ae80 27be
00000370: 6dfe 4abc db4e e83c c159 31bd 88fd 643e
00000380: db59 9cbe e6d1 103e 6230 2c3e 667c 36be
00000390: d36b 7a3e 8203 bbbd 2d44 ccbc c7ea c6bd
000003a0: bade 373e 82a4 89bd 0bdd 8a3d d574 92bd
000003b0: 3fae ca3d ed56 853e 9039 66bc 2d93 3cbd
000003c0: 0749 833e 1f29 41bb b9f3 c93b f780 a8bd
000003d0: 0b7d 563e 09b5 c93d 31e3 06be 8d35 053e
000003e0: 6f7c 1c3c 18d3 023e 4674 883d d54f 603e
000003f0: aab0 4dbd 7a90 57be 14e3 0ebe 8a4c a3bd
-0.020132387 -0.05083613 0.07291805 -0.18244256 0.10259771 0.0032126172 0.068176985 -0.014514193
0.049904395 0.35339808 0.03838745 0.062825434 -0.35541672 -0.03838792 0.01186741 0.055324987
0.13427185 -0.3019807 -0.10824697 0.28834108 -0.11985155 0.1305322 0.029273242 -0.02341538
-0.034556683 -0.15600954 -0.09073308 -0.03710563 -0.1506618 0.00010881797 -0.035044435 0.43046588
-0.079752795 0.06400533 -0.030000217 0.042743664 0.19995162 -0.23668572 -0.036076102 -0.17987631
0.23977385 -0.08698428 -0.10140226 -0.2713784 0.15954076 -0.296048 -0.21856941 -0.029260213
0.20529534 -0.04065257 -0.31952295 0.28037432 0.21426089 -0.16154711 0.0848488 0.018916044
0.17838974 0.04265219 -0.072878405 -0.13271622 -0.22943847 0.3620189 -0.1910106 -0.05218106
0.048873603 0.1857832 0.29494068 -0.2658592 0.08447959 0.036533695 0.19308005 -0.19708657
-0.3065298 0.22351049 -0.13439542 -0.2690455 -0.022779062 -0.0075500165 0.054373145 0.07552334
-0.11590714 -0.1482262 -0.038127895 0.29531604 -0.07850138 0.03650147 0.05988723 0.025917213
-0.11458167 0.02894705 -0.1584753 -0.23113322 0.29503843 -0.096684456 0.08594255 -0.24044442
0.15595117 -0.1303403 -0.15532048 0.11677982 -0.1819022 0.109654054 -0.17554864 -0.114738934
0.08301877 0.008338329 0.26884243 0.26515 -0.3008516 -0.09985028 0.038451605 0.03961879
0.060972765 0.096597664 0.037405007 0.035561975 0.021942375 0.069873266 -0.21701792 -0.25731847
0.07969234 -0.2518371 0.27350345 0.08705864 -0.14265281 -0.113496706 -0.18747777 0.19166514
0.2119218 -0.058284212 -0.18058677 0.14065395 -0.19171645 0.24973442 0.23230958 0.1432295
0.20585375 0.042608242 0.17638965 0.24323237 -0.005371703 -0.036479447 0.2205689 0.19791165
0.20953616 -0.113695115 -0.02798878 -0.16464388 0.028437948 -0.15873276 0.023296166 -0.093593866
-0.26730695 0.07204619 0.12838493 0.2727268 0.13099186 0.111097574 0.2568794 -0.120775424
0.16947474 -0.046937607 -0.057629693 -0.2586338 0.01603015 -0.01769861 -0.02005663 0.07026424
0.0026348715 -0.13006663 -0.043005556 0.31996602 -0.011759701 0.0544177 0.21563505 -0.07651261
-0.037764754 -0.1684406 0.35154077 0.033848207 0.0887915 0.073542796 -0.3453456 -0.033738013
0.22408746 -0.07208928 0.051387206 -0.25730804 -0.0772685 0.2789229 0.25848237 0.2493783
0.1296682 -0.16268297 -0.022318887 -0.28079137 -0.22857049 -0.060774907 -0.21044189 -0.06040912
-0.090159215 -0.046619527 -0.09153775 -0.21491729 -0.18670502 -0.15913793 0.25741386 -0.28450367
-0.13035834 0.09267022 -0.21484673 0.11818285 0.07184898 0.1678389 0.038037322 0.05771757
-0.16498545 0.14580293 0.32753187 -0.16357681 -0.012389761 0.028357914 -0.043298487 0.2236234
-0.30537304 0.1414257 0.16815332 -0.17820892 0.24455194 -0.091315284 -0.024934852 -0.09712749
0.17956057 -0.067208305 0.06780442 -0.0715119 0.09896516 0.26042882 -0.01405181 -0.046038795
0.25641653 -0.0029473973 0.006163087 -0.08227723 0.20946138 0.09848983 -0.13172604 0.13008709
0.009551152 0.12775838 0.066628024 0.21905454 -0.050217308 -0.21051207 -0.13953811 -0.07973583

layers.10.bias f4 [50]
00000000: eb22 2bbe 726d 33be 1522 873d 6d8d 12be
00000010: 98d2 d6bd 5fd2 803d 06f0 903d 1418 453e
00000020: 02f6 8b3d fca9 853d f5c6 903d f45a aa3d
00000030: ad84 8e3d b4e8 d1bd 9b82 853d 2a1f 21be
00000040: f860 bebd 221a 33be 788e 8d3d ae6d c9bd
00000050: 574c 883d dcc5 803d 2b83 d43d 1293 893d
00000060: 40f2 b6bd 22bd 0fbe 181e dcbd cb26 34be
00000070: 6382 10be c45a 8a3d 447e 2d3e a0fb e53d
00000080: ffc9 843d a039 8f3d 983e 0ebe 4f8a 15be
00000090: f152 eabd b807 06be eb15 2dbe f858 b7bd
000000a0: aa12 b7bd d434 903d ea53 743d 8769 8e3d
000000b0: 4950 8e3d e81d e8bd 6a0a 963d fbfa 863d
000000c0: b2dc 3cbe 604b acbd
-0.16712539 -0.17522219 0.065982975 -0.14311762 -0.10489386 0.06290125 0.07077031 0.19247466
0.06834032 0.065265626 0.07069198 0.08318129 0.069589 -0.10249463 0.06519052 -0.15734544
-0.09295839 -0.17490438 0.069119394 -0.09835373 0.06655186 0.06287739 0.10376581 0.067175046
-0.08932924 -0.14036992 -0.107479274 -0.17592923 -0.14112239 0.067555934 0.16942698 0.11229634
0.0648384 0.06993413 -0.13891065 -0.14603542 -0.11441601 -0.13088882 -0.16902892 -0.08952516
-0.08939107 0.07041326 0.05965034 0.069537215 0.06948907 -0.11333829 0.07326205 0.065908395
-0.18443564 -0.08412814

layers.10.running_mean f4 [50]
00000000: 3df0 a53e 3c66 c93e 8cf9 d23e a47f 633e
00000010: 6e3f fc3e bacf 0a3f e453 ed3e 2ebd 3a3f
00000020: 2db2 d33e c8c6 973e 6ccf df3e 6ea7 f73e
00000030: 3f3a f03e 0322 753e 321e 053f f377 9e3e
00000040: 329f 7a3e 5670 a33e 43f8 f13e ca12 903e
00000050: 08b5 fc3e 5650 ea3e 51bb ca3e fa47 013f
00000060: 216f 903e 02c4 e53e ffe1 923e 101b b03e
00000070: 6d7f 883e 94fd d83e d052 153f de39 e33e
00000080: 4561 183f d726 df3e 8aaf 823e 7fcc c93e
00000090: d437 7f3e 2211 5d3e 995b e13e 0def 923e
000000a0: fe5e 4f3e b3e5 073f a7c5 9f3e 825e d53e
000000b0: ad56 eb3e 8d22 893e 01c8 f73e f42e fe3e
000000c0: 26ad fb3e 55aa 833e
0.3240985 0.3933581 0.41206014 0.2221666 0.49267143 0.54223216 0.46353066 0.72944915
0.41346875 0.29643846 0.43712938 0.48369926 0.46919438 0.23938756 0.519992 0.3095089
0.2447479 0.31921643 0.4725972 0.28139335 0.49356866 0.45764416 0.39596036 0.5050045
0.28209785 0.44876105 0.28688046 0.34395647 0.26659718 0.42380965 0.58329487 0.44380087
0.5952342 0.4358432 0.2552455 0.3941383 0.2492364 0.21588567 0.44015196 0.28698006
0.2025108 0.5308487 0.31205484 0.41673666 0.45964566 0.26784173 0.48394778 0.49645197
0.4915554 0.2571589

layers.10.running_var f4 [50]
00000000: c443 2e40 abcb 0440 b2a1 6a3e 1572 fc3f
00000010: cffc db3e 7978 843e eddc 9c3e 1899 4b3f
00000020: 888c 6e3e 6eb1 683e 2904 c13e 58b6 9c3e
00000030: 761b b53e 0f44 0d40 3e78 9d3e dc67 ed3f
00000040: d0e4 0140 6d29 0e40 00cf b43e 5b73 0540
00000050: e508 e33e 148c 863e 1e92 1c3f 10d7 9a3e
00000060: f995 ff3f c637 d43f 17d5 4540 069c 0d40
00000070: 7c35 3740 3f28 843e 23f5 b23e d629 443f
00000080: ff3d 8f3e ac5c bc3e ddd6 0840 5d94 0b40
00000090: 66be 1f40 4b69 f13f bddb e43f 17d3 1f40
000000a0: a026 ce3f b45e 943e 6b95 f23e de87 ab3e
000000b0: 41e5 a83e 5410 fc3f 31f2 b33e 7d35 b73e
000000c0: 018b 683f 3df1 eb3f
2.722886 2.074931 0.22913244 1.9722315 0.42966315 0.25873163 0.30637303 0.7953048
0.23295796 0.22723934 0.37698486 0.30607867 0.35372514 2.207279 0.307558 1.854732
2.0295906 2.2212784 0.35314178 2.0851657 0.44342723 0.26278746 0.6116046 0.30242205
1.9967643 1.6579521 3.091131 2.212648 2.8626394 0.25811955 0.3495265 0.76626337
0.27976987 0.36789453 2.1381142 2.1809304 2.495996 1.8860258 1.7879559 2.497259
1.6105537 0.28978503 0.47379622 0.33502096 0.32987407 1.9692483 0.35145715 0.35782996
0.90837103 1.8432995

layers.10.weight f4 [50]
00000000: ebee 8a3f a654 803f aeb7 733f a182 8d3f
00000010: 485e 6e3f 614e 773f ab10 6f3f 1d25 5e3f
00000020: 6769 763f e68b 753f d7c3 703f 73fa 703f
00000030: f445 753f a150 893f a5ce 713f 6d13 833f
00000040: a65f 7f3f ab81 803f c632 753f 8c0b 813f
00000050: f370 773f 3a84 763f dd42 793f 7942 753f
00000060: 6f0a 833f 6ab6 863f 6642 883f b017 863f
00000070: 3384 903f b73d 723f 5a72 703f df7b 7b3f
00000080: 0d2e 743f 72e9 733f 1157 8f3f 09bb 7d3f
00000090: 91d1 8a3f 4ea5 8f3f e9b1 873f 2775 813f
000000a0: f430 873f 9243 743f 7af7 783f 8c91 733f
000000b0: 98b3 6f3f 71c5 873f cdd5 723f d108 753f
000000c0: 5ba2 6e3f 3dc8 813f
1.0854162 1.0025833 0.9520215 1.105549 0.9311261 0.9660397 0.9338481 0.8677538
0.9625458 0.95916593 0.9404883 0.94132155 0.95809865 1.0727731 0.9445594 1.0240303
0.9975532 1.0039572 0.957806 1.0081649 0.9665672 0.9629551 0.9736765 0.95804554
1.0237559 1.0524418 1.0645263 1.0475979 1.1290344 0.9462542 0.93924487 0.9823589
0.9538277 0.95278084 1.1198446 0.9911352 1.0845205 1.1222322 1.0601169 1.0113877
1.0561814 0.95415604 0.9725262 0.9514396 0.93633413 1.0607129 0.94857484 0.9571658
0.93216485 1.0139233

layers.12.bias f4 [2]
00000000: 1538 693e dcb2 18be
0.227753 -0.1491198

layers.12.weight f4 [2, 50]
00000000: 1cb7 68be 7a47 afbd 07d2 43bc 9a40 43be
00000010: 9113 04be 79e4 873d bfde c13c 6319 813d
00000020: 09ff 063e fcf6 2bbc 9156 bfba b3f8 17bd
00000030: eb34 563d d85a 10be 3076 063c 343c 39be
00000040: 0d3b 29be ce59 f7bd 89a5 693d 65fe e5bd
00000050: 2a07 8dbd 1338 85bd e4b6 a4bc a921 6bbc
00000060: 67a4 18be 1e45 2e3d acc2 6fbd 05c0 08be
00000070: c035 19bd f23e b13d 1bfc 61bc 8d37 8b3d
00000080: f4d9 f43d 584a 66bc 4f74 c7bd 421e eebd
00000090: a85a 8cbd 7ff6 ef3a 0dce 19be 8d1f f3bd
000000a0: b0f1 24be ae21 133d ea81 303d 0b9e cd3d
000000b0: 6a1a 123d beb7 1ebe 4d72 a83d 24d6 56bd
000000c0: 05d2 00be 9ee6 23be 4fcd 4fbc 4a1a d33d
000000d0: 474d 8bbd 13be 033d 3b98 8ebd 7949 033c
000000e0: 2773 90bd 4756 03bd 517a a83d fa76 39bd
000000f0: baeb 05bd 7d6c b5bd b6db 23bc 12be 0c3e
00000100: 8fcf 1abd ee7c 96ba 46a1 c73c 3ba7 cc3d
00000110: 787d 01bc e9b9 0c3e 8118 f3bd b35c d7bd
00000120: 7af5 03be c985 8cbd 63c6 103e 2fd2 343e
00000130: c139 353e da0f b63d 0005 433e 76a9 d53c
00000140: add3 b5bd cad6 e5bc 9607 723d 337e b8bd
00000150: 7bca e33d ce07 883d 7a4c 2c3e 9451 633e
00000160: 1c2d d4bc e0f3 ec3d aa3b 293e 9686 efbc
00000170: c354 9bbc 6dff ec3c fcc3 2cbd deb9 bd3d
00000180: cf3c 5e3c 3714 d4bd 8f14 27bd 5c01 da3d
-0.227261 -0.08558555 -0.01195193 -0.19067612 -0.12898089 0.066353746 0.023665784 0.0630367
0.13183226 -0.010495897 -0.0014597942 -0.037102412 0.05229656 -0.14097154 0.008206889 -0.18089372
-0.16526432 -0.12077676 0.057042632 -0.112301625 -0.06886132 -0.06504836 -0.02010674 -0.014351287
-0.14906465 0.042546384 -0.058535263 -0.133545 -0.037404776 0.08654584 -0.013793017 0.06797705
0.11955634 -0.014055811 -0.09738981 -0.11626865 -0.06853229 0.0018307714 -0.15020008 -0.11871252
-0.16107821 0.03592079 0.043092646 0.1003991 0.03566972 -0.1549978 0.08224926 -0.052450314
-0.12580116 -0.16005942 -0.012683227 0.103077486 -0.06801849 0.03216369 -0.069626294 0.008013123
-0.070532136 -0.032064702 0.08226455 -0.04527948 -0.03269551 -0.08858583 -0.010001114 0.13744381
-0.0377956 -0.0011481324 0.024368893 0.09992834 -0.007903449 0.13742794 -0.11869908 -0.10515728
-0.1288661 -0.06861455 0.14138179 0.17658304 0.17697813 0.08889742 0.19044876 0.026081782
-0.088782646 -0.028056521 0.059089266 -0.090084456 0.111226045 0.066421136 0.16826048 0.22199088
-0.025900416 0.11569953 0.16526666 -0.02923898 -0.018961316 0.02893039 -0.042179093 0.09263967
0.013564303 -0.10355418 -0.04079109 0.106447905

layers.2.bias f4 [200]
00000000: d9ca 10be a370 b73d 3ab4 25be 2476 9c3c
00000010: 95bd 023e c1d5 21be 6d39 ee3d b86d afbd
00000020: c8db aebc fd88 c4bd cb26 f9bd 1bfe b83c
00000030: 954a db3d ccb0 ae3d a286 07be 9b75 f0bd
00000040: 53e2 023e 4bb1 b63d ec24 6f3d ceff 17be
00000050: 91f0 95bc 0427 33be 373e 0abe f362 cf3c
00000060: 80a7 0ebe 50d7 35b8 fc92 10be 26e8 4bbd
00000070: 0a74 2bbd 0d41 043c c1ac 1abe 1d21 c2bd
00000080: d966 85bd bf45 6fbd 65a5 2d3c dcda b53d
00000090: 1ee8 eebd 9f27 ffbc 38c2 d33d 11f1 453d
000000a0: f183 17bb eee9 083a 96c0 a7bd 57d4 febd
000000b0: b121 06be 65e0 f73d 4148 5ebd d29c a2bd
000000c0: 9a7a e7bd 1f14 53bc 7b11 bf3d 76e4 20be
000000d0: 6250 0dbe 3ed7 d83d 8bf2 eabd 0640 f63d
000000e0: fccd 02be c129 0d3d 9252 89bd 70d2 f4bc
000000f0: f0f4 563d d1f1 24be f95f 383d c693 0ebe
00000100: a931 83bd 6335 713c b57d 073b 2699 553d
00000110: 3465 b9bd 674d a63d 213f 1e3c 6501 fabd
00000120: ec45 863d 3950 aebd eb41 2fbd 1e9d e9bd
00000130: 5a10 153d 83f3 71bd f671 f9bd f5e0 3abd
00000140: fb8a fdbd f367 04be b4bc fbbd 9a58 033e
00000150: de32 abbd 41fb 79bc a374 f9bd e277 47bd
00000160: 4af1 09be 04c8 f93d 69e3 c53d b925 c83d
00000170: ac8e 08be 44aa 48bd 1380 c53d b7c4 2ebc
00000180: 3726 0abe a8ce e0bb cdea 1ebe 38cf d4bd
00000190: 03fa babd 5caa 0c3e 432d dabc 9882 9c3c
000001a0: 74db 3bbd c8be 23bd 5774 61bd 49f3 8b3d
000001b0: 5840 09be f005 053e 188d 023c e47f 0cbe
000001c0: 81c5 30be a206 86bd cdf6 ddbd 7e16 1f3d
000001d0: 0c07 29be eeb7 25bd 4725 ea3d 1a6d 9f3d
000001e0: a5c0 12be d2d2 0bbe d67e 2c3d 5dad 8f3d
000001f0: d42e 1abe 5dc0 04be fdc7 43bd bb54 92bd
00000200: 0948 afbd 8a9f 19be d17c 14be 21b8 063d
00000210: 6963 50bd 41f4 a63d 7f0d b23d 03b7 b93c
00000220: 04a7 413d bf39 aa3d 8311 6c3d d5f6 693d
00000230: 7e0c f63d be39 c13d d34c 1f3d 1939 93bd
00000240: bb4b 7abd f0c4 8fbd 95fa b23c d4fc b9bd
00000250: f9a5 d3bc 0d59 18bd 3fc5 2e3c ae9e 06be
00000260: 9356 8dbd 2553 debd fd3d 93bd 8913 843d
00000270: cb52 09be 2975 ba3d 84d7 a3bd 9903 07be
00000280: 0a29 da3d e5ad 0dbe 402d 56bd ff0d 97bd
00000290: dc35 b5bd 14d0 cd3d 3cee 76bc 62c7 0bbe
000002a0: ffb0 1ebe ddb4 cd3c 589c b03d 763b 8cbd
000002b0: 4e1a 2bbe 5eba aebc 6477 113e 5103 a6bd
000002c0: 6008 c23d 9c6e aabd 6b0b aa3d ded4 bebd
000002d0: e7f9 b3bd 1ad8 94bd 72d4 f4bd 22f8 943d
000002e0: 399a 043e 5ba0 f9bd f07e e83d a197 7cbd
000002f0: ea37 2bbe 969e 0bbe 63c1 b2bc bc9e bebd
00000300: 561c debd 68a9 f1bd 31c8 fa3d efba c63d
00000310: 522f 75bd 90b4 20be d69e 1bbd 805a c9bd
-0.1413988 0.089570306 -0.16182032 0.019099303 0.12767632 -0.15804197 0.11632047 -0.08565849
-0.021345034 -0.09596441 -0.12165602 0.022582104 0.10707585 0.08529815 -0.13234952 -0.117411815
0.12781648 0.08920535 0.05838482 -0.14843675 -0.018303188 -0.17495352 -0.13500296 0.025315737
-0.13931084 -4.335429e-05 -0.1411857 -0.04978194 -0.04185871 0.00807215 -0.15104963 -0.09478972
-0.06513757 -0.058416124 0.010598515 0.08879635 -0.116653666 -0.031146822 0.10339779 0.048325602
-0.0023119415 0.00052228465 -0.0819103 -0.12442844 -0.1309879 0.12103347 -0.054268125 -0.07940067
-0.11302681 -0.012883215 0.09329506 -0.15712151 -0.13800195 0.10587929 -0.11472043 0.1202393
-0.1277389 0.034463648 -0.06705202 -0.0298855 0.052479684 -0.1610787 0.0450134 -0.13923559
-0.06405956 0.014722201 0.0020674292 0.052148007 -0.09052506 0.08120232 0.009658606 -0.12207297
0.06556305 -0.08511395 -0.042787474 -0.11406921 0.036392547 -0.05907012 -0.121799394 -0.045624692
-0.12380024 -0.12930278 -0.12291852 0.12826768 -0.083593115 -0.0152576575 -0.1218045 -0.048698314
-0.1347095 0.12196353 0.09662516 0.0977282 -0.13335675 -0.048990503 0.09643569 -0.010667018
-0.1349114 -0.006860573 -0.15519257 -0.10391086 -0.09129717 0.13736862 -0.02663291 0.01910524
-0.045863584 -0.039976865 -0.05504259 0.06833512 -0.13403451 0.12990546 0.00796821 -0.13720661
-0.17262842 -0.06544234 -0.10838089 0.03883981 -0.16506594 -0.040458612 0.11432891 0.07784481
-0.143313 -0.1365464 0.042113148 0.07015488 -0.15056926 -0.12964006 -0.047798146 -0.07145067
-0.085586615 -0.15002266 -0.14500739 0.032890443 -0.050876055 0.081520565 0.086939804 0.022670275
0.04727842 0.083117954 0.057633888 0.057120163 0.120141014 0.094348416 0.038891625 -0.07188625
-0.06110738 -0.07019985 0.021848002 -0.09081426 -0.025835978 -0.0371943 0.010667144 -0.13146469
-0.06901278 -0.10855702 -0.07189558 0.064490385 -0.1341049 0.09104378 -0.08000091 -0.13184966
0.10652359 -0.13835867 -0.052289248 -0.073757164 -0.088481635 0.100494534 -0.015071448 -0.13650277
-0.15497206 0.025110656 0.0862357 -0.06847279 -0.16709253 -0.021329101 0.142057 -0.08106101
0.09474254 -0.08321878 0.08302959 -0.09317945 -0.087878995 -0.072677806 -0.11954583 0.0727389
0.12949456 -0.121887885 0.113523364 -0.061668042 -0.16720548 -0.13634714 -0.02182073 -0.0930762
-0.108452484 -0.1179989 0.12245215 0.097036235 -0.05985958 -0.15693879 -0.037993275 -0.09831715

layers.2.running_mean f4 [200]
00000000: 941d cd3c 68e4 413e 7928 e13d a39c b33e
00000010: 68d7 8f3e 7b03 333e baf2 b13e fa96 c73c
00000020: 2e40 b23e 37b6 ee3d 162b 483d eceb 1a3e
00000030: 2f51 823e 1eba f63e ca78 443e f0d0 823d
00000040: e7ce 2c3e 32ff da3d 9951 933e e35c 403d
00000050: 0998 da3e f550 b53e 0279 a13c e5f9 273e
00000060: c8fc 393d 57f5 323e 7797 aa3d cd82 a93d
00000070: d4a3 2c3e 3000 5e3e ff6d 0d3c 6b18 3e3e
00000080: 2901 893e 1417 913e ac31 573e 5a3b 5b3e
00000090: c420 bd3d 48f5 8b3e 6929 da3e 4bdc fb3e
000000a0: c44d 803e 1987 c33e 5b42 703e 9cac 043e
000000b0: e4d0 e83d 75c6 a83d 3291 9b3e fa4c 3f3e
000000c0: 156c ad3c 329d b23e bda8 f33d f2d2 0b3d
000000d0: 7b24 7a3e a75d d63e 8b65 c33d 21e0 f23e
000000e0: bf81 1e3e 25c5 023e c4b0 1c3e 9924 633e
000000f0: 3ba2 293e 9f25 503e 23ff eb3e 73d0 7a3e
00000100: 717c bc3d 99c9 bd3d 240c af3d d436 7c3e
00000110: c1a2 933e 7f47 8c3e 4643 263f 35a1 083e
00000120: 4e4b 993e 4d46 143f 9b46 ce3e fd69 a93d
00000130: 4beb fb3e 2461 a03e ce44 7f3d ef06 973e
00000140: 526b 0f3e 136a a73d 706c 033e 8856 863e
00000150: bb40 423e de82 323e 95ee 873d 95fc 983e
00000160: 0866 883d a196 1f3e f4bc 063f c9b3 a63e
00000170: 403a 843e e1bd 0e3f 7c2f 383e f204 833c
00000180: fe77 a03e 4aa5 873e a4be 803d f6eb 323e
00000190: 3d04 6b3e 2114 2e3e 6839 1b3e 42b3 733e
000001a0: 494f ec3e 47bc 923d 3c3c d63e 5746 d93e
000001b0: 474b 163e 5c0e 4c3e 485a 0c3e cea3 913d
000001c0: 8b9d b83c 218e 073e 3973 f13d 9ec1 e93d
000001d0: 6c46 253d e0d1 103e 6baa a03e f289 903d
000001e0: 1bcd dd3e 5847 0b3d c8a3 ad3d 6a3e 943e
000001f0: f0c0 a43d cc81 4d3e bf67 283d 5289 4b3e
00000200: 8e00 cc3e 60c3 173e ee48 843e a1ba 5e3e
00000210: 1b9b 163e c092 6f3e 0dd9 6b3e 8f53 4d3d
00000220: b042 163e e44b 463e 72a5 673e 529f 733e
00000230: 012b b83e b02a 1e3e a667 843e 8b1a fe3e
00000240: 0c82 793e 9856 5f3e eb92 ef3d 0f3d 4c3e
00000250: 159f 083e ee86 203f 1eb7 033d 8627 f03e
00000260: 0500 323e 90d7 703e efc3 363e 1700 633d
00000270: 1ad7 453e 08d5 e23e 9a28 7c3e aa0f 383e
00000280: 2f28 9a3e 0b33 ab3e b698 b03e c4c5 883e
00000290: 006b 073f b14b 063e 6ef0 ed3e fa7b 2f3e
000002a0: 6d5a b53d 8043 a43e adf0 7f3e 4515 523e
000002b0: ef6c 873e 916c 9b3e 920e b03e 5b50 2a3e
000002c0: abb5 8e3e 584c 843e 0cbb 213f eeb6 bd3e
000002d0: 18df fb3e c1dc 373f 8f1c 263e fda2 163e
000002e0: 2f89 b83e bc3f 693e 4176 c63e 2811 2a3d
000002f0: 14cb c33d 3e3c 413e 3c3a 233e 147c ab3e
00000300: 411f 0a3e 75e6 b23e ed1a d13c ccec af3d
00000310: 5aec 6b3e e43d 1a3e 97e6 c23e d493 893e
0.025038518 0.18934786 0.10994048 0.35080442 0.2809403 0.17481796 0.34755498 0.024363983
0.3481459 0.116558485 0.048869215 0.1512906 0.25452563 0.4818887 0.19186702 0.06387508
0.16875802 0.10693206 0.28773192 0.046963584 0.4269412 0.35413328 0.019711021 0.16403921
0.045407087 0.17476402 0.08329671 0.082769014 0.1685937 0.21679759 0.008632182 0.18564002
0.26758698 0.2833792 0.21015042 0.2140936 0.09234765 0.27335572 0.42609718 0.49191508
0.2505933 0.3818901 0.23462813 0.1295647 0.11367968 0.08240978 0.30384213 0.18681708
0.021169702 0.34885556 0.11897419 0.03413672 0.24427979 0.41868326 0.09540852 0.47436622
0.15479182 0.12770517 0.15301806 0.2218193 0.16565792 0.20326851 0.4609309 0.2449358
0.09203423 0.09266967 0.085472375 0.2463029 0.2883511 0.27398297 0.649464 0.13342746
0.29940265 0.5791977 0.40288243 0.08272169 0.49202952 0.31324112 0.062321477 0.29497477
0.14005783 0.08174529 0.12834334 0.26237893 0.18970005 0.17432734 0.06637303 0.29880205
0.06660086 0.15584804 0.5263207 0.3255904 0.2582569 0.5575848 0.17986864 0.015993569
0.31341547 0.26493293 0.06286362 0.17472824 0.22950836 0.16999866 0.15158617 0.2379885
0.4615424 0.07164817 0.4184283 0.42436478 0.14677154 0.19927353 0.13706315 0.071113214
0.02253606 0.13237812 0.11789555 0.11413883 0.040350363 0.14142561 0.3138002 0.07057561
0.43320546 0.034003586 0.084785044 0.28953868 0.080446124 0.20069045 0.041114565 0.19876602
0.39844173 0.14820623 0.2583689 0.21750881 0.14707606 0.23395824 0.23032017 0.050128516
0.14673877 0.19364887 0.22621706 0.23791245 0.3597031 0.15445971 0.25860327 0.49629626
0.24366015 0.21810377 0.11697944 0.19945167 0.13341935 0.62705886 0.032157056 0.46905154
0.1738282 0.2351973 0.1784818 0.055420008 0.19320336 0.44303155 0.24624863 0.17974725
0.30108783 0.3343738 0.3449151 0.26713383 0.52897644 0.13114811 0.46472496 0.17137137
0.08855138 0.32082748 0.24994154 0.20515926 0.26450297 0.30356267 0.34386116 0.16632216
0.27872977 0.25839496 0.63176036 0.37053627 0.49193645 0.7182122 0.16221832 0.14710613
0.36042163 0.22778219 0.38762096 0.041520268 0.095602185 0.18870637 0.15940183 0.33493102
0.13488485 0.3494145 0.025525535 0.08590087 0.2303938 0.15062672 0.3806655 0.26870596

layers.2.running_var f4 [200]
00000000: b4d2 8d3c 4b26 9e3d a44a 403d 1571 f73d
00000010: 89d6 1c3e cd6f ca3d 9a0f 4b3e 3781 343c
00000020: 1456 0c3e c817 503d eae9 3f3c b54d 973d
00000030: 8e41 ee3d e143 213e 76a2 a53d 2a1a 193d
00000040: dd55 883d 8a9a 513d 0665 173e db18 d63c
00000050: a896 283e 60cb 163e c3da e13b 644d 993d
00000060: 925f c93c 999e 843d 01b8 2d3d 3904 ad3c
00000070: b536 9f3d d268 943d bb85 6c3b f96c c13d
00000080: 3938 af3d ca71 373e 716e d43d d983 aa3d
00000090: 84f1 453d 84ca 043e d010 473e e150 5e3e
000000a0: 94cd 0b3e 146d 2b3e 042d 163e 3438 4d3d
000000b0: 3e84 633d 3d70 043d f2c4 013e ad39 db3d
000000c0: aba6 2b3c 865d ea3d 7cdd 6c3d 397e 973c
000000d0: a22e f83d c7b4 413e 324c 2e3d 432d 233e
000000e0: 39fe 8c3d 6097 6b3d be84 a13d a818 003e
000000f0: 77a2 823d e992 e83d a737 603e 3bbe c33d
00000100: 0791 103d 9f58 013d 65e5 033d df9f ff3d
00000110: 5a2d 263e add8 ca3d a48e 743e e01c 973d
00000120: 0c36 c83d 4453 113e 5099 293e ab40 303d
00000130: ca34 eb3d 4055 093e b310 143d fe1b 153e
00000140: fb99 7f3d 5d59 293d 0253 1d3d b790 103e
00000150: 1f1b 823d f820 883d 439c fe3c b429 d73d
00000160: 36d8 d73c d76f 6d3d db44 4e3e 02d4 ff3d
00000170: 5b10 083e 1ee0 623e 17e8 9a3d 4eff bb3b
00000180: de3a e83d 616b 053e 9b7f f23c 4d1b d73d
00000190: 8b9a 853d e8f7 993d 4dfc cb3d e752 e73d
000001a0: 31c5 643e 1767 f83c baa5 2a3e a9fc 583e
000001b0: a91b 8c3d a761 c33d e105 ab3d 08f3 483d
000001c0: 156f 7e3c b5c6 533d b262 373d da75 323d
000001d0: 91d0 813c 71a0 8f3d ab02 d23d e177 d33c
000001e0: 3606 773e 403e 3f3c 9c04 043d 04ab f63d
000001f0: 41b2 ef3c 5c48 d13d e157 813c d98a be3d
00000200: 5548 0b3e eaa2 753d 5f86 153e 0898 e43d
00000210: f15e 593d f243 043e 3dae ce3d c4b9 c53c
00000220: 484f 973d 836b 583d 7a98 b53d 8805 e93d
00000230: bc48 223e 1b84 933d e4da bd3d 52e3 693e
00000240: 46b7 ee3d 1f0b 0c3e 48bf 393d 1692 a93d
00000250: eae4 683d 04f0 863e edcf 1e3c 885b 5f3e
00000260: 6e82 a03d 7616 f33d dd27 a53d bafe 673c
00000270: cc86 fc3d 6dc3 3c3e 8940 c33d 54a0 b63d
00000280: 1f6c 183e 801b 533e 1470 433e 3862 e13d
00000290: e39b 843e 8cfd 763d eef4 4d3e 44d1 803d
000002a0: aa91 283d 3275 3f3e 584c e53d b469 cf3d
000002b0: 3f19 043e 3ebb 223e 8073 9a3d 77e8 683d
000002c0: 57e4 e23d 064a 233e 3bc3 a63e 924f fa3d
000002d0: 4a25 633e 60cc 983e 2094 553d f7fc 823d
000002e0: 857c d13d 43fd e83d 54d6 503e 946e 5c3c
000002f0: b63b 643d 9ca6 9b3d d2f2 7d3d b007 e73d
00000300: f1fe 993d 7b08 8c3d 6d42 e63b c853 183d
00000310: d8b2 ee3d ca79 7e3d 54d2 5c3e 9255 ea3d
0.017312385 0.077221476 0.046946183 0.120821156 0.15316214 0.098846056 0.1983017 0.011017135
0.13704711 0.05080393 0.011713484 0.07387868 0.11633597 0.1574855 0.080876276 0.037378468
0.06657002 0.05117277 0.14784631 0.026134899 0.16463721 0.14726019 0.0068925335 0.07485464
0.024581704 0.064755626 0.042411808 0.021120178 0.077741064 0.072465554 0.0036090452 0.09444613
0.085556455 0.17914501 0.103726275 0.08325929 0.04832603 0.12967879 0.19440007 0.2171054
0.1365264 0.16740829 0.1466561 0.050102428 0.055546038 0.0323336 0.12672785 0.1070436
0.010476748 0.114436194 0.05782841 0.018492805 0.121182695 0.18916617 0.042553134 0.15935235
0.068844266 0.05751741 0.07886647 0.12509406 0.06378644 0.11356146 0.2189623 0.09557768
0.03529456 0.031578656 0.03220119 0.12481665 0.16228238 0.09904609 0.23882538 0.07378554
0.097759336 0.1419192 0.1656239 0.043030422 0.11484678 0.13411427 0.036148738 0.1456146
0.062402707 0.04134499 0.03840924 0.14117704 0.06352829 0.06646913 0.03108037 0.10506001
0.026348215 0.057967987 0.20143454 0.12491609 0.13287489 0.22155806 0.07563799 0.005737222
0.11339353 0.13029243 0.029601863 0.10503254 0.06523617 0.075179875 0.09960232 0.11295109
0.22340848 0.030322595 0.16664782 0.21190132 0.06841213 0.0954011 0.08350731 0.049059898
0.015529414 0.051703174 0.044771858 0.043569423 0.015846523 0.07013024 0.10254415 0.025813999
0.24123463 0.011672556 0.03223096 0.120443374 0.029259803 0.102188796 0.015788974 0.09303827
0.13601811 0.05996982 0.1460204 0.1116181 0.05306906 0.12916544 0.10091827 0.024136432
0.073881686 0.052836906 0.08866973 0.11378008 0.15848058 0.072029315 0.09270266 0.22840622
0.116560504 0.13676117 0.045348436 0.08279817 0.056858934 0.26354992 0.009693128 0.2181226
0.078373775 0.118695185 0.08064244 0.014159853 0.12330398 0.18433924 0.095337935 0.08917299
0.14884995 0.20615959 0.19085723 0.11005062 0.25900182 0.060300395 0.20112965 0.06289914
0.04115454 0.1869705 0.11196202 0.10127583 0.12900256 0.1589174 0.07541561 0.05686232
0.110787086 0.15946206 0.32570824 0.12222208 0.22182193 0.29843426 0.052143216 0.063959055
0.10228828 0.11376431 0.2039426 0.013454098 0.055721007 0.076001376 0.06199915 0.11280763
0.07519329 0.06837555 0.0070269615 0.037189275 0.116552055 0.062127866 0.21564609 0.114421025

layers.2.weight f4 [200]
00000000: 20ac 8d3f 8c0b 7e3f 2b3e 8c3f 9acf 753f
00000010: 0240 763f 327b 7c3f 3252 733f ce01 893f
00000020: a97a 753f 2c65 763f f22f 813f ff08 7a3f
00000030: 96b2 783f 9181 753f 5976 7c3f 3beb 8f3f
00000040: cfde 8a3f 0b0d 783f 9339 7c3f 6e5b 7f3f
00000050: beed 7e3f 2ca6 843f 54ca 833f 10c6 743f
00000060: 21ea 8b3f 8a38 7e3f 9fb8 853f ecb9 743f
00000070: aece 7f3f 9407 793f 0c8c 963f 5dbd 813f
00000080: 6e0c 7e3f 0ee1 7b3f 65f0 7e3f 6edc 753f
00000090: bc47 7a3f 923f 783f a0a1 763f 0072 7b3f
000000a0: c04b 813f 4087 753f 6b78 7b3f 647c 7a3f
000000b0: 3083 7e3f 4681 7b3f 0547 7b3f 0391 7d3f
000000c0: 3fda 873f cfa2 763f 1c26 813f 9bc0 893f
000000d0: 81f6 763f 638b 7f3f 835f 813f d600 803f
000000e0: 871f 7b3f fe72 7b3f 02e7 743f 214f 783f
000000f0: 2ab3 753f 4f9a 803f aed3 7a3f 86d7 7d3f
00000100: 3561 743f 978f 803f 018a 7b3f f005 7f3f
00000110: c29c 7c3f ded3 863f dc60 713f d725 803f
00000120: 14e4 803f fb37 723f 43d3 7a3f 0ea7 7c3f
00000130: 8134 813f 9dae 7d3f 8e51 833f f980 793f
00000140: 3f70 7e3f fe60 733f e8d9 823f 497f 823f
00000150: ba27 733f 0bfb 833f bdef 793f 2771 7e3f
00000160: da7c 7d3f 0ef9 803f 96f7 793f 9bff 7c3f
00000170: 874d 833f 2091 733f 2708 813f cf0d 923f
00000180: a736 7a3f 87aa 793f f6a3 753f 969e 723f
00000190: fcc0 7b3f 1a7d 733f 09d9 7f3f 5293 7d3f
000001a0: 26b5 7c3f 0b59 7e3f 5b25 753f 5e75 773f
000001b0: 9942 7b3f b8a9 793f 3694 803f d21b 7e3f
000001c0: f82c 8d3f 747e 723f b134 7b3f 4b38 783f
000001d0: 76c1 813f 3d55 7b3f 0383 7e3f 11f5 7f3f
000001e0: 8f58 7b3f ff7f 823f 5013 723f 8ee3 7c3f
000001f0: dca4 813f 6876 7b3f 8b32 793f 850c 793f
00000200: 3530 793f 1f5f 783f 8b72 7c3f 6288 7c3f
00000210: 5501 803f 943b 7a3f a5dd 813f e706 823f
00000220: c9a5 6f3f 0f48 7f3f 4821 783f 28f2 803f
00000230: 742f 793f 2094 783f e6c5 6e3f 51b8 7b3f
00000240: ee51 7c3f f64c 863f f5b0 6f3f 4fc5 7e3f
00000250: 8dae 773f 1e7f 7f3f 5ba5 803f c6e9 783f
00000260: 9ff8 833f 5625 7d3f b60f 753f 444a 7e3f
00000270: a48c 793f d684 773f 380f 7c3f d146 7d3f
00000280: 6680 7d3f 8847 793f ccbd 7d3f 08cd 7b3f
00000290: 2fe5 7a3f 53a0 733f 4eb9 793f 3f79 773f
000002a0: edfc 823f 83a5 7c3f 579b 753f 8bb2 783f
000002b0: 9068 843f cd17 743f a145 843f 4caf 823f
000002c0: 214b 813f 7591 843f 9dba 753f 7025 7c3f
000002d0: 6d04 7b3f 5b55 783f 516a 7d3f 72a2 783f
000002e0: caa8 843f 217d 7f3f 7adb 753f 57c7 7b3f
000002f0: 0b57 823f 4dda 7f3f 14eb 7b3f c748 7d3f
00000300: 2003 7b3f ee73 7f3f b54e 783f aa7a 803f
00000310: ab2a 713f 20f0 833f 3992 7f3f 1fe6 7b3f
1.1068153 0.9923637 1.0956472 0.960199 0.9619142 0.9862548 0.95047295 1.0703676
0.9589029 0.96248126 1.0092757 0.97669977 0.971475 0.9590083 0.98618084 1.1243662
1.0849246 0.968949 0.9852535 0.99748886 0.99581516 1.0363212 1.0296121 0.9561472
1.0930825 0.9930502 1.0446967 0.95596194 0.99924743 0.9727719 1.1761489 1.0135914
0.99237716 0.9839028 0.9958556 0.96039474 0.9776571 0.96972 0.9634037 0.98220825
1.0101242 0.959095 0.9823062 0.97846055 0.99418926 0.9824413 0.9815524 0.99049395
1.0613478 0.96342176 1.0089755 1.0761904 0.96469885 0.9982206 1.0107273 1.0000255
0.9809498 0.9822234 0.9566499 0.9699574 0.9597651 1.0047091 0.9797925 0.9915699
0.95460826 1.004382 0.9825745 0.99618435 0.98676693 1.0533407 0.9428842 1.0011548
1.0069604 0.9461667 0.9797861 0.98692405 1.0094148 0.99094564 1.0259264 0.9746242
0.99390024 0.95069873 1.022275 1.0195094 0.9498249 1.0310987 0.97631437 0.99391407
0.99018633 1.0076005 0.9764341 0.98827523 1.0258034 0.9514332 1.0080613 1.1410464
0.9773964 0.9752583 0.9595331 0.9477323 0.98341346 0.95112765 0.99940544 0.9905292
0.9871391 0.9935462 0.95760125 0.96663463 0.98148495 0.97524595 1.004523 0.992612
1.1029348 0.947242 0.98127276 0.96960896 1.0137165 0.9817694 0.9941866 0.99983317
0.98182005 1.0195311 0.9456072 0.9878472 1.0128436 0.9822755 0.9734275 0.9728473
0.97339183 0.97020143 0.9861228 0.98645604 1.0000407 0.9774716 1.0145766 1.0158356
0.93612343 0.9971933 0.96925783 1.00739 0.9733803 0.9710102 0.9327072 0.9832812
0.98562515 1.0492237 0.9362939 0.9951982 0.9675072 0.9980334 1.0050462 0.9723171
1.0310248 0.98885095 0.957271 0.9933207 0.97480226 0.96687067 0.9846072 0.9893618
0.99024045 0.97374773 0.9911773 0.9835973 0.98005956 0.9516651 0.9754838 0.9666938
1.0233437 0.9869005 0.95940155 0.97147435 1.034441 0.9534882 1.0333749 1.0209746
1.0101053 1.035689 0.95987874 0.98494625 0.9805363 0.9700524 0.9899035 0.9712287
1.036401 0.99800307 0.9603802 0.98351043 1.0182813 0.99942476 0.98405576 0.98939174
0.98051643 0.9978627 0.969951 1.0037434 0.9420573 1.0307655 0.99832493 0.9839801

layers.4.bias f4 [100]
00000000: 0d21 ed3b 598b 173d 9046 2e3d 1aa9 0a3d
00000010: 755e 27bb 532b 993c 1fed 54bd 4eb6 44bd
00000020: d4c3 ea3c 0c39 2fbd 3fe4 03be 0e7f 0a3b
00000030: 96f7 08be 094e e0bc 0176 12bc e4ac 34bd
00000040: 9c3a e1bc 443d 32bd e0cf fabb 7dfb eebd
00000050: 5822 0b3d 537a 5dbd fc14 07be a3d5 eabd
00000060: 59ad 6fbe fc46 183d 1013 65bd 03a0 6abd
00000070: c36f bf3d 3a94 cdbd f65f f6bd fb8c 2b3d
00000080: db72 1bbe a5c2 c63d e087 8cbc 1ac5 9bbc
00000090: 0709 473d d308 7b3d 7707 ccbc 74d0 e9bd
000000a0: 4681 88bb 30b9 3fbd 9fde aabd 552e a4bd
000000b0: 77e1 33be 73f3 a2bd 3f1b 9d3c ebd0 fd3c
000000c0: 1905 903d 2d2b 553d ee64 32bb fcfc d23d
000000d0: b60c 28bc a62a 45bd d14c 9bbb 51e0 dbbd
000000e0: 9664 3fbe 0fb0 00bc c99a 963d 6beb 42bd
000000f0: 81f0 cfbc ff20 3c3c d419 a53d 03c4 a2ba
00000100: 1090 8d3d bdce 10be c325 e5bc d557 2fbe
00000110: 67e5 ba3b 5e0a 24bd 829b d23b a1c7 0cbd
00000120: 537a 363d 6611 b1ba cc7f f83d ff9f bd3d
00000130: 72fa 82bc a594 c6bd 3c52 e1bd 4f6f d0bd
00000140: 2b46 573d bb16 a2bc 8681 05be fa83 42bd
00000150: 5adf d7bd 8b12 283d f425 edbd 358d c93d
00000160: b110 9ebd e7d3 2e3d 6723 7fbd 6579 6ebd
00000170: 0178 883c 93c1 24bd bb80 13bd 73cb 6c3d
00000180: 39ce 183d d287 503c e219 80bd 5291 6bbd
0.007236606 0.036998127 0.042547762 0.033852674 -0.0025538479 0.018697416 -0.05198395 -0.04802542
0.028657831 -0.042779014 -0.12880038 0.002113286 -0.13375697 -0.02738096 -0.008939267 -0.044110194
-0.027493767 -0.04351546 -0.007654175 -0.11669061 0.0339683 -0.054071736 -0.13191599 -0.11466529
-0.2340597 0.03717707 -0.055926383 -0.057281505 0.09347489 -0.100380376 -0.12030022 0.041882496
-0.15180533 0.09705094 -0.017154634 -0.019014884 0.048592594 0.061287712 -0.024905903 -0.114167124
-0.004165801 -0.046807468 -0.08343243 -0.0801665 -0.17566477 -0.079565905 0.019178031 0.030983409
0.07032222 0.05204313 -0.0027220803 0.10302159 -0.010256937 -0.048136376 -0.004739382 -0.10736144
-0.18690714 -0.007854476 0.07353742 -0.047587793 -0.025383236 0.011482476 0.08061567 -0.0012418035
0.06912243 -0.14141364 -0.027972108 -0.17123349 0.0057036164 -0.04004895 0.0064272294 -0.03437007
0.04455025 -0.0013509213 0.1213375 0.092590325 -0.015988562 -0.096963204 -0.11002013 -0.101774804
0.05255715 -0.01978623 -0.1303769 -0.047489144 -0.10540648 0.04103331 -0.115795046 0.09841386
-0.077180274 0.042682555 -0.06228962 -0.05822124 0.016658785 -0.04022367 -0.03601144 0.05781121
0.037306044 0.012727695 -0.06254937 -0.057511635

layers.4.weight f4 [100, 200]
00000000: b97a 42bd a1f6 753d bfe5 9cbd c0ea 86bb
00000010: 0942 20bb 2584 8bbc be9b b3bd 508d e43c
00000020: 06c0 823c b686 11bd da34 85bd 0322 c5bc
00000030: edab 9abc e7ec 3abd eb21 2f3b 200d 41bb
00000040: 1e9f 34bd 7896 c33c 33d5 bfbd b759 9abc
00000050: c4ec b73c d005 22bc feb4 1d3d f9f7 f7bc
00000060: b727 d73c cb4a 833d c665 20bd 6204 5c3d
00000070: 342a 983c a8cf 66bb def0 10bc ac83 fe3c
00000080: 7ff8 2c3d 04fd 2abd 2f4f 0e3d 65b9 b83c
00000090: 5816 1dbc 0c7d 103d a94d 50bd a8c0 f9bc
000000a0: d45e 58bc 46b1 69bd 7347 a2bd 4809 24bc
000000b0: de27 9e3d 5f88 8a3c 2762 afbc 7323 e63c
000000c0: e910 453c e153 efbc 138c e93c 97ac 8abd
000000d0: efc2 97bc 568c f4bc ac04 5b3d fff1 e6bc
000000e0: 861c 8bbc 33a8 4c3d c116 a7bd 4d87 723a
000000f0: 55fc c9bc e87b 443b 4371 ff3c dcd8 5abc
00000100: 8ee8 9a3d def9 06bd 8d75 223d a0cf 033c
00000110: d3e3 863c abd0 14bd b330 383d 71ce 34bd
00000120: 5a35 f53c 8eaa 3dbc 8f01 e0bb 1b87 a4bc
00000130: 4360 eabc 7a1b cabc 04df 10bd 65af 013d
00000140: 74f4 81bd ebb1 423c dfe6 2cbd 6e47 6c3d
00000150: 97bd ff3c 6a65 f2bc 8039 acbd cf32 523c
00000160: e602 bd3c bb71 83bd 870c 4e3d a443 12bd
00000170: aa63 c0bb b120 243d e7a4 47bd 9ebb af3c
00000180: 56f2 203d 238f 6c3d 69ca 97bd 207e 9d3d
00000190: 2501 a6bd 741a 503c 5d6a 81bd 8448 01bd
000001a0: 4cbf aebd fe1b e03c 76e0 69bd bd4c 4e3b
000001b0: fdac a5bd 5124 64bb a57e 6abd 41b0 afbc
000001c0: fc66 f1bb 93b7 70bd 508c 1ebd afc5 abbb
000001d0: 49f5 8fbc b5b5 87bc f71d 9f3d 09cc 49bc
000001e0: ff21 0abd ba8b 86bd 7cfa a83c 1e75 85bb
000001f0: c6ef d43b 0fb0 853d a620 7cbd c17e f3bc
00000200: 9c10 bebc 1b17 db3a f539 b3bc de6f 2fbd
00000210: c75b 33bd 9e59 cbbc 5ca3 3d3d 5fc8 f7bc
00000220: 6e0a 823d ba73 fabb 6cd5 30bd c60c 2d3c
00000230: f2d8 813d fae5 273c 2f0a 90bc 783f 3b3c
00000240: 9268 85bd 1e50 973d 1c39 d2bc d918 53bd
00000250: 1091 1d3d 01d5 47bd f648 65bd b254 dd3c
00000260: a028 85bc a051 013c c1a0 083d 2de0 c9bb
00000270: cde1 67bd 2a60 20bd c462 fdbc 4f57 debb
00000280: 67a9 423d 64d2 70bc 6bc5 50bd fbbc a93d
00000290: 6688 20bd 2469 a4bc 6bc8 49bc b2cb ba3c
000002a0: 835b debc ab37 813c 38cb 2b3d 49cd 23bc
000002b0: 3b6f 523d 8ae9 79bd f18d 48bd a8e3 ddbc
000002c0: ec24 403d 37c3 0fbd 3548 63bc 2d67 a7bd
000002d0: 6820 5dbc a6c9 b339 2730 5f3d d95d 133d
000002e0: 7804 a1bd 41a5 dbba 8aa6 263d befa 6abc
000002f0: d363 18bd 7d2f 96bc 5d36 c0bc 7dbb 213d
00000300: 0704 26bd 3758 da3c 8435 d4bc 0e16 85bc
00000310: af72 813d a69c e03c eef6 a2bd d805 06bd
00000320: 1254 213d 06a3 83bd 2d4a 23bd 2821 4d3c
00000330: a5b7 943b 95b5 4d3d f523 40bb 6d06 98bd
00000340: 4c6d 93bd de35 113c ceed d13c 0290 e6bb
00000350: bb56 033d d451 203d 9e21 8d3d 47b9 f1bd
00000360: e098 0c3d 53ae ac3c 840e 333c 9332 d43a
00000370: 035a 9c3b 133f 79bd 04dc 583d 6a5a 483c
00000380: fd6b cdbd 00f2 01bc 92d8 c9bc 955e 173d
00000390: dd98 143c 7766 dd3b e4a6 a93c a0cc 453d
000003a0: 4388 053d 328a 323d c3de 9bbd 3bab 653d
000003b0: 1941 343d 1b28 06bd 3320 ff3c cb0d 12bd
000003c0: dee8 22bd 11d9 3b3d 8fdc 4ebc 9d37 743c
000003d0: 7070 89bd 2b26 6c3d e8b1 423c 557c 2fbd
000003e0: 2ae6 063d 1fe4 a1bc c1e5 8f3b 11a8 62bd
000003f0: eb9c 41bc d7ba 0a3d 4f62 84bd d397 3c3d
-0.04748032 0.060049657 -0.07661008 -0.00411734 -0.0024453423 -0.017030785 -0.0876994 0.027899414
0.015960705 -0.03552886 -0.06504221 -0.02406407 -0.018880809 -0.045636084 0.0026723098 -0.0029457286
-0.04409706 0.02387546 -0.093668364 -0.018841607 0.022451766 -0.009889081 0.038502686 -0.03026961
0.026264055 0.0641075 -0.03915956 0.053715117 0.018574812 -0.0035218988 -0.00884649 0.031068645
0.04222917 -0.0417452 0.034743484 0.02254934 -0.009587847 0.035275504 -0.050855312 -0.030487373
-0.013206203 -0.057053827 -0.07923784 -0.010011978 0.07722448 0.01691073 -0.021409107 0.028093075
0.0120279575 -0.029214801 0.028509175 -0.067712 -0.018525569 -0.029852074 0.053471252 -0.028191565
-0.016981374 0.049965095 -0.08158637 0.0009251729 -0.024656454 0.002998108 0.031181937 -0.013357367
0.075638875 -0.032953136 0.039662886 0.008045107 0.016466057 -0.036331814 0.04496832 -0.04414219
0.029932667 -0.011576308 -0.0068361233 -0.020083955 -0.028610354 -0.024671305 -0.035368934 0.03166141
-0.06345454 0.011883239 -0.042212363 0.05768531 0.031218333 -0.029589374 -0.08409405 0.0128294965
0.023072671 -0.06418177 0.050304916 -0.03570904 -0.005871256 0.04007024 -0.048741248 0.021451768
0.03929361 0.057753693 -0.074116535 0.07690072 -0.08105687 0.012701619 -0.06319115 -0.031563297
-0.08532581 0.027357098 -0.05709883 0.0031478845 -0.080896355 -0.0034811685 -0.057249684 -0.02144635
-0.007367013 -0.05876882 -0.03870803 -0.0052420716 -0.017573016 -0.016566137 0.07769387 -0.012316712
-0.033723827 -0.065696195 0.020627253 -0.0040727993 0.00649831 0.06527721 -0.061554573 -0.029723527
-0.02320128 0.001671526 -0.021878222 -0.042831294 -0.043788698 -0.024823006 0.04629837 -0.030246912
0.063496456 -0.00764319 -0.043172285 0.010562127 0.06340207 0.010247702 -0.01758298 0.011428706
-0.06514086 0.07388328 -0.025661997 -0.05153737 0.03846842 -0.04878712 -0.055977784 0.027017925
-0.016254723 0.007892996 0.033356432 -0.006160757 -0.056611825 -0.03915421 -0.030930884 -0.0067853103
0.047524836 -0.0146985985 -0.050969522 0.08287998 -0.03919258 -0.020069666 -0.01231585 0.022802208
-0.027143246 0.015773615 0.04194185 -0.009997674 0.05137561 -0.061013736 -0.04896349 -0.027086094
0.04691021 -0.03509828 -0.013872196 -0.08173976 -0.013496496 0.0003429178 0.05448928 0.035978172
-0.078621805 -0.0016757624 0.040686168 -0.014342008 -0.037204575 -0.018333191 -0.023463422 0.039485443
-0.040531185 0.026653392 -0.025904424 -0.016245868 0.06320702 0.027418446 -0.07957254 -0.032720417
0.039386816 -0.06427579 -0.03986566 0.012520112 0.0045384937 0.050222 -0.0029318307 -0.074231006
-0.07198581 0.008862941 0.02562609 -0.00703621 0.032065134 0.039140537 0.068911776 -0.11802917
0.03432548 0.021079218 0.010928754 0.0016189389 0.0047714724 -0.060851168 0.0529442 0.012228588
-0.10030363 -0.007931232 -0.024639402 0.036955435 0.009069649 0.0067565995 0.020709462 0.04829085
0.032600652 0.043588825 -0.07610848 0.0560715 0.044007394 -0.03275309 0.031143283 -0.035657685
-0.03977286 0.045861308 -0.012625827 0.014905837 -0.06710899 0.057653587 0.0118832365 -0.04284318
0.032934345 -0.019762097 0.0043914025 -0.055336062 -0.011817197 0.03386959 -0.064640634 0.04604323

layers.6.bias f4 [100]
00000000: 41c5 97bd 1dd1 07be 04d4 7fbc fd1e cabd
00000010: fcf0 5abd f80c 02be f041 22be 9896 adbd
00000020: fcab 0ebc 7de5 293d 3ece 00be a781 72bd
00000030: 4eda 0dbe 12c3 43bd 2973 21bd 2cd1 f3bd
00000040: 91ad b53d 880b e0bd 347b 76bc da2e 0abe
00000050: 576a b23d d80f ddbd a915 11be fc12 04be
00000060: 2348 02be 047b cebd 5170 e23d 3697 a43d
00000070: 4786 d23d 06ff 00be 3394 f7bd 153f 0ebc
00000080: a577 13be 070a 99bd eda4 ccbd b8c3 11be
00000090: 4d35 693d a4a5 84bd 17b7 c7bc 82fd e6bd
000000a0: e79f 07bd 4dcb e7bd 6c68 03be 1459 bdbd
000000b0: c82a f4bd 9eec b1bd 22a1 edbd c73e 9e3d
000000c0: ec28 bdbc 24f8 223e b51b 243e cb45 e03d
000000d0: 19b5 18be f69a 06be ef46 b8bd d709 f7bd
000000e0: 018d 9f3d d1dc b3bd b245 81bd 5639 963d
000000f0: fc43 013d 277c 3abd 6ef0 a43d 5320 efbd
00000100: 8251 4a3b 26d5 11be e1ab 883d c6b5 0fbe
00000110: b978 a83d e148 a43c 6086 ecbd 14bb f9bc
00000120: e75c 783a 02e4 f8ba cef9 cf3c 97d2 a7bd
00000130: 000a 013e 58ab 13be b85a 91bd e9b4 f83d
00000140: 64d4 c73d cd72 663d 6cfb debd 6631 e3bd
00000150: c036 e8bd eca7 41b9 d972 1cbe 39c0 d93d
00000160: 3273 efbd 5c03 08be 7b65 07be 7848 14be
00000170: aecf 4c3d 6da5 16be af93 12be 18e0 91bc
00000180: a1ab f5bd f7db c03d 767d c7bd c3ad 0cbe
-0.0741067 -0.13263364 -0.015614513 -0.09869192 -0.053452477 -0.1270026 -0.15845466 -0.08475989
-0.008707996 0.041478623 -0.12578675 -0.059205677 -0.13852808 -0.047793455 -0.039416466 -0.11905131
0.08870996 -0.109396994 -0.015044022 -0.13494435 0.08711689 -0.107940376 -0.14168419 -0.12897867
-0.1272283 -0.10082057 0.11056579 0.08036654 0.102795176 -0.12597284 -0.12088814 -0.008682032
-0.1440111 -0.07472616 -0.099923946 -0.14234817 0.056935597 -0.06476906 -0.024379296 -0.112788215
-0.03311148 -0.113180734 -0.12832803 -0.09245506 -0.119222224 -0.08687709 -0.11602999 0.077268176
-0.023090802 0.1591497 0.16026194 0.10950812 -0.14912833 -0.1314505 -0.089979045 -0.12062424
0.07790566 -0.08782352 -0.063121215 0.07335155 0.031558976 -0.045528557 0.08053671 -0.11676087
0.0030871336 -0.14241466 0.06673408 -0.14034185 0.08226151 0.020054283 -0.115490675 -0.030484714
0.0009474293 -0.001898885 0.02538767 -0.08194464 0.12601471 -0.14420831 -0.07097381 0.12143881
0.09757307 0.056261826 -0.10887799 -0.110934064 -0.11338568 -0.0001846847 -0.15278186 0.10632367
-0.11691894 -0.13282531 -0.13222305 -0.1448077 0.050002746 -0.14711542 -0.1431415 -0.017807052
-0.11995626 0.09416955 -0.09740727 -0.1373816
