tests/test_models/churn_test.onnx (onnx, 117417 bytes, 20 tensors)

layers.0.bias f4 [200]
0	0x3e621ae6	0.22080573
1	0x3e816410	0.25271654
2	0xbe0682a4	-0.13135773
3	0x3d9554b4	0.072915465
4	0x3d744e98	0.059645265
5	0xbe099a29	-0.13437714
6	0xbdcc58b0	-0.09977853
7	0x3e8f1560	0.27945995
8	0x3df182ac	0.11792502
9	0xbde2022e	-0.11035572
10	0xbc4a754b	-0.012357066
11	0xbd728186	-0.059205554
12	0xbe0e7f54	-0.1391576
13	0x3d8c1d58	0.068415344
14	0xbd15493f	-0.036446806
15	0x3e0ab509	0.13545622
16	0xbe523058	-0.20526254
17	0x3db4edcc	0.08834419
18	0xbe590e07	-0.21196757
19	0xbd2cc2ed	-0.042178083
20	0xbe311ae6	-0.17295417
21	0x3dde8fa9	0.10867245
22	0x3e035fd2	0.12829521
23	0x3e6e457a	0.2326869
24	0xbe9979b6	-0.2997567
25	0x3c4d5cd3	0.012534338
26	0xbd84d074	-0.06485072
27	0xbdaaced0	-0.083402276
28	0x3d6b25d6	0.05740913
29	0x3e3c689b	0.18399279
30	0xbe12b239	-0.14325799
31	0x3d81b860	0.06333995
32	0x3cdcc525	0.026949475
33	0xbe05ded9	-0.13073291
34	0xbe426ea5	-0.1898752
35	0xbda0648e	-0.07831679
36	0xbe1516b3	-0.1455944
37	0xbe799d38	-0.2437638
38	0xbe9da4dd	-0.30789843
39	0xbe25fed5	-0.16210492
40	0xbd746935	-0.059670646
41	0xbe4763a2	-0.194716
42	0xbdf59c84	-0.119927436
43	0xbde64d79	-0.112452455
44	0x3e9f3b40	0.31099892
45	0xbd8135b0	-0.06309068
46	0x3e7e0f62	0.24810556
47	0x3dc131f6	0.094333574
48	0x3e37b694	0.17940742
49	0x3e1ce1b4	0.15320474
50	0xbe582579	-0.21108045
51	0x3ddad7ca	0.1068569
52	0xbe91482f	-0.28375384
53	0x3d3b7dce	0.045774274
54	0xbdf52d32	-0.11971511
55	0xbd31371a	-0.04326544
56	0xbe01bfad	-0.12670775
57	0xbe9d1331	-0.30678704
58	0xbda1d208	-0.079013884
59	0xbe5c3f33	-0.21508484
60	0xbe07dc2f	-0.13267587
61	0x3e3204d3	0.17384653
62	0x3d93c9cb	0.07216223
63	0x3e0de439	0.13856591
64	0xbe735bbd	-0.23765464
65	0xbe25cb59	-0.16190852
66	0x3ea350c9	0.31897572
67	0xbbe105c8	-0.0068671443
68	0xbdc4839c	-0.09595415
69	0xbdcd8214	-0.10034576
70	0x3de2ffed	0.1108397
71	0x3c0c19e0	0.008551091
72	0x3ea18261	0.31544784
73	0x3ceb4831	0.028720947
74	0x3d98a0fe	0.07452582
75	0x3b446114	0.002996509
76	0xbdb4d540	-0.08829737
77	0x3e219651	0.15779997
78	0x3cbb6078	0.022873148
79	0xbd0f4961	-0.03498209
80	0xbdde54e8	-0.10856038
81	0xbdfc8373	-0.123297594
82	0x3e2d7800	0.16940308
83	0xbcddde60	-0.027083576
84	0xbe6d2e10	-0.23162103
85	0x3e9deca9	0.3084462
86	0x3d93e0b8	0.07220596
87	0x3e86b7f7	0.2631223
88	0x3e12b1ce	0.1432564
89	0x3b2ce400	0.0026381016
90	0x3e2891b2	0.16461828
91	0xbcbb945a	-0.022897888
92	0xbd0da4d0	-0.034581006
93	0x3d6f1f67	0.058379557
94	0x3e88f31f	0.26747987
95	0xbeb01b19	-0.34395674
96	0xbdf430d6	-0.11923377
97	0xbd891885	-0.0669413
98	0xbe443d76	-0.1916407
99	0x3da17dca	0.078853205
100	0x3e623a6a	0.22092596
101	0xbd9a416a	-0.07532008
102	0x3de43598	0.11143035
103	0xbe58c7d6	-0.21169981
104	0xbe134bd5	-0.14384396
105	0xbddc2017	-0.10748308
106	0xbe3aa83a	-0.18228236
107	0x3e2364b0	0.15956378
108	0xbde3d992	-0.111254826
109	0x3e166b9f	0.14689492
110	0x3e875e3e	0.2643909
111	0xbdc3e81d	-0.095657565
112	0xbd86e792	-0.06587137
113	0x3d2282e5	0.039675612
114	0x3e5198a2	0.20468381
115	0x3b409f51	0.0029391835
116	0xbe21d1b7	-0.15802656
117	0xbdf0aaf7	-0.11751359
118	0x3e20f1ad	0.15717192
119	0xbc3e1264	-0.011601064
120	0xbdcce772	-0.10005082
121	0x3e8d20f3	0.275642
122	0xbe6a02f9	-0.22852696
123	0xbea8f2e0	-0.329978
124	0x3d4c5638	0.049886912
125	0xbe0fe022	-0.14050344
126	0x3dd59334	0.104284674
127	0x3e40e3be	0.18836877
128	0xbcb9c5be	-0.022677299
129	0xbe89596e	-0.26826042
130	0xbdd64766	-0.10462837
131	0xbd6dcb16	-0.058055006
132	0xbe80e110	-0.2517171
133	0xbd67331e	-0.056445234
134	0x3dc5d6dd	0.096601225
135	0x3dcce4ff	0.10004615
136	0xbe571be8	-0.21006739
137	0xbe9dd181	-0.308239
138	0x3e010158	0.12598169
139	0x3e5350e8	0.20636332
140	0x3dd0e8a0	0.1020062
141	0x3e18edc4	0.1493445
142	0x3dc77b65	0.097403325
143	0x3e0787a0	0.1323533
144	0x3c1158c2	0.008871259
145	0x3e9e1350	0.3087411
146	0x3d9e7a4f	0.07738172
147	0x3e12fc5c	0.1435408
148	0x3e2c644d	0.16835137
149	0xbe5b50a5	-0.21417482
150	0x3e5f998c	0.21835917
151	0xbe5c852e	-0.21535179
152	0x3cf290b8	0.029610023
153	0xbe5b6c1f	-0.21427964
154	0x3e5402d9	0.20704211
155	0x3cdcd3b5	0.026956419
156	0x3dad2f59	0.084562965
157	0x3e0bbae8	0.13645518
158	0x3e1a88dd	0.15091272
159	0x3dfb6659	0.12275381
160	0xbe43cfa1	-0.19122173
161	0x3e2924e9	0.16517986
162	0xbe652cba	-0.22380343
163	0xbe7bdc82	-0.24595836
164	0xbe8dccae	-0.2769522
165	0x3e7e18d1	0.24814154
166	0xbe928966	-0.28620452
167	0xbe803a7e	-0.25044626
168	0xbdbbe295	-0.091740765
169	0xbceb709e	-0.028740223
170	0xbd9611e7	-0.07327633
171	0xbd3c7b99	-0.04601631
172	0x3d0c79ad	0.034295727
173	0xbe9df519	-0.30851057
174	0xbe171e26	-0.14757594
175	0xbd914324	-0.07092884
176	0x3e1fdb14	0.15610915
177	0x3e4911dc	0.19635719
178	0xbe6095a4	-0.21932083
179	0xbe31893e	-0.1733751
180	0x3e22470d	0.15847416
181	0x3e4cb3f1	0.19990517
182	0xbe00a6ef	-0.1256368
183	0xbafcad7a	-0.0019277774
184	0x3e3086b4	0.17238885
185	0xbcd2c60e	-0.025729205
186	0xbdcacf02	-0.09902765
187	0xbdd35120	-0.10318208
188	0x3e247a7f	0.16062354
189	0x3e7d4b9d	0.24735875
190	0xbbee2640	-0.0072677433
191	0xbeafc6c9	-0.3433135
192	0xbe07c039	-0.13256921
193	0x3b17dffa	0.0023174272
194	0xbd455fc0	-0.048187017
195	0xbe2861f6	-0.16443619
196	0xbe033fe0	-0.12817335
197	0x3d84d7be	0.06486462
198	0xbc9b296c	-0.01894065
199	0xbe4a208c	-0.19738978

layers.0.weight f4 [200, 10]
0	0x3e6bf19e	0.23041388
1	0xbe04446c	-0.12916726
2	0x3e9be0b5	0.30444875
3	0x3abfaf00	0.0014624298
4	0xbde46cd2	-0.11153568
5	0xbc4090a0	-0.011753231
6	0xbe7bd5cf	-0.2459328
7	0xbe7da1fe	-0.24768826
8	0xbd006e68	-0.03135529
9	0xbdde2fe8	-0.10848981
10	0x3e665326	0.22492656
11	0x3d6f9393	0.058490347
12	0xbe07b269	-0.13251652
13	0xbe4008c2	-0.18753341
14	0x3d926839	0.07148785
15	0x3d12a99e	0.03580629
16	0xbd3c1fb2	-0.045928665
17	0x3e36f001	0.17864992
18	0xbdcfcc20	-0.10146356
19	0xbe14b4a8	-0.1452204
20	0xbd702c37	-0.058635917
21	0x3e6f5c95	0.23375161
22	0xbd787172	-0.060655065
23	0xbbf47201	-0.0074598794
24	0x3e6b682e	0.2298896
25	0xbd9f294a	-0.07771547
26	0x3e603c46	0.21897992
27	0x3db2b86f	0.08726584
28	0x3e81d1a4	0.25355256
29	0xbe2c892e	-0.16849205
30	0xbd82e850	-0.06391966
31	0xbdc8f032	-0.098114386
32	0x3e61a60e	0.22036001
33	0xbe5626b8	-0.20913208
34	0xbba312c0	-0.0049766004
35	0x3e3b467e	0.1828861
36	0xbe2430e0	-0.1603427
37	0xbe1f426d	-0.15552683
38	0xbe69399a	-0.2277588
39	0xbe1804c4	-0.14845568
40	0x3c00c940	0.007860482
41	0xbe23eaee	-0.16007587
42	0xbe056035	-0.13024981
43	0x3c15a220	0.009132892
44	0xbe7a2616	-0.24428591
45	0xbe195a25	-0.14975794
46	0x3da0d530	0.07853162
47	0xbd853810	-0.06504834
48	0xbe33ee5c	-0.17571396
49	0xbe6a8182	-0.22900966
50	0x3e3f73af	0.18696474
51	0x3de0e65f	0.1098144
52	0x3e9fdb20	0.31221867
53	0x3d60cdc5	0.054883737
54	0xbe9a9556	-0.3019206
55	0xbda48696	-0.08033483
56	0x3d311186	0.043229602
57	0x3e92699b	0.28596196
58	0xbdbfe6a6	-0.093701646
59	0x3dec0329	0.1152404
60	0xbe681f59	-0.22668208
61	0x3d0bd1a8	0.03413549
62	0xbdab7da3	-0.08373573
63	0xbd24a1a2	-0.040193208
64	0xbe843ed1	-0.25829175
65	0xbe44ef4c	-0.1923191
66	0x3e851383	0.2599145
67	0x3e68996f	0.2271478
68	0x3e936fa4	0.28796113
69	0x3e83e12b	0.25757727
70	0x3d3d2088	0.046173602
71	0x3dd85ae7	0.10564213
72	0xbdf2853c	-0.11841819
73	0xbe8f1e58	-0.27952838
74	0xbe96cf3d	-0.29454985
75	0xbd15ce93	-0.036573958
76	0x3de4bb03	0.11168482
77	0x3dacb593	0.0843307
78	0x3d9a395f	0.07530474
79	0xbe71f655	-0.23629124
80	0xbd8c4ee0	-0.06850982
81	0xbe93d2f2	-0.28871876
82	0x3e949077	0.29016468
83	0x3e1f33df	0.15547131
84	0x3d5b21f8	0.053499192
85	0x3e3fcbc8	0.1873008
86	0x3e84efa6	0.25964087
87	0x3e7e77d5	0.248504
88	0xbe82455c	-0.25443542
89	0x3c4777e7	0.012174583
90	0x3e5a5b3a	0.21323863
91	0x3e6dc28d	0.23218746
92	0xbd3ff258	-0.046861976
93	0x3e566050	0.20935178
94	0xbe4e4055	-0.20141728
95	0xbcded7c8	-0.027202502
96	0xbe286f7d	-0.1644878
97	0x3d03921b	0.03212176
98	0xbea54541	-0.322794
99	0xbc1e0507	-0.009644753
100	0xbe69a6dc	-0.22817558
101	0x3ca89fe4	0.020584054
102	0x3e9271c2	0.28602415
103	0xbe070a52	-0.1318753
104	0xbe33b768	-0.17550433
105	0x3eaf6d9b	0.3426331
106	0x3dfd185d	0.123581626
107	0xbc8793f3	-0.01655004
108	0x3cec18e4	0.028820463
109	0x3e0c8224	0.1372152
110	0x3e9dec6c	0.30844438
111	0xbe8ca085	-0.27466217
112	0xbe9635d7	-0.29337952
113	0xbd3617f8	-0.044456452
114	0xbe1c2317	-0.1524776
115	0x3e931a70	0.28731108
116	0x3de72919	0.11287136
117	0xbe99086d	-0.2988924
118	0xbe88c127	-0.26709864
119	0x3cc5523b	0.024087062
120	0x3eaab53a	0.3334139
121	0x3de0ef9e	0.10983203
122	0x3e1c27dc	0.1524958
123	0xbdffbe4b	-0.124874674
124	0x3d12e70a	0.035864867
125	0x3e884425	0.2661449
126	0xbe4a32d1	-0.19745947
127	0xbd088fc9	-0.03334025
128	0x3d80ea43	0.06294682
129	0x3e1f09d7	0.15531097
130	0x3e11d3b4	0.14240915
131	0xbde4f256	-0.111790344
132	0xbdb752c6	-0.08951335
133	0xbe5dd376	-0.21662697
134	0x3e3b6b1b	0.18302576
135	0xbd6d9845	-0.058006544
136	0x3e2603de	0.16212413
137	0x3d891590	0.06693566
138	0x3e3bf74c	0.18356055
139	0xbd3012eb	-0.04298679
140	0xbd69c2d8	-0.057070583
141	0xbc47e77d	-0.012201187
142	0xbd2940db	-0.041321617
143	0xbe9d455f	-0.30716988
144	0x3e270faa	0.16314569
145	0xbe53951a	-0.20662346
146	0x3d9fd89d	0.078049876
147	0xbe0ef9cd	-0.13962479
148	0xbe0d7bb1	-0.13816716
149	0xbe4019d1	-0.18759848
150	0x3e37606c	0.17907876
151	0x3deeb5b2	0.116557494
152	0xbdbfbc15	-0.09362046
153	0x3d8eaf20	0.06966996
154	0x3df112b9	0.11771149
155	0x3d5d03ab	0.053958576
156	0x3da7ca63	0.08192899
157	0x3e997e81	0.29979327
158	0xbe342189	-0.17590918
159	0xbe73fd6f	-0.23827146
160	0xbe3d4601	-0.18483736
161	0x3deb3025	0.11483792
162	0xbe03fae0	-0.1288867
163	0x3e5b9e70	0.21447158
164	0x3dcbcecb	0.09951552
165	0x3e9edb04	0.3102647
166	0xbd6c2d96	-0.05766066
167	0xbd750f45	-0.059829015
168	0x3e2dbadb	0.16965811
169	0x3ea14b60	0.3150282
170	0x3e2d35c8	0.16915047
171	0xbe0e157c	-0.13875383
172	0x3e989361	0.2979994
173	0xbe14872d	-0.1450469
174	0xbe655f86	-0.2239972
175	0x3e01570e	0.12630865
176	0xbd6484f0	-0.05579084
177	0xbd5e3e20	-0.054258466
178	0x3e52802e	0.20556709
179	0xbda96bc4	-0.08272508
180	0x3e234c27	0.15947019
181	0x3e1d8d52	0.1538594
182	0xbb92c5f7	-0.0044791657
183	0x3e609ac6	0.21934041
184	0x3e204867	0.1565262
185	0xbe91a805	-0.284485
186	0x3d09a7ce	0.033607297
187	0xbd0ee65d	-0.03488766
188	0xbe81f1ac	-0.25379694
189	0x3e16e8f5	0.14737304
190	0xbdc22c28	-0.094810784
191	0xbd7bc914	-0.06147106
192	0xbe311d8e	-0.1729643
193	0x3dcf8a94	0.101338536
194	0x3c17f464	0.009274576
195	0xbe9f54df	-0.3111944
196	0xbe9a2d55	-0.3011271
197	0xbe8caf9b	-0.27477726
198	0x3e1c5c73	0.15269642
199	0xbbb57a9c	-0.005538298
200	0x3d751ca0	0.059841752
201	0x3e6684a1	0.22511531
202	0xbe8dc321	-0.27687934
203	0x3d979822	0.07402064
204	0x3db82f7c	0.08993432
205	0x3eaa1a70	0.33223295
206	0x3e47f9bf	0.19528864
207	0x3e77458c	0.24147624
208	0x3e452ef7	0.19256197
209	0x3dd31e26	0.10308485
210	0x3df0f627	0.117657
211	0x3e6fc7af	0.23416017
212	0xbca3c1db	-0.019989898
213	0xbe8808a8	-0.26569104
214	0xbe8e66ab	-0.27812704
215	0x3e7bc917	0.24588428
216	0x3e465796	0.19369349
217	0x3e561bff	0.20909117
218	0xbe9ba9e5	-0.30403057
219	0xbea20943	-0.3164769
220	0x3e272c65	0.16325529
221	0x3e20a85e	0.15689227
222	0xbe89024b	-0.26759562
223	0x3e7f2c06	0.24919137
224	0xbe87825f	-0.26466653
225	0x3c41d527	0.011830605
226	0x3d0c9816	0.034324728
227	0xbba8d813	-0.005152711
228	0x3e1d84c7	0.15382682
229	0x3e98381d	0.2973031
230	0x3e9571a0	0.29188251
231	0xbe42e9ab	-0.1903445
232	0x3e8ef1b9	0.27918795
233	0xbc340076	-0.010986438
234	0xbe769a44	-0.24082285
235	0xbd7c0529	-0.06152836
236	0xbdffc8fd	-0.12489507
237	0xbea1678f	-0.3152432
238	0x3e80bfd0	0.2514634
239	0x3e45b4dd	0.19307275
240	0x3e8b70f6	0.2723462
241	0xbdd3a0c3	-0.10333397
242	0x3cf4c036	0.02987681
243	0xbdbcc547	-0.09217315
244	0x3ea590eb	0.32337126
245	0xbe6bff39	-0.23046578
246	0x3ded76e5	0.11594943
247	0xbe2f2ef2	-0.17107752
248	0x3e874f91	0.26427892
249	0x3e0b8a7d	0.13627048
250	0xbe364ec6	-0.17803487
251	0xbe1e70c1	-0.154727
252	0xbe826218	-0.25465465
253	0x3e11936b	0.14216392
254	0xbdf71647	-0.12064796
255	0xbd9ac86f	-0.07557761

layers.10.bias f4 [50]
0	0xbe0be641	-0.13662054
1	0xbdfd702a	-0.12374909
2	0x3db7089e	0.089371905
3	0xbdbd2110	-0.09234822
4	0xbde25472	-0.11051263
5	0x3da3bd2c	0.07995066
6	0x3d920430	0.07129705
7	0xbe0cc070	-0.13745284
8	0x3dc0b892	0.09410204
9	0x3d97e6e0	0.07417083
10	0xbdfd23f0	-0.1236037
11	0x3dadbd70	0.08483398
12	0x3db84599	0.0899765
13	0x3d92bbf6	0.07164757
14	0xbdc063c7	-0.09394031
15	0x3da59954	0.08085886
16	0xbdbb2816	-0.09138505
17	0x3da5d0a0	0.08096433
18	0xbe2c1f75	-0.16808875
19	0xbe086cba	-0.13322726
20	0x3da33665	0.07969359
21	0xbe2bbf1e	-0.16772124
22	0x3e20f830	0.15719676
23	0xbe2f7f2d	-0.17138357
24	0x3db92eb1	0.09042109
25	0xbdd29d83	-0.10283949
26	0xbdce02d7	-0.100591354
27	0xbde08f22	-0.109648004
28	0x3da49102	0.080354705
29	0x3d9d7166	0.07687645
30	0xbdedc5ad	-0.11609969
31	0x3d83df57	0.06439083
32	0x3dc22060	0.09478831
33	0xbdd62ce7	-0.10457783
34	0x3e145b17	0.14487873
35	0xbe251cf7	-0.1612433
36	0x3d922fae	0.071380004
37	0xbde4ed85	-0.11178116
38	0x3da766ac	0.0817388
39	0xbe1f7596	-0.15572199
40	0xbdeb8e8e	-0.115017995
41	0xbe1a092b	-0.1504256
42	0xbdef57d0	-0.11686671
43	0xbdd9ffb0	-0.10644472
44	0x3d9168a1	0.071000345
45	0xbe1b5750	-0.15170026
46	0xbe0a2189	-0.13489355
47	0xbded1564	-0.115763456
48	0x3da6f95e	0.08153032
49	0x3db0c0a5	0.08630494

layers.10.running_mean f4 [50]
0	0x3d9de0ec	0.07708916
1	0x3da4e396	0.08051221
2	0x3e0bd84b	0.13656728
3	0x3dd2accb	0.10286864
4	0x3f0481b2	0.517604
5	0x3e27c565	0.16383894
6	0x3e613643	0.21993355
7	0x3db9ac59	0.09066076
8	0x3e8ab09e	0.27087873
9	0x3e9cd076	0.30627793
10	0x3d7f450f	0.06232172
11	0x3eb61e1e	0.35569853
12	0x3dacc489	0.084359236
13	0x3e6d319d	0.23163457
14	0x3da5d72b	0.08097681
15	0x3e3f2d68	0.18669665
16	0x3da9eb69	0.08296854
17	0x3df7d58a	0.12101276
18	0x3d9dcfcf	0.07705652
19	0x3dba87bd	0.09107921
20	0x3de30e8c	0.11086759
21	0x3da24962	0.07924153
22	0x3e9bd026	0.30432242
23	0x3db32a00	0.08748245
24	0x3daeb1b9	0.08529992
25	0x3d8fff25	0.07031087
26	0x3d9dc8d7	0.07704323
27	0x3d917ac8	0.07103497
28	0x3da397e7	0.079879574
29	0x3e8a01ab	0.26954398
30	0x3d82b2ca	0.063817576
31	0x3dbc5a20	0.091968775
32	0x3e21ebe7	0.15812646
33	0x3da86687	0.082226805
34	0x3ee5f161	0.4491072
35	0x3dba60bf	0.09100484
36	0x3eb47bd5	0.35250726
37	0x3d8f6852	0.070023194
38	0x3db8d72d	0.090254165
39	0x3db92d5d	0.090418555
40	0x3d915364	0.070959836
41	0x3d8fc35f	0.07019686
42	0x3d902b3f	0.070394985
43	0x3d8248d2	0.063615456
44	0x3e3251da	0.17414036
45	0x3d981ea1	0.07427717
46	0x3db002e2	0.085943
47	0x3da3d392	0.07999338
48	0x3e7a4c42	0.24443153
49	0x3e2cd4fa	0.16878119

layers.10.running_var f4 [50]
0	0x40dafb33	6.843164
1	0x40d46c16	6.638194
2	0x3f8b9c68	1.0907106
3	0x40276e0a	2.6160913
4	0x3e872800	0.26397705
5	0x3f818620	1.0119057
6	0x3e0e7d94	0.13915092
7	0x40eecf07	7.462772
8	0x3e3c81bd	0.18408866
9	0x3e3854f4	0.18001157
10	0x40852094	4.160227
11	0x3e53d5ee	0.20687076
12	0x3f94d469	1.1627322
13	0x3e08e7f2	0.1336973
14	0x40a65606	5.198001
15	0x3f53c13e	0.8271674
16	0x40899406	4.2993193
17	0x3f89bef9	1.0761405
18	0x40cf7135	6.482569
19	0x40bb4678	5.852352
20	0x3f8098f4	1.0046678
21	0x40eda9ca	7.426976
22	0x3ee108a1	0.43951896
23	0x40d545f3	6.6647887
24	0x405d53cf	3.4582403
25	0x404ef287	3.2335527
26	0x40a029e5	5.005114
27	0x40b80152	5.750161
28	0x3f8d46e0	1.1037254
29	0x3ea8bb5b	0.3295544
30	0x406b03a0	3.6720963
31	0x3da9a4ce	0.08283387
32	0x3f8579f1	1.0427839
33	0x40a75763	5.2294173
34	0x3e78a30e	0.2428095
35	0x40f41c09	7.6284223
36	0x3e4f7dc1	0.20262815
37	0x40b09095	5.517649
38	0x3f997767	1.1989564
39	0x4101d02f	8.113326
40	0x40ac064b	5.375768
41	0x40c7cd66	6.243823
42	0x40bea817	5.958019
43	0x4081aed6	4.0525923
44	0x3e15d699	0.14632644
45	0x40c3e084	6.1211567
46	0x4103d0c6	8.23847
47	0x40d68ad9	6.704449
48	0x3e3a4ec1	0.18194105
49	0x3e49ac01	0.1969452

layers.10.weight f4 [50]
0	0x3f8efdc8	1.1171198
1	0x3f8585ea	1.0431492
2	0x3f7254c7	0.9466061
3	0x3f7b57db	0.9818093
4	0x3f64bb4a	0.8934828
5	0x3f6e816e	0.93166244
6	0x3f6f1dfd	0.93405133
7	0x3f8ba8c7	1.0910882
8	0x3f6c853e	0.9239081
9	0x3f717eb5	0.94333965
10	0x3f894401	1.0723878
11	0x3f69caec	0.9132526
12	0x3f72734d	0.94707185
13	0x3f70edfd	0.9411314
14	0x3f7da3b7	0.99077934
15	0x3f6fb076	0.93628633
16	0x3f77a307	0.96733135
17	0x3f70c3d5	0.94048816
18	0x3f8b1d73	1.0868362
19	0x3f8da5dd	1.1066242
20	0x3f6dc8f9	0.92884785
21	0x3f8e85a5	1.1134535
22	0x3f5b40a2	0.85645497
23	0x3f9037ec	1.1267066
24	0x3f70f0d0	0.9411745
25	0x3f8218da	1.0163834
26	0x3f823f95	1.0175654
27	0x3f8a8705	1.0822455
28	0x3f6d906c	0.92798495
29	0x3f6ec273	0.93265456
30	0x3f82e603	1.0226444
31	0x3f702743	0.9380991
32	0x3f692924	0.910784
33	0x3f806ee5	1.0033842
34	0x3f585564	0.84505296
35	0x3f908ab3	1.1292328
36	0x3f70e449	0.94098336
37	0x3f8c9e3d	1.098579
38	0x3f706bd6	0.93914545
39	0x3f907a2c	1.1287284
40	0x3f8d7452	1.1051123
41	0x3f8ec8b3	1.1154999
42	0x3f8e0241	1.1094438
43	0x3f8a71b6	1.0815952
44	0x3f712661	0.94199187
45	0x3f8ed707	1.1159371
46	0x3f8e9564	1.113934
47	0x3f8c6357	1.0967816
48	0x3f6ffd21	0.9374562
49	0x3f68a7c3	0.90880984

layers.12.bias f4 [2]
0	0x3ddfb849	0.109238215
1	0xbdcea82a	-0.100906685

layers.12.weight f4 [2, 50]
0	0xbc8f51ff	-0.017495153
1	0xbe237efb	-0.15966408
2	0x3d85c3ad	0.06531463
3	0xbe123c41	-0.14280798
4	0x3dd21df9	0.10259623
5	0x3d4d9d75	0.05019899
6	0xbc9f9b3e	-0.019483205
7	0xbd471f76	-0.048613988
8	0xbd6d171a	-0.05788336
9	0x3d4b9e3b	0.049711447
10	0xbe2a6452	-0.16639832
11	0xbd67b51f	-0.056569215
12	0x3d8ca4ba	0.068673566
13	0x3cd1eb5b	0.025624922
14	0xbe2491fc	-0.16071314
15	0x3dadeb5f	0.08492159
16	0xbdcef95b	-0.101061545
17	0x3be7981e	0.0070676943
18	0xbcbdc6c5	-0.02316607
19	0xbe0fd375	-0.14045508
20	0x3d6285e9	0.055303488
21	0xbe2fed4c	-0.17180365
22	0x3e1f24c1	0.15541364
23	0xbe627b96	-0.22117457
24	0x3dfacb04	0.122457534
25	0xbd82f739	-0.0639481
26	0xbe2b0bd6	-0.16703734
27	0xbe3671fb	-0.17816918
28	0x3d9c25fb	0.07624432
29	0x3d55b547	0.052174833
30	0xbe2fb1a3	-0.17157607
31	0x3c62160d	0.013799203
32	0x3dec2ecc	0.11532363
33	0xbe4731bb	-0.19452564
34	0xbdadab88	-0.084799826
35	0xbe417d29	-0.18895401
36	0x3d500532	0.050786205
37	0xbdc7218f	-0.09723198
38	0x3d6d050d	0.057866145
39	0xbd05f947	-0.032708433
40	0xbdb1a9dc	-0.08674976
41	0xbe5613dc	-0.20906013
42	0xbe2a1da5	-0.16612871
43	0xbe3828ce	-0.17984316
44	0x3db0f55c	0.086405486
45	0xbe1c9fcc	-0.15295333
46	0xbdc24104	-0.09485057
47	0xbe2c616b	-0.16834037
48	0x3de71488	0.11283213
49	0xbd3625c2	-0.044469602
50	0x3e7526db	0.23940603
51	0x3db0727f	0.086155884
52	0xbdeea1c2	-0.116519466
53	0x3d5f2f62	0.054488547
54	0x3e0ab28f	0.13544677
55	0xbd254a8f	-0.040354308
56	0xbd2ae9db	-0.04172693
57	0x3e4a6a44	0.197671
58	0xbdb14f04	-0.08657649
59	0x3d08c590	0.033391535
60	0x3dc537a3	0.096297525
61	0xbdac98d8	-0.0842759
62	0xbdfc6d56	-0.12325542
63	0x3b6bc5ee	0.003597613
64	0x3e225543	0.15852837
65	0x3bb05f72	0.0053824717
66	0x3e26c9d3	0.16287927
67	0xbd9ee92e	-0.07759319
68	0x3e497af6	0.19675812
69	0x3e0e0091	0.13867404
70	0xbc489c58	-0.0122443065
71	0x3d2c62fb	0.042086583
72	0x3dbd6f5a	0.09249754
73	0xbcbb14fa	-0.02283715
74	0xbe0290cc	-0.12750548
75	0x3e47557c	0.19466203
76	0x3e173a26	0.14768276
77	0x3e35b3a1	0.17744304
78	0xbc8f104d	-0.017463828
79	0x3c9872c8	0.01860942
80	0x3d50862a	0.0509092
81	0x3ae35910	0.0017345268
82	0x3d989090	0.07449448
83	0x3db4e22c	0.08832201
84	0xbe11b148	-0.14227784
85	0x3d63202d	0.055450607
86	0x3ca406b1	0.020022722
87	0x3e78e95c	0.2430777
88	0xbcb60731	-0.022220226
89	0x3e5f6dd6	0.21819243
90	0x3e825802	0.2545777
91	0x3cdcaf30	0.026939005
92	0x3e215017	0.15753208
93	0x3e3a71cd	0.18207474
94	0x3d93355d	0.071879126
95	0x3db2af17	0.08724802
96	0x3e200e41	0.15630437
97	0x3e17bb73	0.148176
98	0x3dbbeb89	0.09175784
99	0xbd5a4e38	-0.05329725

layers.2.bias f4 [200]
0	0xbd89ab44	-0.067221195
1	0xbc4b0f12	-0.01239373
2	0xbcb4c257	-0.022065325
3	0xbd727673	-0.059194993
4	0x3db5c095	0.08874623
5	0x3c1f0672	0.0097061265
6	0xbcbb033b	-0.022828689
7	0xbcc2e1a6	-0.023789238
8	0xbc2b27cf	-0.010446503
9	0x3c1d18ee	0.009588463
10	0xbae32912	-0.0017330965
11	0xba3af007	-0.0007131104
12	0xbcd8c613	-0.026461637
13	0xbd138c15	-0.036022265
14	0xbd0abac5	-0.033869524
15	0xbd1c8e21	-0.038221482
16	0x3c60deab	0.013724963
17	0xbd646b9b	-0.055766683
18	0x3d15452a	0.036442913
19	0x3c16d6f9	0.009206527
20	0x3c4c3883	0.012464645
21	0x3c37340c	0.011181843
22	0xba5004cc	-0.0007935285
23	0xbd04e9ef	-0.03244966
24	0xbcdc9688	-0.026927248
25	0xbb3c92c3	-0.0028774
26	0xbd97ac21	-0.07405878
27	0xbc6f99c3	-0.014624062
28	0xbcde9497	-0.027170463
29	0x3cc29050	0.023750454
30	0x3bfe0432	0.007751965
31	0xbdc62805	-0.09675602
32	0xbd3ba2f6	-0.04580971
33	0x3da433b5	0.08017675
34	0xbdcf40eb	-0.10119804
35	0xbd46fb00	-0.048579216
36	0x3c086f65	0.00832734
37	0x3bd1c25a	0.0064013423
38	0x3c8b4f5a	0.017005611
39	0x3c3ebe42	0.011642041
40	0xbd1c673a	-0.038184382
41	0xbd8aafc6	-0.067718074
42	0x3de013b8	0.10941261
43	0xbcb5b01b	-0.0221787
44	0x3c8fc52d	0.017550075
45	0xbccffba2	-0.025388543
46	0x3c995d31	0.018721195
47	0xbb265638	-0.002538098
48	0xbdbab8ac	-0.091172546
49	0x3c86f9fb	0.016476622
50	0x3cc46306	0.023973
51	0x3d0396ff	0.032126423
52	0xbc471afb	-0.012152429
53	0xbcd647f8	-0.026157364
54	0xbc4ae7a3	-0.012384328
55	0x3d098d30	0.033581913
56	0x3dc954d9	0.098306365
57	0xbd52486c	-0.051338598
58	0x3de87b85	0.113516845
59	0xbd08aece	-0.03336983
60	0x3c4f2a34	0.012644339
61	0xbce8a379	-0.028398262
62	0x3d26c916	0.040719114
63	0xbd441532	-0.047871776
64	0xbc420386	-0.01184166
65	0xbdb367e8	-0.08760053
66	0xbbb282b2	-0.005447709
67	0xbad4fa64	-0.0016248939
68	0xbd2ec7cb	-0.042671006
69	0xbc92d0ac	-0.017921768
70	0x3c5e7282	0.0135771055
71	0x3da1fecf	0.07909929
72	0xbdec5150	-0.11538947
73	0x3cf4b35f	0.029870687
74	0xbcbcb13c	-0.02303373
75	0x3d3ab214	0.045579985
76	0xbc2b1370	-0.010441646
77	0x3c399e55	0.011329253
78	0x3ce8a6aa	0.028399784
79	0xbd055a89	-0.032557044
80	0xbcdac526	-0.026705336
81	0x3d2c54cc	0.042073056
82	0x3d08a6b4	0.033362105
83	0xbb41f87f	-0.0029597578
84	0x3b40d5db	0.0029424343
85	0xbc9718fb	-0.018444529
86	0xbdcd11ce	-0.100131616
87	0x3a82c564	0.000997704
88	0x3daf416c	0.085574
89	0x3da6c927	0.081438355
90	0xbc1ab316	-0.0094421115
91	0xbcb13927	-0.021633698
92	0x3de19b89	0.11015994
93	0x3d0c4c50	0.034252465
94	0xbdd28f2d	-0.10281215
95	0xbda2f386	-0.07956605
96	0x3d5a2139	0.05325434
97	0xbc1688c0	-0.009187877
98	0xbbe9419c	-0.007118417
99	0xbc32f78a	-0.010923276
100	0xbd169091	-0.036758963
101	0xbdcede8b	-0.101010405
102	0x3b8d2ad8	0.004308086
103	0x3de188d1	0.11012424
104	0x3a850745	0.0010149261
105	0x3c21b29e	0.009869246
106	0xbd24d60a	-0.040243186
107	0x3ccfbde2	0.025359098
108	0x3d1233db	0.035693984
109	0xbcd59ada	-0.026074816
110	0x3d1506ad	0.03638332
111	0x3d69cf4c	0.05708246
112	0x3ce35312	0.027749572
113	0x3c8d1e60	0.017226398
114	0x3b55209f	0.0032520664
115	0x3d21439a	0.03937111
116	0xbb112b8a	-0.0022151195
117	0x3be8a4c4	0.0070997197
118	0xbbd5fff5	-0.0065307566
119	0x3c896352	0.016770992
120	0xbdb0d944	-0.0863519
121	0x3df788ce	0.1208664
122	0x3c4458e3	0.011984083
123	0x3d0b4f41	0.03401113
124	0xbdaa1394	-0.083045155
125	0xbd47a5a3	-0.048741948
126	0x3c4bb0ac	0.012432259
127	0x3d517883	0.05114032
128	0xbcc4e701	-0.024035932
129	0xbda9d71b	-0.08292981
130	0x3cc639a6	0.02419741
131	0xbbf0d444	-0.007349523
132	0x3d1c30cf	0.038132485
133	0xbd9dee0f	-0.07711422
134	0x3cbb8b8c	0.02289369
135	0xbc6f1091	-0.014591352
136	0x3ae73eb1	0.0017642585
137	0xbc2b1014	-0.010440845
138	0xbdb6728c	-0.08908567
139	0x3d02b2be	0.031908743
140	0xbc9aeb71	-0.018911095
141	0x3d9ba757	0.07600277
142	0x3c6fda5d	0.014639464
143	0x3ceb5a14	0.028729476
144	0xbd0a1c78	-0.033718556
145	0x3d4b8728	0.049689442
146	0xbbbee80d	-0.0058260025
147	0xbd02cdde	-0.03193461
148	0x3c34dc38	0.011038832
149	0xbde42a65	-0.111408986
150	0xbdcf03ca	-0.101081446
151	0xbcc67cad	-0.024229372
152	0xbd09f945	-0.033684988
153	0x3c5f5e83	0.013633373
154	0xbd27216e	-0.040803365
155	0x3b84cb77	0.004052575
156	0x3cca7701	0.024714949
157	0x3de14563	0.109995626
158	0xbce2a9dc	-0.027668886
159	0x398404f1	0.00025180684
160	0xbc8f05d9	-0.017458843
161	0x3c0096c9	0.00784845
162	0x3b8ace06	0.0042359857
163	0xbd0991de	-0.033586375
164	0xbcd4a566	-0.025957774
165	0xbc838623	-0.016055172
166	0x3c653aaf	0.013991042
167	0xbb8ff9aa	-0.004393776
168	0xbab11dbf	-0.0013512893
169	0xbc49710e	-0.012295021
170	0xbd14bc63	-0.036312472
171	0xbd17ff6a	-0.037108816
172	0xbabfc98b	-0.0014632208
173	0xbc82a43c	-0.015947454
174	0xbd8f6bc1	-0.07002974
175	0xbce7326b	-0.028222283
176	0x3c7e4bb3	0.015520978
177	0xbd31ece8	-0.043438822
178	0x3c969985	0.01838375
179	0x3cd15b90	0.025556356
180	0xbdbc66ca	-0.09199293
181	0x3bdcfb38	0.006743815
182	0x3dbd3b93	0.092398785
183	0xbd14a16d	-0.03628676
184	0xbd9312e5	-0.07181338
185	0xbcf0600b	-0.029342672
186	0xbcbeec92	-0.023306165
187	0xbca775b4	-0.020441867
188	0x3d03e5bd	0.032201517
189	0xbcbdb097	-0.023155494
190	0xbdb2674a	-0.08711107
191	0xbdcd0e33	-0.10012474
192	0xbcef45f7	-0.029208167
193	0x3cfb07f9	0.03064345
194	0xbdc6c30e	-0.097051725
195	0xbc8c4b0b	-0.017125627
196	0x3c187091	0.009304182
197	0xbc7bff65	-0.015380715
198	0x3cc26c7f	0.023733376
199	0xbc8275aa	-0.015925247

layers.2.running_mean f4 [200]
0	0x00000000	0.0
1	0x45a4346e	5254.5537
2	0x448720cd	1081.025
3	0x00000000	0.0
4	0x00000000	0.0
5	0x4700fcb5	33020.707
6	0x47271e6c	42782.42
7	0x4426339b	664.80634
8	0x469d7b88	20157.766
9	0x44d6bbc4	1717.8677
10	0x464056d8	12309.711
11	0x4451212f	836.5185
12	0x464e4ffa	13203.994
13	0x451d6962	2518.5864
14	0x3d744ff5	0.059646565
15	0x460efcfc	9151.246
16	0x46d419d5	27148.916
17	0x00000000	0.0
18	0x463ff994	12286.395
19	0x430467bb	132.4052
20	0x46e05422	28714.066
21	0x4548ec47	3214.7673
22	0x46e292d7	29001.42
23	0x45e5039e	7328.452
24	0x45b90fd1	5921.977
25	0x4724e014	42208.08
26	0x00000000	0.0
27	0x463c398a	12046.385
28	0x45b13b25	5671.393
29	0x458d5511	4522.6333
30	0x4520ff54	2575.958
31	0x00000000	0.0
32	0x46bb6b61	23989.69
33	0x00000000	0.0
34	0x00000000	0.0
35	0x3d4f950d	0.050679255
36	0x46291be5	10822.974
37	0x46a2baa3	20829.318
38	0x46886e31	17463.096
39	0x470e9235	36498.207
40	0x4360f6e0	224.96436
41	0x3d3c3a51	0.045954052
42	0x00000000	0.0
43	0x450a3962	2211.5864
44	0x41318a58	11.096275
45	0x469fdd61	20462.69
46	0x4694a4cb	19026.396
47	0x45f2ca99	7769.3247
48	0x00000000	0.0
49	0x45c36edd	6253.858
50	0x46942aaa	18965.332
51	0x46808d7c	16454.742
52	0x45b4753a	5774.6533
53	0x3d8c2f45	0.068449534
54	0x472f57d4	44887.83
55	0x452255b4	2597.3564
56	0x00000000	0.0
57	0x4619f780	9853.875
58	0x00000000	0.0
59	0x3cf9b1af	0.030480234
60	0x44f44b06	1954.3445
61	0x43d25baf	420.71628
62	0x4582d6a3	4186.8296
63	0x44338cc9	718.19977
64	0x46c1b58e	24794.777
65	0x3cc5fabb	0.02416741
66	0x468f9132	18376.598
67	0x4711c972	37321.445
68	0x46a33057	20888.17
69	0x4515b476	2395.2788
70	0x451e5efd	2533.9368
71	0x00000000	0.0
72	0x00000000	0.0
73	0x44cc9ddf	1636.9335
74	0x46be2851	24340.158
75	0x43a35c43	326.7208
76	0x450d718e	2263.0972
77	0x471bd332	39891.195
78	0x457568d2	3926.5513
79	0x463a0ae6	11906.725
80	0x46d44c81	27174.252
81	0x46680a59	14850.587
82	0x4653a841	13546.063
83	0x46f9b544	31962.633
84	0x46859d9c	17102.805
85	0x4576a565	3946.3372
86	0x3d2ec361	0.042666797
87	0x47197fc2	39295.758
88	0x00000000	0.0
89	0x00000000	0.0
90	0x468ab45a	17754.176
91	0x45109cb2	2313.7935
92	0x00000000	0.0
93	0x4577603a	3958.0142
94	0x00000000	0.0
95	0x3d56914a	0.052384652
96	0x4511bb76	2331.7163
97	0x46976559	19378.674
98	0x4596b05c	4822.045
99	0x46019165	8292.349
100	0x465807b3	13825.925
101	0x00000000	0.0
102	0x45e11797	7202.9487
103	0x00000000	0.0
104	0x44a74327	1338.0985
105	0x462063ec	10264.98
106	0x44c8f751	1607.7286
107	0x45048ffc	2120.999
108	0x45d20d5e	6721.671
109	0x472c7969	44153.41
110	0x458f950a	4594.63
111	0x461f29ef	10186.483
112	0x461650d6	9620.209
113	0x44a45e39	1314.9445
114	0x4639226a	11848.604
115	0x46808850	16452.156
116	0x3d73bfb9	0.059509013
117	0x45ea83c6	7504.4717
118	0x46024ca4	8339.16
119	0x4594ce02	4761.751
120	0x00000000	0.0
121	0x00000000	0.0
122	0x4713110a	37649.04
123	0x45aab126	5462.1436
124	0x3e06aff8	0.13153064
125	0x00000000	0.0
126	0x46fcc4f5	32354.479
127	0x43adbfc6	347.49823
128	0x442beb22	687.67395
129	0x3d487655	0.048940975
130	0x4719afd0	39343.812
131	0x4560724d	3591.1438
132	0x46767f61	15775.845
133	0x3d2236ca	0.039603032
134	0x45923e94	4679.8223
135	0x466e41a0	15248.406
136	0x441328d9	588.63824
137	0x464274b1	12445.173
138	0x00000000	0.0
139	0x3cb9a6b9	0.022662507
140	0x47115e04	37214.016
141	0x00000000	0.0
142	0x45613d12	3603.817
143	0x44d9ad90	1741.4238
144	0x3d512b91	0.05106694
145	0x45a1b36c	5174.4277
146	0x46901713	18443.537
147	0x46d0c442	26722.129
148	0x45dd7dc7	7087.722
149	0x3cc70fa3	0.024299448
150	0x3beb400d	0.0071792663
151	0x469ccd5e	20070.684
152	0x442ed5d6	699.3412
153	0x468c5249	17961.143
154	0x46138880	9442.125
155	0x448c1991	1120.799
156	0x3c29dead	0.010368031
157	0x00000000	0.0
158	0x445c51e6	881.27966
159	0x4554cc53	3404.7703
160	0x46a360fe	20912.496
161	0x470181fd	33153.99
162	0x4518cf79	2444.967
163	0x467c55e6	16149.475
164	0x441be323	623.549
165	0x462c16cf	11013.702
166	0x45b51103	5794.1265
167	0x47330c72	45836.445
168	0x4669dea8	14967.664
169	0x45915e21	4651.766
170	0x471b4796	39751.586
171	0x4735fdc9	46589.785
172	0x462ca3b2	11048.924
173	0x45b1c9d6	5689.2295
174	0x3d015ad9	0.03158078
175	0x3d3b04d8	0.045658916
176	0x47376eeb	46958.918
177	0x3db3a26f	0.08771216
178	0x44a7e19b	1343.0502
179	0x451adb15	2477.6926
180	0x3c0b30f2	0.008495556
181	0x45adfe5a	5567.794
182	0x00000000	0.0
183	0x471c19f7	39961.965
184	0x3ce87f0b	0.028380891
185	0x43530f28	211.0592
186	0x4661c1e1	14448.47
187	0x464a3689	12941.634
188	0x47274149	42817.285
189	0x3cb49625	0.02204425
190	0x00000000	0.0
191	0x3d0c199a	0.034204103
192	0x45812175	4132.182
193	0x4682209c	16656.305
194	0x00000000	0.0
195	0x3de77f48	0.11303574
196	0x3214f2da	8.669952e-09
197	0x473ea3a7	48803.652
198	0x444dc41c	823.0642
199	0x44d084ff	1668.1561

layers.2.running_var f4 [200]
0	0x28a8c9d8	1.8739283e-14
1	0x4c53eb45	5.55533e+07
2	0x4ada4cb4	7.153242e+06
3	0x28a8c9d8	1.8739283e-14
4	0x28a8c9d8	1.8739283e-14
5	0x4daeef83	3.6686653e+08
6	0x4dca62b7	4.2443338e+08
7	0x4a85f0bd	4.3889585e+06
8	0x4d674ecb	2.4254379e+08
9	0x4a1739e2	2.4776885e+06
10	0x4c69c3a0	6.127987e+07
11	0x49e93342	1.9103762e+06
12	0x4c97336b	7.927279e+07
13	0x4b08f664	8.975972e+06
14	0x408d924e	4.4241095
15	0x4d1950cd	1.6076309e+08
16	0x4d9a86f5	3.2406698e+08
17	0x28a8c9d8	1.8739283e-14
18	0x4c872c3c	7.086947e+07
19	0x47a6cef2	85405.89
20	0x4d7c9c3c	2.6488109e+08
21	0x4c379aa0	4.813069e+07
22	0x4d8a0fc4	2.8953613e+08
23	0x4cf1ec47	1.26837304e+08
24	0x4c75b666	6.4412056e+07
25	0x4dc57ef2	4.1417888e+08
26	0x28a8c9d8	1.8739283e-14
27	0x4d37480d	1.9218453e+08
28	0x4c9a4f34	8.090256e+07
29	0x4c482eba	5.247665e+07
30	0x4b83e73d	1.7288826e+07
31	0x28a8c9d8	1.8739283e-14
32	0x4d800b58	2.685284e+08
33	0x28a8c9d8	1.8739283e-14
34	0x28a8c9d8	1.8739283e-14
35	0x40821025	4.064471
36	0x4ceec2ab	1.25179224e+08
37	0x4d459a80	2.072023e+08
38	0x4d180214	1.5939206e+08
39	0x4d999cb4	3.2214797e+08
40	0x495d6e1d	906977.8
41	0x4022751e	2.5383983
42	0x28a8c9d8	1.8739283e-14
43	0x4bb7838c	2.4053528e+07
44	0x44ce945d	1652.6364
45	0x4d27451d	1.7539528e+08
46	0x4c9d979e	8.262373e+07
47	0x4d0608bf	1.4054501e+08
48	0x28a8c9d8	1.8739283e-14
49	0x4c8b3459	7.298324e+07
50	0x4d86d119	2.827313e+08
51	0x4d4585ad	2.0711701e+08
52	0x4c19e192	4.0339016e+07
53	0x40bc14a7	5.877521
54	0x4def4055	5.0174634e+08
55	0x4c041b82	3.4631176e+07
56	0x28a8c9d8	1.8739283e-14
57	0x4cac3c02	9.030043e+07
58	0x28a8c9d8	1.8739283e-14
59	0x3f9f30ee	1.2436807
60	0x4b9e3ddc	2.0741048e+07
61	0x49f57fe9	2.0111331e+06
62	0x4c3979f4	4.862152e+07
63	0x4a5055eb	3.4133708e+06
64	0x4d890861	2.8737846e+08
65	0x3f446e9a	0.76731265
66	0x4d9bbd75	3.266106e+08
67	0x4d9f3fa9	3.3396867e+08
68	0x4d8dc8b6	2.9734266e+08
69	0x4bfa1d49	3.2782994e+07
70	0x4bf67685	3.2304394e+07
71	0x28a8c9d8	1.8739283e-14
72	0x28a8c9d8	1.8739283e-14
73	0x4b46267e	1.2985982e+07
74	0x4d026f50	1.3677082e+08
75	0x4899a1f1	314639.53
76	0x4b7a4151	1.6400721e+07
77	0x4dba007b	3.900742e+08
78	0x4c08efab	3.5897004e+07
79	0x4d0f3f91	1.5020674e+08
80	0x4d822359	2.7291933e+08
81	0x4d81dc3c	2.7233677e+08
82	0x4d589cef	2.2713522e+08
83	0x4d5ed582	2.336584e+08
84	0x4cd9dff4	1.1422915e+08
85	0x4bf628bb	3.2264566e+07
86	0x40160ab8	2.3444042
87	0x4da41a1e	3.4414688e+08
88	0x28a8c9d8	1.8739283e-14
89	0x28a8c9d8	1.8739283e-14
90	0x4d375313	1.9222968e+08
91	0x4bcae3ec	2.659324e+07
92	0x28a8c9d8	1.8739283e-14
93	0x4b06fe24	8.846884e+06
94	0x28a8c9d8	1.8739283e-14
95	0x404c853e	3.1956325
96	0x4b59a362	1.4263138e+07
97	0x4d3a7580	1.9551642e+08
98	0x4c8daaf1	7.4274696e+07
99	0x4ce1357b	1.1807433e+08
100	0x4cb20fd7	9.3355704e+07
101	0x28a8c9d8	1.8739283e-14
102	0x4c85a1f1	7.006196e+07
103	0x28a8c9d8	1.8739283e-14
104	0x4b1c3680	1.0237568e+07
105	0x4bb8f563	2.4242886e+07
106	0x4b1a2253	1.0101331e+07
107	0x4b354217	1.1878935e+07
108	0x4c67d91b	6.077758e+07
109	0x4de93f24	4.8915366e+08
110	0x4c428f2c	5.1002544e+07
111	0x4cce9ca3	1.0832412e+08
112	0x4ca4c08c	8.637757e+07
113	0x4a8ea721	4.6744485e+06
114	0x4c4fc125	5.4461588e+07
115	0x4ca6abce	8.738366e+07
116	0x40a81d7c	5.253599
117	0x4c84ee15	6.969361e+07
118	0x4cb0c032	9.26683e+07
119	0x4b4d8c82	1.347085e+07
120	0x28a8c9d8	1.8739283e-14
121	0x28a8c9d8	1.8739283e-14
122	0x4d9e32a6	3.3176493e+08
123	0x4cbf7f0f	1.00399224e+08
124	0x418d432b	17.657797
125	0x28a8c9d8	1.8739283e-14
126	0x4d822dfb	2.7300643e+08
127	0x4888827d	279571.9
128	0x4aacfa94	5.66817e+06
129	0x4040f14f	3.0147283
130	0x4db48b26	3.7862726e+08
131	0x4c3aae6e	4.89374e+07
132	0x4d9c5be7	3.2790858e+08
133	0x4000e88d	2.0141938
134	0x4baefef5	2.2937066e+07
135	0x4cc65585	1.0398417e+08
136	0x495399ca	866716.6
137	0x4cf00431	1.25837704e+08
138	0x28a8c9d8	1.8739283e-14
139	0x3f8561f2	1.0420516
140	0x4d93a96d	3.0966928e+08
141	0x28a8c9d8	1.8739283e-14
142	0x4b82fcb3	1.7168742e+07
143	0x4b657dd8	1.503996e+07
144	0x4077eeaf	3.873943
145	0x4c7805a8	6.5017504e+07
146	0x4d628800	2.3753523e+08
147	0x4d5c3384	2.3089773e+08
148	0x4c937eaa	7.732974e+07
149	0x3f46bed5	0.77634937
150	0x3da9124e	0.082554445
151	0x4d8f2fda	3.0028474e+08
152	0x49a17f83	1.3229924e+06
153	0x4d17e4be	1.592719e+08
154	0x4c199480	4.0260096e+07
155	0x4a4970e6	3.3004095e+06
156	0x3e5e98ff	0.21738051
157	0x28a8c9d8	1.8739283e-14
158	0x4ae6deb3	7.5651455e+06
159	0x4b70f7de	1.5792094e+07
160	0x4d943b87	3.1086614e+08
161	0x4d753f20	2.5715968e+08
162	0x4bd2ff69	2.765589e+07
163	0x4d0b898f	1.463155e+08
164	0x496d25da	971357.6
165	0x4d4584ac	2.071129e+08
166	0x4c8d3b0d	7.4045544e+07
167	0x4ded1ffc	4.9728704e+08
168	0x4d2d0ad6	1.8144803e+08
169	0x4c8b372b	7.2989016e+07
170	0x4db2094f	3.733693e+08
171	0x4e03e3bf	5.531852e+08
172	0x4d2d9bc8	1.8204173e+08
173	0x4c3481bc	4.731877e+07
174	0x3fac2a86	1.3450477
175	0x40251f78	2.5800457
176	0x4dec95e2	4.961557e+08
177	0x41128439	9.157281
178	0x4b4d6ea3	1.3463203e+07
179	0x4b97aa2e	1.9879004e+07
180	0x3dd4bf50	0.103880525
181	0x4c451fe5	5.1675028e+07
182	0x28a8c9d8	1.8739283e-14
183	0x4dd8605c	4.537742e+08
184	0x3f86613d	1.0498425
185	0x480cfe56	144377.34
186	0x4ca4bee1	8.637415e+07
187	0x4d114b16	1.5235107e+08
188	0x4dea832a	4.9180806e+08
189	0x3f7cb344	0.9871104
190	0x28a8c9d8	1.8739283e-14
191	0x3fbdd5ed	1.483091
192	0x4c271c8c	4.380728e+07
193	0x4c6ad0ec	6.155563e+07
194	0x28a8c9d8	1.8739283e-14
195	0x4221a6e5	40.412983
196	0x3661fbc8	3.3674169e-06
197	0x4e0260c1	5.4684474e+08
198	0x49c1595a	1.5839152e+06
199	0x4ade427e	7.283007e+06

layers.2.weight f4 [200]
0	0x3f800000	1.0
1	0x3f800ec5	1.0004507
2	0x3f7474a9	0.9549051
3	0x3f800000	1.0
4	0x3f800000	1.0
5	0x3f7c7657	0.9861807
6	0x3f747c79	0.9550243
7	0x3f7469a5	0.954737
8	0x3f7bd2dd	0.98368627
9	0x3f7d2699	0.9888702
10	0x3f77fdb0	0.9687147
11	0x3f7a01be	0.9765891
12	0x3f79084e	0.97278297
13	0x3f7c4498	0.98542166
14	0x3f872ad2	1.0559943
15	0x3f7baf62	0.9831449
16	0x3f79b2d7	0.9753851
17	0x3f800000	1.0
18	0x3f77fcf1	0.9687033
19	0x3f78f292	0.9724513
20	0x3f7d5623	0.9895956
21	0x3f768f7f	0.9631271
22	0x3f77ec3d	0.96844846
23	0x3f7b2467	0.9810242
24	0x3f7c8a5d	0.98648626
25	0x3f77a755	0.96739703
26	0x3f800000	1.0
27	0x3f79e1bb	0.9761006
28	0x3f7ed62b	0.99545544
29	0x3f7a6aca	0.978192
30	0x3f7aa167	0.9790253
31	0x3f800000	1.0
32	0x3f799299	0.97489315
33	0x3f800000	1.0
34	0x3f800000	1.0
35	0x3f8785a8	1.0587664
36	0x3f7bf24c	0.9841659
37	0x3f7c2cdf	0.9850597
38	0x3f74134e	0.95341957
39	0x3f7de16e	0.99172103
40	0x3f78611d	0.97023183
41	0x3f8d1213	1.1021141
42	0x3f800000	1.0
43	0x3f793f5f	0.9736232
44	0x3f7f6dc6	0.99776876
45	0x3f78b76b	0.97154874
46	0x3f79b6eb	0.97544736
47	0x3f7d3637	0.9891085
48	0x3f800000	1.0
49	0x3f7cf4bc	0.98810935
50	0x3f7d1d2f	0.98872656
51	0x3f7c8455	0.9863942
52	0x3f7c3ed0	0.98533344
53	0x3f829f8f	1.0204943
54	0x3f7850d6	0.96998346
55	0x3f7d8597	0.99031967
56	0x3f800000	1.0
57	0x3f7f41e3	0.9970991
58	0x3f800000	1.0
59	0x3f868208	1.0508432
60	0x3f7564e1	0.95857054
61	0x3f78d413	0.971986
62	0x3f80f009	1.0073253
63	0x3f778bf5	0.9669793
64	0x3f7876c1	0.97056204
65	0x3f8f9819	1.1218292
66	0x3f79d6e2	0.9759351
67	0x3f7a6f11	0.97825724
68	0x3f7a69b8	0.97817564
69	0x3f7bc4aa	0.9834696
70	0x3f7dcbd2	0.9913913
71	0x3f800000	1.0
72	0x3f800000	1.0
73	0x3f7b0890	0.9805994
74	0x3f7bd04e	0.9836472
75	0x3f7ac92e	0.97963226
76	0x3f7449f1	0.95425326
77	0x3f766db7	0.9626116
78	0x3f78c28d	0.9717186
79	0x3f7be5ce	0.9839753
80	0x3f7bab6c	0.98308444
81	0x3f780491	0.9688197
82	0x3f7b8110	0.9824381
83	0x3f7712b5	0.9651292
84	0x3f7a1651	0.976903
85	0x3f7db861	0.99109465
86	0x3f8ddcfd	1.1083065
87	0x3f7b3d73	0.9814064
88	0x3f800000	1.0
89	0x3f800000	1.0
90	0x3f7b2d60	0.9811611
91	0x3f766687	0.96250194
92	0x3f800000	1.0
93	0x3f799fb1	0.97509295
94	0x3f800000	1.0
95	0x3f89b783	1.0759128
96	0x3f7587e0	0.95910454
97	0x3f7db4e9	0.9910417
98	0x3f761f7d	0.961418
99	0x3f7995d5	0.9749425
100	0x3f7a1f48	0.9770398
101	0x3f800000	1.0
102	0x3f801fcd	1.0009705
103	0x3f800000	1.0
104	0x3f78e8c0	0.9723015
105	0x3f7b703f	0.9821815
106	0x3f7a50d1	0.97779566
107	0x3f77e9dd	0.9684122
108	0x3f79993b	0.97499436
109	0x3f75e29e	0.96048915
110	0x3f7aa400	0.97906494
111	0x3f7caa5c	0.9869745
112	0x3f7eb27d	0.994911
113	0x3f7cac29	0.98700196
114	0x3f80aaa7	1.0052079
115	0x3f78461b	0.9698197
116	0x3f8496f7	1.0358571
117	0x3f778047	0.9668011
118	0x3f7c77a2	0.98620045
119	0x3f79597c	0.9740217
120	0x3f800000	1.0
121	0x3f800000	1.0
122	0x3f79f626	0.9764122
123	0x3f7e4247	0.9931988
124	0x3f862bef	1.0482157
125	0x3f800000	1.0
126	0x3f794993	0.9737789
127	0x3f7e194c	0.9925735
128	0x3f7d4b32	0.98942864
129	0x3f8e0ba6	1.1097305
130	0x3f7c2729	0.98497254
131	0x3f7b6122	0.9819509
132	0x3f7b550b	0.9817664
133	0x3f8bfeb0	1.09371
134	0x3f7aeb85	0.98015624
135	0x3f758568	0.95906687
136	0x3f7bf6b3	0.9842331
137	0x3f7cc104	0.9873202
138	0x3f800000	1.0
139	0x3f87d720	1.0612526
140	0x3f7ad4fd	0.97981244
141	0x3f800000	1.0
142	0x3f7c5434	0.98565984
143	0x3f795dd2	0.97408783
144	0x3f84c01b	1.0371126
145	0x3f7d1701	0.98863226
146	0x3f7dfd78	0.9921489
147	0x3f7661f8	0.9624324
148	0x3f7e58b7	0.9935412
149	0x3f8fc658	1.1232405
150	0x3f8c8d5c	1.098064
151	0x3f7b2091	0.9809657
152	0x3f7d767f	0.99008936
153	0x3f7cc697	0.98740524
154	0x3f7c4271	0.9853888
155	0x3f774427	0.9658837
156	0x3f888434	1.0665345
157	0x3f800000	1.0
158	0x3f7ab669	0.97934586
159	0x3f7a56ec	0.9778888
160	0x3f7cbe0a	0.98727477
161	0x3f790308	0.9727025
162	0x3f7d5459	0.9895683
163	0x3f7d507b	0.9895093
164	0x3f7a1733	0.9769165
165	0x3f7b038e	0.980523
166	0x3f7e2dad	0.99288446
167	0x3f7c7c59	0.9862724
168	0x3f7c76bd	0.9861868
169	0x3f7a8a24	0.97867036
170	0x3f7938fc	0.97352576
171	0x3f7cebb2	0.9879714
172	0x3f7fdd2f	0.99946874
173	0x3f787f60	0.9706936
174	0x3f8cb25d	1.0991932
175	0x3f7ea39a	0.99468386
176	0x3f782ab8	0.96940184
177	0x3f85c020	1.0449257
178	0x3f7ad0fd	0.9797514
179	0x3f790c05	0.97283965
180	0x3f8d18cd	1.1023194
181	0x3f7c445e	0.9854182
182	0x3f800000	1.0
183	0x3f7d0648	0.9883771
184	0x3f8dbce9	1.1073276
185	0x3f79bf4f	0.9755754
186	0x3f7c6f27	0.98607105
187	0x3f77125e	0.965124
188	0x3f798d61	0.9748135
189	0x3f810806	1.0080574
190	0x3f800000	1.0
191	0x3f8fc836	1.1232975
192	0x3f78128e	0.9690331
193	0x3f7e1041	0.9924355
194	0x3f800000	1.0
195	0x3f7c7b95	0.9862607
196	0x3f7a84b6	0.9785875
197	0x3f78864a	0.9707991
198	0x3f7a5596	0.97786844
199	0x3f7cb0b1	0.9870711

layers.4.bias f4 [100]
0	0x3c3495d1	0.011022047
1	0xbd3c39a4	-0.045953408
2	0xbcbaabd8	-0.02278702
3	0xbd842fb4	-0.06454411
4	0xbd9c2e12	-0.07625975
5	0xbbae0df0	-0.00531172
6	0x3cb43148	0.021996155
7	0xbb5f9dd4	-0.0034121173
8	0x3b59d683	0.0033239431
9	0xbcee0a73	-0.029057717
10	0xbb9547d1	-0.0045556803
11	0xbccabe96	-0.024749082
12	0xbd99c4c0	-0.0750823
13	0x3c117078	0.008876912
14	0xbb7ba3ff	-0.003839731
15	0x3c98283a	0.018573869
16	0xbcd98dbb	-0.02655684
17	0xbd9a24a9	-0.075265236
18	0x3c9fd1f1	0.019509288
19	0x3c59bef0	0.013290152
20	0xbdb535b3	-0.08848133
21	0x3d62a41a	0.05533228
22	0xbd7f3ee2	-0.06231583
23	0xbc73c850	-0.014879301
24	0xbd075fb7	-0.033050265
25	0xbae1c347	-0.0017224335
26	0xbdcfd241	-0.101475246
27	0xbdc79b71	-0.09746445
28	0xbcb8fb69	-0.02258082
29	0xbc561670	-0.013066873
30	0xbd1d7f3a	-0.03845141
31	0xbd4e9b15	-0.050440867
32	0x3d303a9d	0.043024648
33	0xbd7f293f	-0.062295195
34	0x3ab39503	0.0013701025
35	0xbd8a3872	-0.06749047
36	0xbd8b94f7	-0.06815522
37	0x3d4e9a2a	0.05043999
38	0xbd0bedf0	-0.03416246
39	0xbd563dfa	-0.0523052
40	0xbcfb8a27	-0.030705525
41	0xbc91021a	-0.017701197
42	0xbdf7529c	-0.12076303
43	0xbd33066b	-0.043707293
44	0xbd8d1562	-0.06888844
45	0xbdacc521	-0.08436037
46	0xbdf3ddf5	-0.11907569
47	0xbd7a5745	-0.061118383
48	0xbc2c5d7c	-0.010520335
49	0x3ceaf8f8	0.02868317
50	0xbd033fd1	-0.032043282
51	0x3d48c1a5	0.0490128
52	0xbba00a9e	-0.004884078
53	0xbca59650	-0.020213276
54	0xbc3c5eec	-0.0114972405
55	0xbd0b66d6	-0.03403362
56	0x3c6ed7ab	0.014577786
57	0xbd2cc010	-0.042175353
58	0xbc41f354	-0.011837799
59	0x3d17e828	0.037086636
60	0xbe127d72	-0.14305666
61	0xbd07795a	-0.033074714
62	0xbd532932	-0.05155296
63	0xbca93474	-0.020654894
64	0x3c13549b	0.0089923395
65	0xbdcb05c1	-0.09913207
66	0x3c7f7737	0.015592388
67	0xbd0bbe0f	-0.0341168
68	0xbd4c083f	-0.04981255
69	0xbdf303d7	-0.11865967
70	0xbd9c5958	-0.076342285
71	0xbd7f1b4a	-0.062281884
72	0x3d3c829d	0.046023
73	0xbdc98eca	-0.09841688
74	0xbbca7377	-0.0061783153
75	0xbd82f3d2	-0.06394161
76	0xbdeacebf	-0.11465215
77	0xbd29c6df	-0.041449424
78	0xbdb1d84f	-0.08683836
79	0xbc5f6b85	-0.0136364745
80	0xbd42c9b9	-0.04755566
81	0xbda6d746	-0.08146529
82	0x3c85963d	0.01630699
83	0xbd8361b5	-0.064151205
84	0x3d9f1e15	0.077694096
85	0xbd51a243	-0.051180135
86	0xbc316c71	-0.010829077
87	0xbd7a17a9	-0.06105772
88	0xbdd3cc4e	-0.103417024
89	0x3c82e25e	0.01597708
90	0x3d166f01	0.036726955
91	0xbc1a17f2	-0.009405123
92	0xbdb5922b	-0.0886577
93	0x3d81e1e7	0.063419156
94	0xbcc67816	-0.024227183
95	0x3d75aff5	0.05998226
96	0xbd3adf8e	-0.045623355
97	0x3ba92ce7	0.0051628235
98	0xbc1e5357	-0.009663424
99	0x3d925691	0.071454175

layers.4.weight f4 [100, 200]
0	0x3bb49d67	0.005511928
1	0xbd1247c4	-0.035712972
2	0xbcce2a6f	-0.025166718
3	0xbc51bdac	-0.012801569
4	0xbd91820b	-0.07104882
5	0x3d8e7544	0.069559604
6	0x3cc0caef	0.023534266
7	0x3bde569d	0.0067852275
8	0x3dc504b1	0.096200354
9	0x3bd539ab	0.0065071187
10	0x3c54600a	0.012962351
11	0x3ccaee5f	0.024771867
12	0x3d132176	0.035920583
13	0x3c8d2621	0.017230095
14	0x3d0d1eb0	0.034453094
15	0x3cc0c526	0.023531508
16	0xbad74e24	-0.0016426486
17	0x3b286a4d	0.0025698126
18	0x3d52b121	0.051438455
19	0x3d2059f4	0.039148286
20	0xbbd80b84	-0.0065931696
21	0x3d6ae714	0.05734928
22	0x3d98c83d	0.074600674
23	0x3ce5f385	0.02807022
24	0xbd77e804	-0.060524
25	0x3d7cf8d0	0.061760724
26	0xbdd839d0	-0.10557902
27	0xbba8ac4a	-0.0051474916
28	0xbbcf5859	-0.0063276705
29	0xbd4fb696	-0.050711237
30	0xbb966e1e	-0.0045907637
31	0x3dc2036e	0.094733104
32	0xbbd82f5e	-0.0065974435
33	0xbd95fb0e	-0.073232755
34	0xbd3d7de6	-0.046262644
35	0xbd806cde	-0.06270765
36	0x3d918cd6	0.071069404
37	0x3d299275	0.041399438
38	0x3c1ed78f	0.009694948
39	0x3d9f3892	0.07774462
40	0x3d26aae2	0.04069031
41	0xbd91844d	-0.071053125
42	0x3baf5bcc	0.005351519
43	0xbcf7958e	-0.03022268
44	0x3d0c9347	0.034320142
45	0x3b9440a8	0.004524309
46	0xbd1099d4	-0.035302952
47	0xbc8bdd06	-0.017073166
48	0xbc41878a	-0.0118121
49	0xbbe5b1af	-0.007009707
50	0xbd06910d	-0.032853175
51	0x3d70d209	0.058794055
52	0xbd89bbce	-0.06725274
53	0x3b990dec	0.004670849
54	0x3c439771	0.011937962
55	0x3d5f5717	0.054526415
56	0xbbda74d6	-0.00666676
57	0x3d565780	0.05232954
58	0xbcfc399a	-0.030789185
59	0x3ba79507	0.005114201
60	0x3d43e634	0.04782696
61	0xbd0602f4	-0.03271766
62	0x3d00bb02	0.031428345
63	0xbc3a2d76	-0.011363378
64	0x3c9a620b	0.018845579
65	0xb99f1112	-0.00030339562
66	0xbc7db9ed	-0.015486223
67	0x3d96fc68	0.073723614
68	0x3d5fceb4	0.054640487
69	0x3d95167b	0.072796784
70	0xbc052074	-0.008125413
71	0xbcd7abc3	-0.02632702
72	0xbd61209b	-0.054962736
73	0x3da51fcb	0.08062705
74	0x3d4a99e8	0.049463183
75	0xb9d0544d	-0.0003973566
76	0xbcdc896c	-0.026920997
77	0x3c255d60	0.010093063
78	0x3d5e6139	0.054291938
79	0xbca74b73	-0.02042172
80	0x3caaf471	0.020868512
81	0xbcad378b	-0.021144649
82	0xbd8cf62e	-0.068828925
83	0x3c258741	0.010103048
84	0xbb3ef5b7	-0.0029138157
85	0xbbbb73ed	-0.0057206065
86	0xbd800c8c	-0.06252393
87	0x3c373820	0.011182815
88	0x3d1aaa6c	0.037760183
89	0x3d69b6f7	0.057059254
90	0xbd5d2fbd	-0.054000605
91	0x3bc01cab	0.0058627925
92	0xbc44067f	-0.011964439
93	0x3d70c1cd	0.058778573
94	0x3d16c668	0.03681031
95	0xbd576e87	-0.05259564
96	0xbc79b9cb	-0.01524205
97	0x3cd69724	0.026195116
98	0x3d653906	0.055962585
99	0xbcea4317	-0.028596444
100	0xbd2ee6a1	-0.042700414
101	0xbc957206	-0.018242847
102	0x3c633cdb	0.01386949
103	0xbc5c37bd	-0.013441023
104	0xbd5d82d3	-0.05407984
105	0x3d0f8eaf	0.035048183
106	0xba915756	-0.001108865
107	0x3d31fbce	0.04345303
108	0x3d1281c6	0.035768293
109	0x3cc5a1b3	0.024124956
110	0x3d38b82b	0.04509751
111	0x3ceba91e	0.028767165
112	0xbb984e5e	-0.004648014
113	0x3cd0c913	0.025486505
114	0x3b33fd21	0.002746411
115	0xbd5028ef	-0.050820287
116	0xbc87797d	-0.016537422
117	0x3c2d1ff4	0.0105667
118	0xbd82af74	-0.06381121
119	0xbd01a519	-0.03165159
120	0x3d9a74ba	0.07541795
121	0xbc1ecd7a	-0.009692544
122	0xbb9d9bfb	-0.004809854
123	0xbd524381	-0.051333908
124	0xbd8d8feb	-0.06912216
125	0xbd7a36cc	-0.061087415
126	0x3c805511	0.015665563
127	0xbcb217bc	-0.021739833
128	0x3b393ebf	0.002826616
129	0x3cd4bec4	0.02596987
130	0x3d8f1ed3	0.06988301
131	0x3d9a1c2b	0.07524904
132	0xbd8c32a6	-0.06845598
133	0xbcabdd48	-0.020979539
134	0xbc30f7fe	-0.010801313
135	0xbd2ab1f4	-0.041673616
136	0xbcebe534	-0.028795816
137	0xbcb5d863	-0.022197908
138	0x3c1f687b	0.0097295
139	0xbda2c383	-0.07947447
140	0x3d8777e0	0.06614661
141	0xbbe63079	-0.0070248214
142	0xbd160fc0	-0.036636114
143	0xbd12a9c5	-0.035806436
144	0xbc2f9502	-0.010716679
145	0x3c8407ce	0.016117003
146	0x3db03482	0.08603765
147	0x3d28474c	0.04108362
148	0x3d8d3ccf	0.06896364
149	0xbd6b2d1f	-0.057416078
150	0x3d1a4540	0.0376637
151	0xbd0db2de	-0.03459441
152	0xbca29342	-0.019845609
153	0xbc529577	-0.012853018
154	0xbd7d9474	-0.061909154
155	0x3c8018ca	0.01563682
156	0xbd306ecf	-0.043074425
157	0xbb45833f	-0.0030138043
158	0xbbc8b1b5	-0.0061247
159	0x3d7515c3	0.059835207
160	0x3cc0383e	0.023464318
161	0xbca6881b	-0.020328572
162	0x3d65e3fe	0.056125633
163	0x3dbaf8f1	0.09129513
164	0x3d77f66f	0.06053775
165	0xbb236546	-0.002493219
166	0xbd47ee13	-0.04881103
167	0x3da3426e	0.07971655
168	0xbcac1311	-0.021005185
169	0x3c4fddd9	0.01268717
170	0x3d81c4ee	0.063363895
171	0x3da0a3d1	0.078437455
172	0x3d679a4e	0.05654364
173	0xbc11af1d	-0.008891848
174	0x3cfec6d4	0.031100668
175	0xbbaa424e	-0.0051958924
176	0xbd03005a	-0.031982757
177	0xbb5ad765	-0.0033392545
178	0xbd3ad726	-0.045615338
179	0x3d858096	0.065186664
180	0x3d3a71a3	0.04551853
181	0x3d8cd234	0.068760306
182	0x3c72d69e	0.014821677
183	0xbce687f1	-0.028140994
184	0x3c88829a	0.016663838
185	0xbd00b0f4	-0.031418756
186	0xbd06143b	-0.032734137
187	0x3c87a549	0.016558306
188	0x3d045315	0.032305796
189	0x3d1abb7f	0.037776466
190	0x3d67d095	0.056595404
191	0x3d3aa17d	0.045564163
192	0xbca62005	-0.02027894
193	0x3dacb75a	0.08433409
194	0x3d9d5a4a	0.07683237
195	0x3ba28fc3	0.0049609854
196	0x3c913783	0.017726665
197	0xbc5846d0	-0.013200477
198	0x3d7c3850	0.06157714
199	0xbb5bef3f	-0.003355935
200	0xbc279db0	-0.010230467
201	0xbd2e8beb	-0.042613905
202	0xbd6f62fd	-0.058444012
203	0xbca67a1e	-0.020321902
204	0x3d04237a	0.032260396
205	0xbd2b7e16	-0.04186829
206	0xbc46ebde	-0.012141196
207	0xbcac7d0c	-0.02105572
208	0x3c9f0b41	0.019414546
209	0x3ccbd653	0.024882471
210	0xbd329a7d	-0.043604363
211	0xbd61e746	-0.0551522
212	0x3cd67dcd	0.026183033
213	0xb9338ace	-0.00017122479
214	0x3ddde805	0.1083527
215	0xbd6c2934	-0.05765648
216	0x3d406434	0.04697056
217	0xbd500c2c	-0.050792858
218	0xbcb43be2	-0.02200121
219	0xbcbd8aa3	-0.023137396
220	0xbd1849e0	-0.037179828
221	0xbd2acf68	-0.041701704
222	0xbceb81af	-0.028748361
223	0xbd21651a	-0.03940306
224	0xbd88c476	-0.06678097
225	0xb9bd48fd	-0.0003610327
226	0x3c62e291	0.013847963
227	0x3cc77df5	0.024352053
228	0x3d65cb0e	0.05610185
229	0x3cf78452	0.030214462
230	0xbc8d3423	-0.017236775
231	0x3dcd9980	0.100390434
232	0x3b5f68e9	0.003408963
233	0xbba7b48f	-0.00511796
234	0x3d08e0cf	0.03341752
235	0x3c7529ff	0.014963626
236	0x3cd34c7e	0.02579331
237	0x3c959d6b	0.01826354
238	0xbccb8fb1	-0.02484879
239	0x3d73a741	0.059485678
240	0xbd0d3842	-0.03447748
241	0x3dabccac	0.083886474
242	0xbd64e64e	-0.0558837
243	0xbcf26895	-0.029590884
244	0xbcb1772d	-0.021663273
245	0xbd1af546	-0.037831567
246	0x3c94850c	0.018129848
247	0xbd327e0b	-0.043577235
248	0x3d6d8146	0.057984613
249	0xbc2f36d6	-0.010694226
250	0x3b5cefbf	0.0033712236
251	0xbcbc89fa	-0.023015011
252	0xbd62ba68	-0.055353552
253	0x3cca60f3	0.024704432
254	0xbd5e5d36	-0.05428811
255	0x3c96fba4	0.018430538
