tests/test_models/keras_example.onnx (onnx, 943 bytes, 4 tensors)

dense_2/kernel:0 f4 [10, 3]
0	0x3e9670a2	0.29382807
1	0x3fc18251	1.5117894
2	0x3fa68c31	1.3011533
3	0x40a460ec	5.1368313
4	0x40a2d3b4	5.0883427
5	0x40c6516c	6.197439
6	0x3d351156	0.044205986
7	0x3f1be35a	0.60893786
8	0x3f58d406	0.8469852
9	0x3e36e910	0.17862344
10	0xbec274fc	-0.37979877
11	0xbf20a942	-0.62758267
12	0x40ab707d	5.3574815
13	0x40b6daab	5.714193
14	0x40aecf04	5.4627705
15	0xbebb32c5	-0.36562172
16	0x3ef9cb0a	0.4878772
17	0xbea9d77c	-0.33172214
18	0x40671280	3.6105042
19	0x407e946d	3.9778092
20	0x40568dc8	3.3524036
21	0x3ef1d1f0	0.47230482
22	0xbebe5515	-0.37174287
23	0x3c7f1340	0.015568554
24	0x3e570bc8	0.21000588
25	0xbec18d34	-0.37803042
26	0x3f3f1bc7	0.7465176
27	0x3e86d9c8	0.2633803
28	0x3e2d699c	0.16934818
29	0xbf1a1c12	-0.6019908

dense_2/bias:0 f4 [3]
0	0x3e563f9c	0.20922703
1	0x3e609115	0.21930344
2	0x3e8afe0e	0.27146953

dense_1/kernel:0 f4 [4, 10]
0	0x3fb3b531	1.403967
1	0x40ecac8f	7.3960643
2	0x3f3fc3cb	0.7490813
3	0xbde7a748	-0.11311203
4	0x40df89c1	6.9855657
5	0x3e9eb7f2	0.30999714
6	0x409ed070	4.962944
7	0xbede23b8	-0.43386626
8	0xbe4a02e9	-0.19727673
9	0xbeec7f26	-0.46190757
10	0x3f2c71d7	0.67361206
11	0x40728a9d	3.7897103
12	0x3ec46374	0.38357127
13	0xbea8d437	-0.32974407
14	0x407714c0	3.8606415
15	0xbf22bffc	-0.63574195
16	0x3fe5068e	1.7892625
17	0xbe97300c	-0.29528844
18	0x3ebf5b89	0.37374523
19	0xbda214f0	-0.0791415
20	0x3f550004	0.8320315
21	0x40859d93	4.175485
22	0x3ec49e3a	0.38401967
23	0xbe9f9bd2	-0.3117357
24	0x40974b10	4.727913
25	0xba17f1b8	-0.0005796212
26	0x40423b04	3.034852
27	0xbd7e2b00	-0.062052727
28	0x3f2afe55	0.6679433
29	0xbda8e100	-0.0824604
30	0x3ee0b11f	0.43885133
31	0x3f90faa3	1.1326488
32	0xbd93bfeb	-0.0721434
33	0xbe80d4c2	-0.2516232
34	0x3fc38e38	1.5277777
35	0xbe86854a	-0.26273566
36	0x3fa52d87	1.2904519
37	0x3edfd274	0.4371525
38	0x3e714faf	0.23565553
39	0xbf0b4252	-0.5439807

dense_1/bias:0 f4 [10]
0	0x3e5c936d	0.21540613
1	0x3f9545c7	1.1661919
2	0x3dc9042e	0.0981525
3	0x00000000	0.0
4	0x3f8d8692	1.1056693
5	0xbc57f7f6	-0.013181677
6	0x3f444122	0.76661885
7	0x00000000	0.0
8	0x3d0729fb	0.03299902
9	0x00000000	0.0
